checkpoints/best_model.pth (torch, 144373 bytes, 10 tensors)

conv1.weight f4 [16, 1, 3, 3]
-0.0081825415 0.2931001 0.39990538 -0.091797635 0.1719836 0.24433109 0.33494177 0.050764035
0.35475418 0.47163758 0.4066041 0.4316548 -0.17006539 -0.38942963 -0.35563076 -0.18699081
-0.1461545 0.024300022 -0.1597721 -0.09498647 -0.4903369 -0.15203808 -0.342047 -0.021668956
0.37323582 0.2090905 0.57798934 -0.17386237 -0.095112294 -0.23944598 -0.16658318 -0.04015696
-0.23948291 -0.21300098 0.030406812 -0.16214158 0.23816465 0.08974836 0.2830772 -0.421404
-0.37307918 0.6390686 -0.41518953 0.21863557 0.2130945 -0.04497609 0.069347 -0.2071865
-0.18660927 -0.12654682 -0.1835916 0.07448774 -0.2387441 -0.04129217 0.1746532 -0.15954603
-0.13108458 -0.030838704 0.014662922 -0.21496826 -0.055755325 -0.32989994 0.03571354 -0.27118304
-0.38569406 0.36395395 0.027101478 0.2454942 0.6350543 0.25182167 -0.074189186 -0.44381905
-0.058778543 -0.28057465 -0.40831918 0.26523122 0.38716 -0.23255438 0.011289786 0.39124507
0.11752566 0.5851414 -0.21364826 0.013701144 0.45867774 -0.25044692 -0.27290246 0.48080996
0.27072063 -0.30697316 -0.046910718 0.0806768 0.21740352 -0.28076333 0.0037585583 -0.40345636
-0.34908858 -0.15501256 -0.28643987 -0.070646666 -0.15580058 -0.2387422 0.05277941 -0.017256748
-0.22630519 -0.24563861 -0.2879577 -0.21155857 0.5977869 0.3270781 0.2277788 -0.17664367
-0.23397613 0.2790524 -0.39751288 -0.111389965 -0.14771655 -0.04047623 -0.028493246 0.26206276
0.54355884 0.37073344 0.051976636 -0.49694103 -0.5312208 -0.023622328 0.4508985 0.6202533
-0.09327583 -0.030185929 0.12614708 -0.49727398 0.19826435 -0.078092836 -0.44565928 0.39399046
0.25339878 0.38607544 0.013284689 0.17794822 0.20804262 -0.42883307 -0.45069647 -0.2915898
00000000: 1110 06bc 3711 963e 66c0 cc3e 6600 bcbd
00000010: 781c 303e ee31 7a3e 7d7d ab3e f3ed 4f3d
00000020: 57a2 b53e 7b7a f13e 6a2e d03e dc01 dd3e
00000030: 9f25 2ebe 5263 c7be 3c15 b6be 857a 3fbe
00000040: 86a9 15be d710 c73c 4c9b 23be 4488 c2bd
00000050: 700d fbbe dfaf 1bbe c920 afbe 1883 b1bc
00000060: c418 bf3e d21b 563e 1cf7 133f fa08 32be
00000070: 3cca c2bd 5431 75be c894 2abe a07b 24bd
00000080: 023b 75be ee1c 5abe b517 f93c 7108 26be
00000090: 6fe1 733e fdcd b73d 7fef 903e 44c2 d7be
000000a0: 3c04 bfbe 009a 233f b993 d4be 01e2 5f3e
000000b0: 7235 5a3e d938 38bd cd05 8e3d b328 54be
000000c0: 8016 3fbe 7d95 01be 70ff 3bbe 078d 983d
000000d0: 5579 74be fa21 29bd 4ad8 323e 0960 23be
000000e0: 093b 06be 73a1 fcbc c13c 703c a420 5cbe
000000f0: b25f 64bd a5e8 a8be 5c48 123d 81d8 8abe
00000100: b179 c5be 2c58 ba3e eb03 de3c d562 7b3e
00000110: eb92 223f c5ee 803e 80f0 97bd 403c e3be
00000120: c5c1 70bd 7ba7 8fbe 360f d1be 63cc 873e
00000130: d639 c63e bc22 6ebe cbf8 383c 4651 c83e
00000140: 4bb1 f03d d4cb 153f 9cc6 5abe c37a 603c
00000150: cfd7 ea3e 943a 80be dfb9 8bbe b92c f63e
00000160: e59b 8a3e 962b 9dbe 7425 40bd e139 a53d
00000170: 079f 5e3e 36c0 8fbe 2552 763b d591 cebe
00000180: bdbb b2be 9dbb 1ebe 3fa8 92be 33af 90bd
00000190: 308a 1fbe d678 74be 392f 583d 065e 8dbc
000001a0: 8cbc 67be b088 7bbe 316f 93be cfa2 58be
000001b0: 9008 193f c876 a73e d93e 693e 14e2 34be
000001c0: 7097 6fbe f5df 8e3e cf86 cbbe 6c20 e4bd
000001d0: 0243 17be 67ca 25bd ab6a e9bc 172d 863e
000001e0: ac26 0b3f c6d0 bd3e 74e5 543d 0e6f febe
000001f0: 16fe 07bf 9d83 c1bc 2bdc e63e ecc8 1e3f
00000200: 6607 bfbd 7b48 f7bc b32c 013e b29a febe
00000210: cf05 4b3e 23ef 9fbd 742d e4be 1eb9 c93e
00000220: 7cbd 813e aeab c53e 06a8 593c 0f38 363e
00000230: 2009 553e 0290 dbbe b0c1 e6be 424b 95be

conv1.bias f4 [16]
-0.004456681 -0.20003349 -0.26977554 -0.5257305 -0.19172883 -0.31420437 -0.21487804 -0.08596933
0.12300497 -0.27099806 -0.537039 -0.46604747 -0.27231133 -0.13842991 -0.27560684 -0.27608365
00000000: 5a09 92bb 94d5 4cbe 0520 8abe 4696 06bf
00000010: 9054 44be 65df a0be fd08 5cbe b010 b0bd
00000020: 08ea fb3d 42c0 8abe 637b 09bf c69d eebe
00000030: 646c 8bbe 92c0 0dbe 571c 8dbe d65a 8dbe

conv2.weight f4 [32, 16, 3, 3]
0.025943717 -0.1422153 -0.39551556 -0.00598334 -0.118147254 -0.0035716882 -0.03126577 -0.0027521986
0.12070827 0.095026225 0.02359861 -0.09785012 0.1315537 0.060225237 -0.3617391 0.052934118
0.23179995 0.06543061 -0.11624651 0.020819388 0.033863496 -0.043765087 0.17761812 -0.017517002
-0.10317268 -0.30275592 -0.084388584 -0.053447865 0.018787188 0.14432213 -0.037164316 -0.23733538
-0.11665116 -0.11388876 -0.007979029 -0.17317791 -0.15673791 -0.36784202 -0.25259292 0.035535343
0.022220908 -0.13875596 -0.096295625 -0.026787903 0.18900818 -0.05202598 -0.04998744 0.027821928
-0.01983444 -0.34030697 -0.14776044 -0.0024386682 -0.078896 -0.10370715 -0.008669874 -0.0070767673
0.0669535 0.102426104 -0.14524613 -0.17665255 0.06284428 -0.01789484 -0.11629614 0.0378129
-0.22702217 -0.23048668 0.20069933 0.11622657 -0.072961085 0.095000036 0.032562062 0.07523345
0.031278297 -0.005711794 -0.1923606 -0.016748594 0.10623077 0.12713128 0.003162046 -0.27730423
0.09871239 -0.07847725 0.116997674 -0.025601981 -0.05055671 -0.15587266 0.06985916 0.11462946
-0.07960607 -0.0427102 -0.015875371 -0.05098694 0.06140227 -0.053972896 -0.11794018 -0.25701553
-0.122629814 0.13413486 0.035150126 -0.06730703 0.085847385 0.10063116 -0.10358643 -0.32084268
-0.28106537 -0.05294941 0.029188313 -0.21658279 0.11779653 0.0013532514 -0.13216078 0.029751113
0.21084762 -0.1566419 -0.14155401 0.2124965 0.26141956 0.25553307 -0.009987338 -0.18118617
0.15700427 0.06533031 0.1062689 0.02766858 0.11323177 0.16192967 -0.021868892 0.08097326
-0.08616991 0.017408494 -0.20962068 -0.25596306 0.10452131 0.05983662 0.019735271 0.022274598
-0.17759839 -0.2101223 0.1309398 0.12506582 -0.101578064 -0.11570474 0.12104995 0.18808754
-0.03207214 0.048691448 -0.046650242 -0.042864177 -0.10532666 0.04281801 -0.19580564 -0.15014482
-0.0039441036 0.053678308 0.03424486 -0.0260586 0.13444555 -0.068888545 0.13530733 -0.18071243
-0.14390267 -0.17040893 0.10464331 0.26643556 0.20328936 -0.19150929 -0.25558043 -0.17676851
0.11668584 0.108302556 0.36579484 -0.0212586 -0.20888896 -0.18217318 -0.029495329 -0.015230187
-0.030998182 0.07160277 0.04324555 -0.01421414 0.14193922 0.015488277 -0.039126277 -0.0017010922
-0.029252196 0.06537161 -0.24163458 -0.15198709 0.060145717 -0.005104446 -0.12334912 -0.22951804
0.10697768 -0.013678316 0.056564983 0.03721694 0.10604543 0.032290995 -0.050331604 -0.22596891
-0.3200777 0.011915181 -0.014943336 0.046236295 0.045386426 -0.067812115 -0.0073734266 0.15463945
0.065252826 0.05698835 0.05750236 0.016032623 0.10223246 -0.24245481 -0.16439947 0.19204992
-0.081812985 0.19066621 0.17327055 -0.24396811 -0.24499457 -0.11633035 -0.061891917 0.0031813812
0.07737794 -0.16049615 -0.10808054 -0.061558224 -0.14343412 -0.19922023 -0.11987588 -0.109692425
-0.16760026 -0.1874529 -0.05090169 -0.09762516 -0.18060373 0.034343917 0.20419155 0.063007146
0.045533087 -0.050509352 -0.019637514 -0.117543705 -0.18378077 -0.36833072 0.03221947 -0.026323691
-0.17074366 0.052389886 0.105932854 -0.09313198 0.02869775 0.092240594 -0.029670553 0.15899205
00000000: eb87 d43c e3a0 11be 0481 cabe e50f c4bb
00000010: 30f7 f1bd fc12 6abb 8910 00bd 3b5e 34bb
00000020: e635 f73d 1c9d c23d df51 c13c a565 c8bd
00000030: 03b6 063e bdae 763d de35 b9be 72d1 583d
00000040: f75c 6d3e 7c00 863d a612 eebd 6c8d aa3c
00000050: 73b4 0a3d 0543 33bd 86e1 353e d17f 8fbc
00000060: 334c d3bd d302 9bbe ecd3 acbd 26ec 5abd
00000070: 97e7 993c 2ec9 133e 9c39 18bd 0c08 73be
00000080: cee6 eebd 833e e9bd 79ba 02bc 8d55 31be
00000090: e77f 20be ca55 bcbe dc53 81be 828d 113d
000000a0: 9f08 b63c 0b16 0ebe a436 c5bd 4e72 dbbc
000000b0: 5c8b 413e 3219 55bd a1bf 4cbd d0ea e33c
000000c0: d67b a2bc b73c aebe 834e 17be 10d2 1fbb
000000d0: 3a94 a1bd 6a64 d4bd 160c 0ebc 3ae4 e7bb
000000e0: eb1e 893d c7c4 d13d 67bb 14be 68e4 34be
000000f0: 80b4 803d 3398 92bc ac2c eebd b3e1 1a3d
00000100: 8078 68be b304 6cbe 2084 4d3e 3208 ee3d
00000110: 9f6c 95bd 618f c23d cc5f 053d ff13 9a3d
00000120: ac1d 003d 002a bbbb 2dfa 44be 5934 89bc
00000130: 858f d93d b42e 023e 543a 4f3b d2fa 8dbe
00000140: b929 ca3d aeb8 a0bd 7a9c ef3d 3fbb d1bc
00000150: 8e14 4fbd 159d 1fbe 5212 8f3d dac2 ea3d
00000160: 8208 a3bd e4f0 2ebd 110d 82bc aed7 50bd
00000170: f280 7b3d af12 5dbd 9f8a f1bd 8a97 83be
00000180: 5725 fbbd a65a 093e 94f9 0f3d 45d8 89bd
00000190: c1d0 af3d b617 ce3d 1f25 d4bd 7e45 a4be
000001a0: cde7 8fbe 7be1 58bd 541c ef3c e1c7 5dbe
000001b0: 4f3f f13d 955f b13a 2855 07be 9bb8 f33c
000001c0: 70e8 573e bc66 20be 89f3 10be af98 593e
000001d0: c9d8 853e 3bd5 823e efa1 23bc de88 39be
000001e0: bac5 203e e6cb 853d 82a3 d93d 38a9 e23c
000001f0: 0fe6 e73d e4d0 253e 6426 b3bc 4fd5 a53d
00000200: da79 b0bd 429c 8e3c cea6 56be 970d 83be
00000210: 450f d63d 3e17 753d ddab a13c 3879 b63c
00000220: 5adc 35be 4d2a 57be 1515 063e 4111 003e
00000230: 2908 d0bd 9bf6 ecbd 09e9 f73d 059a 403e
00000240: 145e 03bd af70 473d 5314 3fbd 5992 2fbd
00000250: 81b5 d7bd f061 2f3d 4681 48be 90bf 19be
00000260: 8a3d 81bb c9dd 5b3d 5744 0c3d d878 d5bc
00000270: 18ac 093e 7015 8dbd 018e 0a3e ae0c 39be
00000280: 395b 13be ae7f 2ebe 3b4f d63d 3e6a 883e
00000290: 162b 503e 031b 44be 70db 82be ce02 35be
000002a0: fcf8 ee3d bbcd dd3d 7649 bb3e 8426 aebc
000002b0: fde6 55be 9b8b 3abe 30a0 f1bc 0988 79bc
000002c0: e6ef fdbc 79a4 923d 3f22 313d 6de2 68bc
000002d0: 8458 113e 8bc2 7d3c e042 20bd 2ff7 deba
000002e0: 4da2 efbc 8de1 853d 0e6f 77be 81a2 1bbe
000002f0: 5b5b 763d 3243 a7bb 779e fcbd c706 6bbe
00000300: 1d17 db3d 041b 60bc afb0 673d ca70 183d
00000310: 592e d93d 9043 043d 8328 4ebd 6564 67be
00000320: 39e1 a3be e437 433c e5d4 74bc 4562 3d3d
00000330: 1ee7 393d 14e1 8abd c99c f1bb ce59 1e3e
00000340: 46a3 853d 9e6c 693d 9887 6b3d d956 833c
00000350: 415f d13d 1346 78be 5658 28be bca8 443e
00000360: 918d a7bd 013e 433e d66d 313e c7d2 79be
00000370: dbdf 7abe 9b3e eebd 6182 7dbd b87e 503b
00000380: 5378 9e3d 1a59 24be 5559 ddbd 7a24 7cbd
00000390: 65e0 12be 6300 4cbe 7c81 f5bd 6ca6 e0bd
000003a0: 679f 2bbe a7f3 3fbe 4a7e 50bd b3ef c7bd
000003b0: 2ff0 38be 35ac 0c3d 9717 513e e409 813d
000003c0: e780 3a3d e5e2 4ebd dade a0bc c1ba f0bd
000003d0: 0731 3cbe d895 bcbe 90f8 033d c8a4 d7bc
000003e0: 6dd7 2ebe c796 563d 53f3 d83d fbbb bebd
000003f0: 8b17 eb3c a3e8 bc3d a90f f3bc d0ce 223e

conv2.bias f4 [32]
-0.110650316 -0.07446229 0.0875505 -0.009645899 0.12428143 -0.0038440328 -0.07255578 -0.037509993
0.05880425 0.054636482 0.042782716 -0.038852766 -0.01584127 -0.11508698 0.10166045 -0.0004671363
0.054527227 0.03273029 -0.0129597895 0.048663184 0.03562416 -0.04362599 -0.006908075 -0.0013006849
-0.033928003 0.007949319 -0.058518857 0.017263522 0.1452572 0.07415415 -0.01225168 -0.10277657
00000000: a29c e2bd af7f 98bd ad4d b33d d509 1ebc
00000010: 4387 fe3d 2bec 7bbb 2098 94bd 14a4 19bd
00000020: badc 703d 81ca 5f3d ee3c 2f3d 1424 1fbd
00000030: 8dc5 81bc b9b2 ebbd 5b33 d03d f9e9 f4b9
00000040: f157 5f3d 3210 063d 4c55 54bc 0c53 473d
00000050: a4ea 113d 2bb1 32bd 225d e2bb be7b aaba
00000060: 17f8 0abd dc3d 023c 78b1 6fbd 3b6c 8d3c
00000070: 4ebe 143e 22de 973d 45bb 48bc 867c d2bd

conv3.weight f4 [64, 32, 3, 3]
0.18197559 0.08633396 0.061629273 -0.19867307 0.01792814 -0.021870533 0.07981325 -0.029306293
0.11745186 -0.12503217 -0.1883239 0.01973519 0.117115796 -0.0036058452 -0.15029866 -0.087015525
0.056533545 0.31148326 -0.022600548 0.007208043 -0.0956539 0.14079534 -0.06112867 -0.15547214
-0.16116741 -0.12523744 -0.21084812 -0.05349426 -0.18672372 0.069958106 -0.16266 0.0679345
-0.18981954 -0.15926586 0.06944753 -0.0004719191 -0.16482532 -0.013598739 -0.1241129 -0.1534429
0.02442868 -0.059589863 -0.17380942 -0.13726732 -0.124101266 -0.015844932 -0.17946306 0.0020929384
0.008128408 -0.082229145 0.004812158 -0.16865744 -0.0968181 -0.12444789 -0.11579837 -0.13082607
-0.12082791 0.015771493 0.026715405 -0.03811779 -0.07646928 -0.14353967 0.21534953 -0.086111136
-0.20651864 0.02598224 0.008862333 -0.08125554 -0.18053633 -0.042907864 -0.056946825 0.17684871
0.095916264 -0.07634251 -0.051070765 -0.13489898 -0.018359272 0.009018535 -0.08960849 -0.06778981
0.024423169 0.033891935 -0.21523796 0.00984638 0.15717043 0.1352371 -0.07938897 -0.18430553
0.037739046 0.16323824 -0.034837008 0.06576928 0.09240452 0.18931133 -0.029636223 -0.114383526
0.06505609 -0.08097892 -0.08120722 0.28350163 -0.19088823 0.020700216 -0.21271265 -0.17085189
0.1710838 0.062347103 -0.14281334 0.060882207 0.059078187 -0.15428147 0.13388547 -0.15404893
0.017444335 0.053681992 -0.07426485 -0.08011976 0.13044374 0.015325983 0.006403695 0.033123765
0.097665206 -0.03825146 0.024482593 0.07856849 -0.05463186 -0.11363235 -0.09302525 0.08042119
0.00027227422 -0.10300829 0.115594774 0.020832188 -0.100099295 -0.066138506 -0.14475653 0.024491513
-0.055637784 -0.049613666 -0.015463737 -0.22524537 0.014091385 0.046597935 0.04947324 -0.15631075
0.07729309 0.007273795 0.0040682876 0.22238743 -0.026446085 -0.0998722 -0.14912017 -0.06741614
-0.18382128 -0.009360802 0.028188517 -0.030060785 -0.09648375 -0.14784531 -0.07646639 0.010821598
0.021882592 -0.07829486 -0.07929698 -0.2106113 0.011166933 0.10356469 0.093425654 -0.18381375
-0.060206804 0.048984356 0.1906465 -0.14348434 0.16285546 -0.14524862 -0.1019811 0.030818952
-0.020041214 -0.0576841 -0.2317081 -0.16040528 -0.03384962 0.004319288 -0.09147832 0.11324319
0.21034174 -0.262336 0.080705754 0.056749593 -0.20146118 0.117555216 0.23503602 -0.027756732
-0.038716022 -0.10863713 0.05561036 0.038431197 -0.0053360024 -0.08147505 0.09318671 -0.029233921
0.08082027 0.03244699 -0.10829958 -0.0695365 0.088493094 -0.05324168 0.0433744 0.1544852
-0.04052579 0.012378227 -0.15974927 -0.06234157 -0.033881605 -0.04890065 0.012562012 0.0693184
0.15198296 0.059617344 0.053778183 -0.06711103 0.011719087 -0.2283246 -0.019321702 0.050217785
0.009054981 0.07019073 0.18128932 -0.04452069 0.056329116 -0.07231086 0.035260588 0.08923177
-0.03419439 -0.11139249 -0.244129 -0.017500577 -0.0048593427 -0.20891622 0.11135523 -0.06519579
0.0012136358 -0.028727159 0.039321575 0.019784492 -0.047836713 0.27884984 0.110836804 -0.03087078
-0.19264296 -0.02632362 0.015983937 0.18073814 -0.19024827 0.013403955 -0.18500744 -0.18590409
00000000: cf57 3a3e dccf b03d fa6e 7c3d f470 4bbe
00000010: 09de 923c d529 b3bc 2175 a33d c013 f0bc
00000020: 9a8a f03d 6f08 00be fbd7 40be b1ab a13c
00000030: 68da ef3d 0b50 6cbb e4e7 19be 3235 b2bd
00000040: b88f 673d bc7a 9f3e c924 b9bc 7231 ec3b
00000050: 31e6 c3bd a72c 103e 0e62 7abd 1734 1fbe
00000060: 1209 25be 3e3e 00be 92e8 57be cc1c 5bbd
00000070: 8134 3fbe 3246 8f3d 5890 26be 3e21 8b3d
00000080: 0e60 42be 9716 23be 823a 8e3d e96b f7b9
00000090: f8c7 28be 3fcd 5ebc e72e febd 2320 1dbe
000000a0: a81e c83c 8014 74bd 19fb 31be ce8f 0cbe
000000b0: ce28 febd 3bcd 81bc 2ac5 37be ae29 093b
000000c0: 042d 053c c167 a8bd 4faf 9d3b 89b4 2cbe
000000d0: 9148 c6bd 89de febd b227 edbd 45f7 05be
000000e0: a074 f7bd 3833 813c 44da da3c 6621 1cbd
000000f0: ed9b 9cbd 10fc 12be 9684 5c3e 095b b0bd
00000100: 9f79 53be b5d8 d43c 5233 113c 4e69 a6bd
00000110: 84de 38be 28c0 2fbd 1341 69bd d417 353e
00000120: bf6f c43d 7659 9cbd 942f 51bd f522 0abe
00000130: 2f66 96bc 7ac2 133c a884 b7bd 62d5 8abd
00000140: 1913 c83c 45d2 0a3d 5767 5cbe b652 213c
00000150: 49f1 203e 987b 0a3e af96 a2bd 97ba 3cbe
00000160: 4294 1a3d ed27 273e 40b1 0ebd 0bb2 863d
00000170: 953e bd3d d4da 413e aac7 f2bc e941 eabd
00000180: 213c 853d 47d8 a5bd f94f a6bd 2027 913e
00000190: 3478 43be 8093 a93c 58d1 59be ccf3 2ebe
000001a0: 9730 2f3e ad5f 7f3d a93d 12be 9f5f 793d
000001b0: f8fb 713d f6fb 1dbe 4619 093e 01bf 1dbe
000001c0: 6ce7 8e3c a6e1 5b3d 2b18 98bd d415 a4bd
000001d0: 0b93 053e d519 7b3c 16d6 d13b c9ac 073d
000001e0: b204 c83d 90ad 1cbd b88f c83c 84e8 a03d
000001f0: a8c5 5fbd 14b8 e8bd 0684 bebd ddb3 a43d
00000200: 07c0 8e39 03f6 d2bd f4bc ec3d 44a8 aa3c
00000210: dc00 cdbd a073 87bd 0e3b 14be 6da2 c83c
00000220: 72e4 63bd b337 4bbd 9d5b 7dbc b9a6 66be
00000230: 8ddf 663c 7add 3e3d 74a4 4a3d ed0f 20be
00000240: d74b 9e3d 0459 ee3b 454f 853b 88b9 633e
00000250: 76a5 d8bc cc89 ccbd f5b2 18be 7911 8abd
00000260: a53b 3cbe 0d5e 19bc 9beb e63c 0942 f6bc
00000270: 4699 c5bd c364 17be 699a 9cbd 124d 313c
00000280: 1f43 b33c 0e59 a0bd 7466 a2bd 7daa 57be
00000290: 83f5 363c b919 d43d f355 bf3d ac39 3cbe
000002a0: 699b 76bd d2a3 483d d638 433e 8fed 12be
000002b0: 95c3 263e 0ebc 14be 78db d0bd 0778 fc3c
000002c0: 792d a4bc 2a46 6cbd e344 6dbe 4841 24be
000002d0: e6a5 0abd d088 8d3b fc58 bbbd 0cec e73d
000002e0: d363 573e e750 86be 0f49 a53d 4372 683d
000002f0: d74b 4ebe cac0 f03d 48ad 703e 1662 e3bc
00000300: b194 1ebd 257d debd b0c7 633d 086a 1d3d
00000310: a2d9 aebb 64dc a6bd acd8 be3d fa7b efbc
00000320: 1985 a53d 23e7 043d 2ccc ddbd 2769 8ebd
00000330: de3b b53d f313 5abd 5ba9 313d 5e31 1e3e
00000340: 5ffe 25bd 0cce 4a3c 5095 23be e059 7fbd
00000350: 70c7 0abd 0c4c 48bd e6d0 4d3c cef6 8d3d
00000360: 6ca1 1b3e 5131 743d 8346 5c3d 8271 89bd
00000370: 6a01 403c edcd 69be 8c48 9ebc 2ab1 4d3d
00000380: 585b 143c 28c0 8f3d e8a3 393e 545b 36bd
00000390: 5cb9 663d b717 94bd 686d 103d 25bf b63d
000003a0: 6b0f 0cbd bf21 e4bd f4fc 79be 5f5d 8fbc
000003b0: 1f3b 9fbb 22ee 55be 360e e43d 5f85 85bd
000003c0: dc12 9f3a 3855 ebbc a90f 213d 1613 a23c
000003d0: 6ef0 43bd 68c5 8e3e 68fe e23d b8e4 fcbc
000003e0: 3244 45be a2a4 d7bc bff0 823c 6b13 393e
000003f0: 71d0 42be 439c 5b3c 9772 3dbe a45d 3ebe

conv3.bias f4 [64]
-0.008043291 0.023928853 -0.03861463 0.004502363 -0.022261862 0.0021904344 -0.031786542 -0.045832343
-0.0639944 -0.09809042 -0.11349855 -0.10063866 0.013580704 -0.113234654 -0.12103732 0.012273743
-0.10940846 0.049357623 -0.08185371 -0.05465561 0.08310951 -0.1307779 -0.11334196 -0.06419961
-0.08785352 -0.060709916 -0.031168403 -0.014075036 -0.07870522 0.025812078 -0.18844983 -0.082386196
0.040856097 0.004796293 -0.015523206 0.04161281 0.12910433 -0.0104688285 0.038402524 -0.00023465083
-0.019407485 -0.017062852 0.006689183 -0.08897226 0.0033272875 0.037634697 -0.041882426 -0.06926959
-0.046257276 -0.07122974 0.0442907 -0.0027327368 -0.06715708 -0.0019092239 -0.15304792 0.047135785
-0.023200698 0.019248094 -0.034608793 -0.084705286 -0.08501066 -0.024535026 0.06107224 -0.10770569
00000000: 02c8 03bc 7106 c43c 602a 1ebd 8f88 933b
00000010: 825e b6bc 648d 0f3b 9b32 02bd b2ba 3bbd
00000020: 7f0f 83bd a1e3 c8bd ee71 e8bd a41b cebd
00000030: 9a81 5e3c 92e7 e7bd 6ae2 f7bd cf17 493c
00000040: 8b11 e0bd 382b 4a3d eba2 a7bd 90de 5fbd
00000050: 5235 aa3d a4ea 05be d41f e8bd 167b 83bd
00000060: 8cec b3bd f6aa 78bd e154 ffbc fb9a 66bc
00000070: 3430 a1bd da73 d33c fef8 40be 18ba a8bd
00000080: b958 273d 392a 9d3b 0c55 7ebc 3272 2a3d
00000090: ed33 043e 7385 2bbc f74b 1d3d 9a0c 76b9
000000a0: 72fc 9ebc 65c7 8bbc ef30 db3b 1737 b6bd
000000b0: 9f0e 5a3b d726 1a3d e88c 2bbd 37dd 8dbd
000000c0: 4578 3dbd e6e0 91bd 2a6a 353d b717 33bb
000000d0: a789 89bd ec3e faba 98b8 1cbe 7411 413d
000000e0: 640f bebc 2eae 9d3c f3c1 0dbd f779 adbd
000000f0: 121a aebd aefd c8bc e326 7a3d cd94 dcbd

fc1.weight f4 [20, 576]
0.13106894 0.32589775 -0.070703745 0.13498034 0.1737182 -0.04648019 -0.043181065 0.029850874
-0.25392836 -0.010549191 -0.017707955 -0.031417973 0.016915936 -0.119460076 -0.04115565 -0.11608736
0.17021687 -0.17327294 0.1937246 0.10073364 0.036897384 -0.009926407 0.076096006 0.10080446
-0.15887824 -0.121728025 0.10752382 0.034220282 -0.121356554 0.08363808 -0.3308048 0.2936543
0.12788236 -0.06834094 0.030335058 0.037669983 0.0009683635 0.02059336 -0.016307147 -0.0011025255
-0.0029192744 0.02826762 0.009043443 0.038542297 0.07242369 -0.052460555 -0.05948188 0.10101532
-0.043241397 -0.24882466 0.19397536 0.08158782 0.08971851 0.12768196 0.044634823 0.31015694
-0.03806069 -0.037976656 0.2005055 -0.024002163 -0.06719904 -0.014320535 0.010573707 0.18861336
0.052022643 0.0093409 -0.016434234 -0.10539275 0.07492031 0.14489532 -0.20129952 0.14276862
0.101491235 0.13907792 0.18191953 0.13115259 -0.020105978 -0.22786652 -0.16283369 0.057695355
0.04953825 0.04020105 0.21879028 0.0747189 0.10820304 -0.010421188 0.06006242 -0.0040567997
-0.021002796 -0.02367596 -0.015543382 0.10788404 0.21701515 -0.020330118 0.17642799 -0.08823889
0.12659264 0.0454449 -0.16186948 0.0016039253 -0.046204507 -0.012064822 -0.042622734 0.025201125
0.4203234 0.13102663 -0.042028114 -0.14223905 -0.030697998 0.096771106 -0.08419434 -0.004524834
-0.12574838 0.14482766 0.04380741 -0.010582875 0.07633025 -0.13486789 0.15962544 -0.00446183
-0.015777165 0.098806866 0.019901272 0.12539223 -0.10279625 -0.14318897 -0.009104456 0.051528625
0.06327012 0.05474422 0.12900518 -0.07801655 -0.11674024 0.12688838 0.033122387 0.094615005
-0.12028146 -0.18909663 -0.07649159 -0.2428835 0.110630535 -0.015385178 -0.029619781 -0.0023722753
0.054507498 0.20383295 -0.079837084 0.22019781 -0.01081304 -0.19383222 0.03389911 -0.05611493
-0.18688612 -0.06656136 -0.014681319 -0.059362743 -0.14378756 -0.4336719 0.035779297 0.15716808
-0.106806554 0.12922314 0.2482185 0.17253348 -0.13004196 -0.12137258 -0.2111092 -0.047130976
0.158164 -0.41877475 0.07879787 -0.10933763 0.036497556 0.124396466 -0.122869015 0.028315611
-0.06504239 0.18690474 0.07988377 0.23460151 -0.0040931907 0.062486783 0.20077902 -0.025174096
0.20385721 0.041189063 -0.042436775 0.14694858 0.21880625 0.166126 0.06685107 -0.021702522
0.29316327 0.02603396 0.16020842 -0.07502901 0.061962407 -0.123497896 -0.082849376 -0.20452541
-0.0140819615 0.2669728 0.13972178 -0.15822476 0.07629107 0.05079782 -0.0542645 0.05239786
-0.055300016 -0.11593152 0.21632804 -0.0024693906 0.35047355 -0.010609157 -0.0108320415 0.026260894
-0.07874842 0.22477269 0.17349055 -0.19969268 0.15865752 0.113884516 -0.06594587 0.079619594
0.044024386 0.11344927 0.24042423 0.075338386 0.08350826 -0.1443834 -0.19506353 -0.08066914
0.0853176 -0.16577145 -0.011803083 -0.017778724 -0.0042770253 0.0011007607 -0.05964116 -0.03262002
-0.050660975 -0.1201872 0.033430345 0.057902202 0.07103832 -0.078022145 0.06320491 0.03231026
0.096769646 -0.08533583 0.041355014 -0.14425585 0.14432697 0.00381458 -0.014791482 -0.023364574
00000000: f036 063e 12dc a63e 20cd 90bd 4938 0a3e
00000010: 2fe3 313e 0362 3ebd a1de 30bd d289 f43c
00000020: e602 82be 84d6 2cbc 4610 91bc 22b0 00bd
00000030: 4a93 8a3c 7ca7 f4bd d492 28bd 36bf edbd
00000040: 554d 2e3e 766e 31be be5f 463e 704d ce3d
00000050: b621 173d 5ea2 22bc 39d8 9b3d 9272 ce3d
00000060: fab0 22be 8b4c f9bd 7335 dc3d 912a 0c3d
00000070: c989 f8bd 714a ab3d 3f5f a9be db59 963e
00000080: 98f3 023e 56f6 8bbd 3a81 f83c d74b 1a3d
00000090: c6d9 7d3a 68b3 a83c 9196 85bc 9e82 90ba
000000a0: 4c51 3fbb 7f91 e73c f32a 143c 87de 1d3d
000000b0: df52 943d e1e0 56bd 46a3 73bd 1fe1 ce3d
000000c0: e41d 31bd e4cb 7ebe 7aa1 463e 8417 a73d
000000d0: 57be b73d 0fbf 023e 01d3 363d e4cc 9e3e
000000e0: 87e5 1bbd 698d 1bbd 5051 4d3e 2fa0 c4bc
000000f0: a69f 89bd ada0 6abc 573d 2d3c dc23 413e
00000100: b215 553d 930a 193c 16a1 86bc 27d8 d7bd
00000110: d26f 993d 705f 143e 7621 4ebe f031 123e
00000120: a3da cf3d 716a 0e3e 1d49 3a3e dd4c 063e
00000130: 4bb5 a4bc d755 69be e0bd 26be f751 6c3d
00000140: 9fe8 4a3d dba9 243d 8f0a 603e 3906 993d
00000150: 8e99 dd3d a1bd 2abc 0304 763d e7ee 84bb
00000160: 0e0e acbc 16f4 c1bc aba9 7ebc 4ff2 dc3d
00000170: 3839 5e3e 598b a6bc 8aa9 343e 97b6 b4bd
00000180: 80a1 013e 6e24 3a3d 1dc1 25be cd3a d23a
00000190: f040 3dbd 88ab 45bc 2d95 2ebd 9772 ce3c
000001a0: a134 d73e d82b 063e ac25 2cbd 1da7 11be
000001b0: 5e7a fbbc ee2f c63d 156e acbd 0f45 94bb
000001c0: 2fc4 00be b44d 143e 666f 333d cc63 2dbc
000001d0: 0953 9c3d cf1a 0abe da74 233e 8b34 92bb
000001e0: 1d3f 81bc 415b ca3d fe07 a33c d266 003e
000001f0: d786 d2bd 21a0 12be db2a 15bc ae0f 533d
00000200: c493 813d 7a3b 603d ef19 043e 24c7 9fbd
00000210: 8215 efbd 07ef 013e 57ab 073d 83c5 c13d
00000220: 2056 f6bd 8ca2 41be 9fa7 9cbd 74b6 78be
00000230: 4392 e23d 1d12 7cbc 2fa5 f2bc 2d78 1bbb
00000240: 4143 5f3d 96b9 503e a081 a3bd 897b 613e
00000250: 2d29 31bc f47b 46be cbd9 0a3d c5d8 65bd
00000260: 135f 3fbe 5351 88bd ea89 70bc 5926 73bd
00000270: 0c3d 13be 3e0a debe 508d 123d abf0 203e
00000280: 65bd dabd 1253 043e fe2c 7e3e 9eac 303e
00000290: b829 05be 3092 f8bd 032d 58be 690c 41bd
000002a0: bef5 213e a569 d6be c760 a13d 68ec dfbd
000002b0: 767e 153d 93c3 fe3d c0a2 fbbd 24f6 e73c
000002c0: f234 85bd f563 3f3e 1a9a a33d 613b 703e
000002d0: 2c20 86bb 24f2 7f3d 0499 4d3e e839 cebc
000002e0: f2bf 503e ddb5 283d 2fd2 2dbd b079 163e
000002f0: bf0e 603e ef1c 2a3e 37e9 883d 7dc9 b1bc
00000300: 7f19 963e 2c45 d53c ad0d 243e cfa8 99bd
00000310: 4bcc 7d3d 77ec fcbd efac a9bd 1c6f 51be
00000320: 07b8 66bc a9b0 883e 3a13 0f3e ac05 22be
00000330: 7e3e 9c3d 6011 503d 7444 5ebd 239f 563d
00000340: 4582 62bd 816d edbd 1985 5d3e 80d5 21bb
00000350: 4571 b33e 08d2 2dbc e078 31bc 1621 d73c
00000360: da46 a1bd d02a 663e 82a7 313e 3d7c 4cbe
00000370: 1e77 223e 493c e93d a10e 87bd 990f a33d
00000380: ea52 343d 1758 e83d c531 763e 034b 9a3d
00000390: 6106 ab3d 3ed9 13be bcbe 47be dd35 a5bd
000003a0: feba ae3d febf 29be b861 41bc b0a4 91bc
000003b0: 4a26 8cbb 6647 903a 4a4a 74bd 929c 05bd
000003c0: e281 4fbd b524 f6bd 42ee 083d dc2a 6d3d
000003d0: 8a7c 913d 13ca 9fbd 9371 813d c357 043d
000003e0: 2a2f c63d 8dc4 aebd e063 293d ceb7 13be
000003f0: 73ca 133e 08fe 793b f957 72bc 1067 bfbc

fc1.bias f4 [20]
0.117293745 -0.00034217964 0.07118238 -0.04588788 0.06581316 0.14692277 -0.017692633 -0.00043255015
0.023197573 0.023054734 4.8190105e-21 0.087160975 0.06967014 -4.9253e-41 0.014936635 -0.0461061
-0.046207488 -0.008977463 -3.3981383e-19 -0.012479881
00000000: b437 f03d 9366 b3b9 11c8 913d eef4 3bbd
00000010: 0dc9 863d ec72 163e 24f0 90bc e6c7 e2b9
00000020: d608 be3c 48dd bc3c 9c0e b61d 7481 b23d
00000030: 38af 8e3d 4c89 0080 cab8 743c c0d9 3cbd
00000040: 1044 3dbd 3516 13bc 3797 c8a0 6a78 4cbc

fc2.weight f4 [10, 20]
-0.27432188 0.008515476 -0.41882622 -0.12595583 0.111532636 0.1321228 0.0152269965 -0.002858896
-0.028787065 -0.44939062 -2.7034672e-19 0.1118446 0.27976742 -4.9735e-41 -0.050181214 0.35200682
-0.29057539 -0.042147905 6.802148e-21 -0.06077646 -0.17254849 -0.028058799 0.101622105 -0.33096662
0.448125 -0.08975929 -0.07567382 0.0029265776 0.16853243 0.055756163 8.818765e-25 0.06469813
-0.2814106 -4.9085e-41 -0.22656256 -0.0029574796 0.19221497 0.00057068566 7.348406e-12 0.016104959
-0.10709095 -0.013179024 -0.2725288 -0.11303902 -0.006018529 0.27154386 -0.047769204 0.023395598
-0.015757732 -0.34049317 -0.00027792976 -0.19071084 -0.16031292 1.9807609e-09 0.11616505 0.09048334
0.16238253 0.034648255 -3.200862e-11 -0.04713303 0.20670213 -0.021555262 0.043440863 0.01566747
-0.115766205 0.13378596 -0.019024143 0.012314028 0.024118604 -0.4154666 3.0244408e-07 -0.03960647
0.04858311 -0.00082916144 -0.43612745 -0.085673936 0.108315 -0.067365065 -6.251591e-12 0.04848484
-0.17950232 0.023269866 -0.079496205 -0.0051917154 -0.39914957 -0.50080675 -0.010816206 -0.018682936
-0.07447155 0.19601488 9.970692e-07 -0.011676942 -0.0016671242 -3.1741102e-08 0.24520132 -0.1555189
0.21825814 0.009981791 6.7766065e-05 -0.010482555 -0.05064931 0.026724836 0.18753155 -0.23151867
-0.15998787 -0.09006091 0.11398883 0.022791645 -0.019895652 0.010091555 -8.4691525e-09 -0.19291145
0.25787216 3.081582e-07 -0.29634368 0.24609146 -0.27821198 -0.05327297 -1.8423577e-16 -0.0689996
-0.43624952 -0.03659427 -0.095267355 0.34321603 -0.093045264 0.20775191 -0.06930458 -0.037706368
-0.10549223 0.21467924 7.1001324e-16 -0.13285118 -0.027203755 4.9293e-41 0.038966972 0.099217586
-0.29628968 -0.03651238 -1.9123477e-21 -0.011394822 0.20343123 0.03584598 -0.35395706 -0.04371674
-0.12925063 -0.37253502 0.021500496 0.0014868672 -0.07148486 -0.09881673 0.0022390108 -0.17605723
-0.23781648 -1.7876062e-08 -0.024223538 0.30984402 0.1492626 -0.008545876 8.611135e-18 -0.0401467
0.124231644 -0.013461375 0.21124135 -0.096566066 -0.06328168 0.048825458 0.048066754 0.0026964915
-0.011460924 -0.100175224 -4.8498783e-05 0.04410995 -0.24447748 -0.00065148185 0.16345708 0.09828216
-0.38097006 -0.021288192 -0.0011661623 -0.058241546 0.2657048 -0.015265448 -0.3084661 -0.09542933
-0.06750446 -0.16656163 -0.019442758 -0.048136044 0.02160541 0.09198269 -0.0001858293 0.017791484
0.18923332 -8.306672e-06 0.13661149 -0.2745094 -0.25070325 -0.0025380868 0.001778206 -0.04898755
00000000: eb73 8cbe 7f84 0b3c 6470 d6be 91fa 00be
00000010: 396b e43d 334b 073e a77a 793c 515c 3bbb
00000020: dad2 ebbc 8716 e6be a495 9fa0 c80e e53d
00000030: ad3d 8f3e a48a 0080 d18a 4dbd 3d3a b43e
00000040: 4cc6 94be 48a3 2cbd 2b7d 001e bdf0 78bd
00000050: 8db0 30be 91db e5bc 401f d03d 7574 a9be
00000060: a470 e53e b8d3 b7bd e0fa 9abd d3cb 3f3b
00000070: c493 2c3e 9360 643d ba76 8817 7480 843d
00000080: 0d15 90be d488 0080 0400 68be 46d2 41bb
00000090: 00d4 443e 119a 153a 4746 012d 8cee 833c
000000a0: 8052 dbbd d5ec 57bc e588 8bbe 0081 e7bd
000000b0: 1537 c5bb cc07 8b3e a4a9 43bd 20a8 bf3c
000000c0: 5c16 81bc 1f55 aebe 1ab7 91b9 b449 43be
000000d0: 1229 24be ea1d 0831 f1e7 ed3d 544f b93d
000000e0: 9b47 263e 54eb 0d3d 81c6 0cae 900e 41bd
000000f0: b9a9 533e a994 b0bc 0cef 313d 1159 803c
00000100: d516 edbd 30ff 083e 85d8 9bbc c7c0 493c
00000110: 6194 c53c 0ab8 d4be 995f a234 653a 22bd
00000120: 15ff 463d 155c 59ba 194c dfbe d175 afbd
00000130: 41d4 dd3d b2f6 89bd 53f5 dbac 0a98 463d
00000140: 75cf 37be 72a0 be3c e8ce a2bd 441f aabb
00000150: 555d ccbe df34 00bf 7536 31bc f50c 99bc
00000160: 8a84 98bd 20b8 483e 09d3 8535 a550 3fbc
00000170: 6883 daba b653 08b3 0e16 7b3e 5940 1fbe
00000180: 107f 5f3e aa8a 233c a11d 8e38 06bf 2bbc
00000190: a775 4fbd 0bee da3c 4508 403e 3b13 6dbe
000001a0: dcd3 23be db71 b8bd fa72 e93d 8bb5 ba3c
000001b0: 35fc a2bc 0d57 253c ba7f 11b2 948a 45be
000001c0: d207 843e f170 a534 5cba 97be 66ff 7b3e
000001d0: cd71 8ebe c234 5abd cd68 54a5 aa4f 8dbd
000001e0: 195c dfbe e0e3 15bd 881b c3bd 03ba af3e
000001f0: 848e bebd ebbc 543e 8fef 8dbd fe71 1abd
00000200: 4f0c d8bd e0d4 5b3e bba5 4c26 240a 08be
00000210: 69da debc 6989 0000 d59b 1f3d 9732 cb3d
00000220: 48b3 97be 018e 15bd 2f7e 109d 59b1 3abc
00000230: 4750 503e 3cd3 123d dc39 b5be 5310 33bd
00000240: 475a 04be e9bc bebe cf21 b03c fce2 c23a
00000250: a766 92bd 6d60 cabd 5ebc 123b 5948 34be
00000260: 2a86 73be e08d 99b2 7170 c6bc e0a3 9e3e
00000270: 4cd8 183e 0004 0cbc efd8 1e23 de70 24bd
00000280: 296d fe3d 198d 5cbc a74f 583e 6ec4 c5bd
00000290: d399 81bd 34fd 473d a5e1 443d 9fb7 303b
000002a0: 99c6 3bbc ab28 cdbd 2c6b 4bb8 a3ac 343d
000002b0: 4e58 7abe 35c8 2aba 4b61 273e 2848 c93d
000002c0: 820e c3be 9364 aebc ead9 98ba b08e 6ebd
000002d0: 760a 883e ee1b 7abc 45ef 9dbe 7470 c3bd
000002e0: c73f 8abd 228f 2abe 6b46 9fbc 4d2a 45bd
000002f0: d4fd b03c 6c61 bc3d 2cdb 42b9 72bf 913c
00000300: 61c6 413e e25c 0bb7 e2e3 0b3e 7f8c 8cbe
00000310: 2d5c 80be 0856 26bb b112 e93a 2ba7 48bd

fc2.bias f4 [10]
0.3050183 0.058650695 -0.18058918 0.16889346 0.04230929 -0.01849329 -0.07488244 -0.1785264
0.07263097 0.31740358
00000000: 5c2b 9c3e b63b 703d 5fec 38be 68f2 2c3e
00000010: 824c 2d3d 3d7f 97bc f75b 99bd a0cf 36be
00000020: 8cbf 943d b982 a23e
