checkpoints/best_model.pth (torch, 144373 bytes, 10 tensors)

conv1.weight f4 [16, 1, 3, 3]
000000 a1 03 3b bd 30 a5 b8 3e 17 59 f4 3e dc 48 b5 3e
       -0.045657758 0.36063528 0.4772422 0.3540715
000010 23 77 13 be 19 e3 e8 3d bf 01 02 bf 22 9d d0 be
       -0.14400916 0.113714404 -0.50783914 -0.40744883
000020 9e 3c e9 bd 51 a9 eb bd 37 cf ff 3d 33 96 07 3f
       -0.11388515 -0.11506904 0.12490695 0.5296356
000030 d7 8c cd bc 6f 4b 03 bd 5f bb 93 3e 72 6b 57 3e
       -0.025091572 -0.03205436 0.2885389 0.21037081
000040 8d 5b 55 be 47 ee 19 3f 7f e1 99 3e 3e 5e d9 bc
       -0.20835705 0.6012921 0.30054852 -0.026534196
000050 ae 5b c7 be 0d b0 9e be db 65 97 37 be f2 9f be
       -0.38937134 -0.3099369 1.8048033e-05 -0.31239885
000060 e9 9c 84 3e 59 09 c8 be 53 ee 81 be 9d 7a f5 ba
       0.25900963 -0.39069632 -0.2537714 -0.0018728558
000070 5f a6 2b bf e7 5a bf be 54 3d e6 3d 03 77 85 3e
       -0.6705074 -0.3737404 0.11242166 0.2606736
000080 3b 3c f7 3d 21 ed cc 3e c9 c4 4e 3d bf 1b 87 3e
       0.12072035 0.40024665 0.050480638 0.26388356
000090 ce c2 4e 3e d6 de e4 3e 4a 66 fb 3e 8a fd 68 bb
       0.201915 0.4470126 0.49101478 -0.0035551512
0000a0 14 d9 36 bd 61 b8 05 bd b5 3a ae be 0c 07 1d bf
       -0.044640616 -0.03264654 -0.34029165 -0.6133888
0000b0 f9 99 38 be 0a 2d 8c be 37 28 45 be 4a 2c 70 bb
       -0.18027486 -0.27378112 -0.19253622 -0.0036647492
0000c0 0c 95 4c be ec 1d 9e 3d 14 b4 e8 be 3d 3d c8 bd
       -0.19978732 0.07720551 -0.4544989 -0.09777305
0000d0 34 a0 a4 be 6c 10 b5 3e 12 ca b7 3e 5e 76 c1 3e
       -0.32153475 0.3536409 0.35896355 0.3778562
0000e0 b5 4d b8 3e 8c 16 9e 3d e8 cc ae bd 40 f7 9f be
       0.35996786 0.07719144 -0.085351765 -0.31243324
0000f0 ff eb b0 3c 71 77 00 bf f5 34 5f be 15 a9 84 be
       0.021596907 -0.50182253 -0.21797545 -0.2591025
000100 ef bb 93 3e 5a 29 fd 3e b9 7c 1b 3d ae 53 c1 3e
       0.2885432 0.4944561 0.03796074 0.37759155
000110 1b df 0f be b0 50 c3 bc 33 15 ce 3e 9d 64 9b 3e
       -0.14049952 -0.023842186 0.4025055 0.303502
000120 94 2b c6 3b e1 0b 93 3c 8b f8 19 bf 81 46 9b 3e
       0.0060476754 0.01795 -0.6014487 0.30327228
000130 0e d2 0e 3e 9d 4f 37 be a7 3b cf 3e fb b7 c6 3e
       0.13947317 -0.17901464 0.404752 0.3881224
000140 16 be 06 3d 59 44 7f 3d 5b 58 d6 3e e8 c2 09 3e
       0.032896124 0.06232104 0.41864285 0.13453257
000150 fc 99 80 3e 71 83 a9 3d c1 6c c6 3e ff e7 19 bf
       0.2511748 0.082770236 0.38754848 -0.6011962
000160 e4 d1 94 be d6 34 75 3e e6 af 37 be a4 22 92 3e
       -0.29066384 0.23945937 -0.17938194 0.28542054
000170 5e 10 de 3e 6b aa bf 3e 68 e7 85 3e 33 99 c0 bd
       0.43371862 0.37434706 0.2615311 -0.094042204
000180 98 8b 5c 3e db 1d 1d bf 01 0c 9d be 85 47 73 3b
       0.21537626 -0.6137368 -0.3067322 0.0037121486
000190 9e 00 e6 3d fc 2e b6 be f3 1c d1 3e a9 f2 67 3d
       0.112305865 -0.3558272 0.408424 0.056627903
0001a0 59 fd 8e bd c0 f9 c5 3e 88 ca d5 3e 4e de 36 be
       -0.06981916 0.38667107 0.41756082 -0.1785824
0001b0 4c b2 8a be 3a 8a be 3d 5e 3b 69 be df 2a 70 be
       -0.27089155 0.093037084 -0.22776553 -0.23453854
0001c0 8e c7 1b be 2c fb 48 bd f9 cd 75 be 00 35 df bd
       -0.15212843 -0.04906766 -0.24004354 -0.10898781
0001d0 66 59 eb be 90 12 0a 3e 57 14 88 be c2 12 c6 be
       -0.45966643 0.13483644 -0.26578018 -0.38686186
0001e0 fb 7c c2 3e e9 0f f6 3e f7 b9 fe 3e b5 43 06 bf
       0.37985978 0.48059013 0.49751255 -0.5244706
0001f0 2d 04 02 bd d7 36 9e bc dd 5e 0c 3e 75 51 f3 bd
       -0.031742264 -0.019313259 0.13708062 -0.11880771
000200 ce f7 1d be 1d 4e 13 3e d0 27 f4 3e 31 22 ca be
       -0.15426561 0.14385267 0.47686625 -0.3947921
000210 6b b8 a8 3d 0e 08 0a 3f 31 7f bf 3d ea df d3 be
       0.082383 0.5391854 0.09350432 -0.4138177
000220 f9 9d d6 be 6e 7c 13 be 4b 55 53 be 86 0e e5 bd
       -0.419174 -0.14402935 -0.20638005 -0.11184411
000230 cc 6c 3f 3d 05 cd 1f 3f 92 25 0a 3f f9 9e 32 3e
       0.046734616 0.6242221 0.5396358 0.17443456

conv1.bias f4 [16]
000000 74 81 f8 bd 96 44 e1 3d 69 10 b2 be af 93 eb bd
       -0.12134066 0.1099941 -0.34778145 -0.11502778
000010 81 f3 ee bd 84 d6 4b be ef e5 8b 3c 11 77 29 be
       -0.116675384 -0.1990605 0.017077414 -0.16549326
000020 c6 82 59 3d 19 57 0f bd 84 14 4d 3e c9 24 66 3e
       0.05310323 -0.034995172 0.20027357 0.2247497
000030 97 be bc be ed 30 84 be 34 28 45 3e c6 f7 18 be
       -0.3686416 -0.25818577 0.19253618 -0.14938268

conv2.weight f4 [32, 16, 3, 3]
000000 8e 4e df b9 88 89 08 be c5 8b 54 be 14 33 e1 3b
       -0.00042592402 -0.13333714 -0.20756443 0.006872544
000010 00 75 f1 3d a2 4a 84 bd 51 90 32 3e 60 a1 20 3e
       0.11789894 -0.064595476 0.17437865 0.1568656
000020 55 dc 5a 3e 5e 53 1d be df f4 96 bd 4b 9b a4 bd
       0.21373112 -0.15363833 -0.07370924 -0.08037432
000030 0c f7 0d bd 5a 6b 99 3c e9 98 ce 3d 7e 34 b4 bd
       -0.03465943 0.018727947 0.10087759 -0.087990746
000040 32 64 7b bd 85 b8 cd 3d 0b 13 ad 3d 82 cc 4e 3d
       -0.06137485 0.1004496 0.08450898 0.050488003
000050 42 bd 3a 3d fc 15 73 be ac 5a b2 be c3 dc 62 be
       0.045590647 -0.23738855 -0.34834802 -0.22154526
000060 c8 67 fe 3d 93 f0 8d bd 36 ff 0f be da 45 7e bd
       0.124221385 -0.069306515 -0.14062199 -0.062078334
000070 1b c4 90 3d a4 a6 27 bd 14 19 31 3e e6 9a 2f 3d
       0.07068654 -0.040930405 0.17294723 0.042872332
000080 4f c2 81 3d 07 d5 9e 3c 2c ff e8 bd 40 ff c0 3d
       0.063358895 0.019388689 -0.11376795 0.09423685
000090 18 ce 8e 3c c2 41 84 be 43 18 22 be fe 03 c9 3d
       0.017432258 -0.2583142 -0.15829568 0.098152146
0000a0 5e f0 ec 3d b9 4d 06 be 53 bd bb 3c 6c 80 6b 3e
       0.11569284 -0.13115586 0.022917425 0.22998208
0000b0 d2 94 08 3e 05 de 84 bc c0 b8 cf 3c 6d 48 24 3c
       0.1333802 -0.016219148 0.02535665 0.010027033
0000c0 4a 9d a2 bd aa 01 86 be 1b ca 0a be c3 98 28 be
       -0.07940157 -0.26173145 -0.1355366 -0.16464524
0000d0 02 9c 37 3c 35 1c 59 be e5 5a b1 3d 7f 3b 2a bd
       0.011206629 -0.21202166 0.08659915 -0.041560646
0000e0 6b dc 08 be 6f c5 06 3e a8 54 5d 3d 89 0c c7 bd
       -0.13365333 0.13161252 0.054035813 -0.09719188
0000f0 2e 38 4b 3e f0 e9 aa 3d 52 9e a6 3c 62 75 df 3c
       0.1984565 0.08345401 0.020339165 0.027277652
000100 45 9e 46 bd 0c 82 9e bd b2 8b 46 bd a2 eb 93 3c
       -0.04849078 -0.07739648 -0.048473068 0.018056694
000110 27 77 3e bd 13 d0 c1 bd 83 e7 23 be a1 37 89 3c
       -0.04650035 -0.09463515 -0.16006283 0.016750159
000120 54 c2 df 3a 97 97 0c bd 0f c4 e5 3c 98 27 51 3d
       0.0017071464 -0.034324255 0.02804759 0.05106315
000130 b8 d9 01 3d 81 a1 b4 3d f8 06 fb bd fe 34 a8 be
       0.031701773 0.08819867 -0.122571886 -0.3285293
000140 7f 1d 0d bd a0 b9 d1 bd 9c c5 01 bd da 8c c8 bd
       -0.034451958 -0.10240483 -0.031682596 -0.0979249
000150 14 1f 1c 3d 2c 49 d9 3d 94 cd 6f 3d 24 42 e3 3c
       0.038115576 0.106096596 0.058545664 0.0277415
000160 6b 97 0f 3e fd 2a 4a 3e ac e3 91 3d 31 5e 55 be
       0.14022605 0.19742961 0.07123503 -0.20836712
000170 81 30 e1 bd 6a bd 46 3d 5d 76 17 3e e4 ce 1c be
       -0.109955795 0.048520483 0.14791246 -0.15313298
000180 41 fa 5a 3d d6 5a a5 3c 60 0d 8f 3d f1 44 e4 bc
       0.053461317 0.020184916 0.06984973 -0.027864905
000190 4b 7e 28 bd 15 3b db 3c 9f 4f bb 3d d7 d5 8d 3d
       -0.041136067 0.026761571 0.09146046 0.06925552
0001a0 51 b3 83 bc aa 38 37 bd 2d 20 84 be f6 7d 26 bc
       -0.016076716 -0.044731773 -0.25805798 -0.010161867
0001b0 4e b6 84 bd 07 b8 d7 bc 65 48 94 bc 89 8e 89 be
       -0.06480084 -0.026332868 -0.018100927 -0.26866558
0001c0 8b cd a0 be 5f 3b 5e be 9b e6 97 bd 98 99 4a bc
       -0.31406817 -0.21702336 -0.074170314 -0.012365721
0001d0 c6 06 36 be 29 9f 55 3c d8 7c f4 3d f7 81 ff bd
       -0.17776021 0.013038435 0.119378746 -0.12475961
0001e0 c6 6b e1 3d 72 d7 cc 3d 91 06 eb 3d 3c b9 95 bd
       0.11006884 0.100020304 0.11475862 -0.07310721
0001f0 09 16 84 3d 3e 47 39 3e 1c e6 3b bd a6 f7 9b 3b
       0.06449515 0.18093583 -0.045873746 0.0047597466
000200 62 90 c5 3c c6 7d 75 3d a8 a9 62 3d 54 b8 df bc
       0.024116699 0.0599344 0.055337578 -0.027309574
000210 3f bb ec bd 56 7a a2 be 91 2a 18 bd 02 10 89 3c
       -0.11559152 -0.3173396 -0.03714997 0.016731266
000220 58 66 e8 3c 54 e9 36 3c 18 c3 38 3e 23 ed 84 3d
       0.028369114 0.011164028 0.18043172 0.06490543
000230 70 d1 40 3c 52 a6 89 bb 20 0e c0 bd b8 cf 1b 3e
       0.011768684 -0.004200735 -0.09377694 0.15215957
000240 be 45 2e 3e 2d ab d0 3c 3b cc b0 bc 84 28 6f 3d
       0.17018792 0.025472248 -0.02158176 0.058388248
000250 70 df e1 3c b6 7e 88 bd 9b c9 0b be 58 25 45 be
       0.027572364 -0.06664793 -0.13651125 -0.19252527
000260 02 0f 1d be 2a 69 87 3e ad 58 26 3d 4a 72 1a 3d
       -0.15337756 0.2644742 0.04061191 0.03770665
000270 42 92 9f be d2 45 93 bd 78 39 66 bd 4c 1b 80 be
       -0.31166273 -0.071910515 -0.05620715 -0.25020826
000280 02 d8 9e bd d0 31 bd 3b 31 c9 cb 3d 38 5c a9 bd
       -0.07756044 0.0057737604 0.099504836 -0.082695425
000290 1f 9c b0 3d 29 61 bc 3d 63 9d 86 3d 53 ab 30 bd
       0.08623528 0.09198219 0.06572988 -0.043132138
0002a0 a1 4e a9 3d c8 33 79 3d 53 3b b8 3d 73 66 e0 3c
       0.082669504 0.060840398 0.0899569 0.027392602
0002b0 c9 44 1f be 5c f7 77 be 82 18 db be 24 49 a4 be
       -0.15553583 -0.24215454 -0.42792135 -0.32087052
0002c0 36 53 61 be aa 70 0e be 44 e2 ed bd 16 78 1c be
       -0.22004399 -0.13910165 -0.11615422 -0.15280184
0002d0 51 81 36 3e 17 6b 79 3d 93 44 12 3e 26 75 a6 3d
       0.17822768 0.060893144 0.14283971 0.08127813
0002e0 d2 2d 7c 3d 1a 1a 4c bd 22 e4 d7 bd 1d e5 4e be
       0.061567135 -0.04982958 -0.1054156 -0.20204587
0002f0 b4 6b 43 be 94 72 30 bc f5 29 3c bd cb 75 71 3d
       -0.19084054 -0.010769505 -0.04593845 0.058950227
000300 9e 10 10 bd eb 18 82 3d e5 7b aa 3b ba 1a d5 3d
       -0.035172097 0.06352409 0.0052027577 0.10405488
000310 4f 1d 25 bd 55 15 ac bc f9 fe 4a 3e bd dd fc 3d
       -0.040311154 -0.021006266 0.19823827 0.12346981
000320 54 35 0f 3e f9 1f 88 3c 66 3b 74 3d a0 a6 24 3c
       0.13985187 0.016616808 0.05962696 0.010049492
000330 d3 b3 bb bd cf b7 8c be dd ad 45 be d6 69 4f 3e
       -0.09165158 -0.27483985 -0.19304605 0.20255217
000340 09 7e a0 3d 3e a7 04 3e 83 fe 31 be 14 2c 88 be
       0.07836539 0.12954423 -0.17382245 -0.2659613
000350 0f bc 01 bd 6e c8 aa be 54 a3 18 be 5f f4 ea 3b
       -0.031673487 -0.3335604 -0.14906055 0.0071702446
000360 3d 82 06 3e e7 12 99 bd 22 64 57 be 3e 7b d7 bd
       0.1313562 -0.074743085 -0.21034291 -0.105215535
000370 a0 cf 99 be a5 85 64 be 55 af 5e bd a3 60 b7 bd
       -0.30041218 -0.22316606 -0.05436643 -0.08953979
000380 24 5a 02 be d4 da f5 3d 8c e2 c1 bc 96 52 e1 bb
       -0.12729698 0.12004629 -0.023667596 -0.0068763
000390 e9 1c 1d 3a d2 8a 2c be 1d 37 12 be 10 e5 00 be
       0.00059933827 -0.16849831 -0.14278837 -0.1258738
0003a0 b3 9c 03 be 84 2b 78 bd 95 79 56 3e 34 51 13 3e
       -0.12852745 -0.060588375 0.20944817 0.14386445
0003b0 7e 1e 72 3e db 16 96 bd 21 8e 51 3d 80 de f7 bd
       0.23644444 -0.07328578 0.051160935 -0.121029854
0003c0 a2 b8 68 bd e0 66 a3 be a8 8a 87 be 93 47 d0 3d
       -0.056816705 -0.31914425 -0.26472974 0.10169902
0003d0 ca e7 11 3e 70 7b cc bc 0e 5c 61 bd 84 bb 78 be
       0.14248577 -0.024961203 -0.05501943 -0.24290282
0003e0 2b 3c d4 bd 9a e3 03 be 8f c2 4b be 61 e9 c1 bd
       -0.10363039 -0.12879792 -0.19898437 -0.094683416
0003f0 52 fb 56 bd 31 35 6a 3c 55 fb d9 bc 8b 1c c2 3d
       -0.05248577 0.014294908 -0.026609102 0.094781004

conv2.bias f4 [32]
000000 7e 42 ac bd 62 90 0f 3c 47 f7 a3 bd 94 5a 3a bb
       -0.0841112 0.008762451 -0.08006149 -0.0028435336
000010 f6 d1 1d 3c bb a3 d6 3c 0a 27 23 3d 77 1e 3d 3d
       0.009632578 0.02620112 0.039832152 0.04617163
000020 fb 18 06 bd e2 b4 3d bc 7e ad 2a bd e3 2b 87 bd
       -0.032738667 -0.01157877 -0.04166936 -0.066001676
000030 00 45 91 bd bb bc e4 3c 83 3f 02 bd 58 cd cf bd
       -0.07093239 0.027922025 -0.03179885 -0.10146588
000040 ea 50 ce bc b0 f7 8f bd a7 7d c6 3c 26 e3 b4 bd
       -0.025185067 -0.070296645 0.024229838 -0.088323876
000050 79 9d ec bd 37 78 2a 3d d2 d3 c4 3d db c8 e8 3c
       -0.11553473 0.041618552 0.09610714 0.028416088
000060 0b eb ce bb d2 57 26 bc 00 46 40 bd 5f 3d 3c bd
       -0.0063146404 -0.010152774 -0.046941757 -0.045956966
000070 2e f2 94 3c 21 50 89 3d c9 b6 18 bd 25 7c 8a 3c
       0.018181887 0.067047365 -0.037283693 0.0169049

conv3.weight f4 [64, 32, 3, 3]
000000 be f1 0a be 3e 5c 2f be f9 be a1 be df 7f 55 bd
       -0.1356878 -0.17125031 -0.31591013 -0.0521239
000010 c8 e3 ee bd 51 29 04 be e4 47 a4 3d b6 fa 08 3e
       -0.116645396 -0.12906386 0.080215245 0.13376889
000020 85 1f 77 3d c7 77 a3 3d 4e 2f 2e bd e8 2b ca bb
       0.060332794 0.0798183 -0.042525582 -0.006169785
000030 95 43 45 bd 91 d1 56 bd dc fb b3 bd 3f 4a a5 bd
       -0.048160154 -0.05244595 -0.08788273 -0.08070802
000040 9c ef 2d be 0b dd 68 bd aa 02 30 bc bd 6d da bd
       -0.16985935 -0.056851428 -0.010742823 -0.10665462
000050 34 69 03 be 93 b6 38 be a4 27 7f be d2 58 e6 bd
       -0.128331 -0.18038397 -0.24917465 -0.1124741
000060 8f 8e 04 3d 51 09 2c bc 5c 6b 49 bc ea e4 10 be
       0.032362517 -0.010500268 -0.012293663 -0.14149824
000070 aa e3 12 be 4f 5b 38 be f4 cb 54 bd e3 3c c4 bd
       -0.1434466 -0.18003581 -0.051952317 -0.09581926
000080 a0 d5 91 bd 00 09 c8 3d 67 7c c9 3d 08 87 e5 bc
       -0.07120824 0.097673416 0.09838181 -0.02801849
000090 16 cb 18 be e4 eb 46 be f4 cd 3f be ef db c8 bd
       -0.14921221 -0.19425923 -0.18730909 -0.09807574
0000a0 2c b5 f1 bd a4 b8 58 bd 58 65 03 bd c6 b0 7c bd
       -0.11802134 -0.052910462 -0.03207907 -0.06169202
0000b0 e3 6c 55 3c 6f fa 05 be 23 0d e5 bd 4d d3 2b bd
       0.013026449 -0.13083814 -0.11184146 -0.04194956
0000c0 50 7a 99 be c5 e6 18 be 68 56 03 be 36 d7 d5 bc
       -0.2997613 -0.14931782 -0.1282593 -0.026103597
0000d0 84 65 8f bd e4 3e 10 be e7 da 0c 3d 6b 54 d8 bc
       -0.070017844 -0.14086491 0.03438845 -0.026407441
0000e0 19 51 a5 3c 36 ba 3d 3c 5c c9 a8 bc 0e 7b ad 3d
       0.020180272 0.011580041 -0.020603828 0.084707364
0000f0 4e 64 9f 3d cc ff 1d 3d 8c 7d 3b 3d 11 16 44 bd
       0.077828035 0.038574025 0.045774028 -0.047872607
000100 97 1c f4 bd 95 13 98 bd 4a a4 39 bb 5c 99 ef bd
       -0.119195156 -0.0742561 -0.0028326684 -0.11699173
000110 85 bc 9d be d6 35 c1 3d 63 c8 e0 bb f5 53 04 3d
       -0.3080789 0.094340965 -0.0068598255 0.03230663
000120 dc 83 a2 bc fa ed e8 bc dd 3a 65 bd ca 71 87 bd
       -0.019838266 -0.028433789 -0.05596434 -0.066135004
000130 83 65 83 bd 2f be 0b 3d e7 52 86 bd 0f a9 cb 3d
       -0.06415846 0.03411692 -0.06558781 0.09944355
000140 ad 15 e2 3d 6c 4f 69 3d 90 e3 b1 3d ab bf 1b 3e
       0.110392906 0.05696051 0.08685982 0.15209834
000150 9f 5a bb 3d ba bc e9 bd a3 3e a4 bd d6 31 4b bc
       0.09148144 -0.1141295 -0.080197595 -0.0124020185
000160 33 c2 1e 3d 27 1b c1 bc 45 75 04 bb 3e f8 0e bb
       0.03875942 -0.023572518 -0.00202115 -0.0021815444
000170 12 b2 ca ba 5d 43 20 3c 22 0e 4e bc c2 45 3a bd
       -0.0015464446 0.009781686 -0.012576612 -0.045476682
000180 06 f4 b2 3d 6d 8b 84 3d 1c 89 1c 3e a6 59 fe bd
       0.0873795 0.06471906 0.15286678 -0.12419443
000190 65 da 91 bd 2e 54 33 be 7a e6 c7 3c 48 b7 22 bd
       -0.071217336 -0.17512581 0.024401892 -0.039725572
0001a0 46 18 63 3c 2b 47 eb 3d 9b 72 8d bc 38 02 04 3e
       0.013860768 0.114881836 -0.017266562 0.12891471
0001b0 33 f9 47 bc e6 85 45 be 30 87 f3 bd b8 58 24 bd
       -0.01220541 -0.1928936 -0.11891019 -0.04012367
0001c0 af e0 3a be a7 6a 55 be 11 2e 96 3d 99 52 ed 3a
       -0.18249772 -0.20841466 0.07333005 0.0018106281
0001d0 24 29 20 bd 6e e0 aa bd 1d be b7 bd b4 45 b8 3d
       -0.039101735 -0.08343588 -0.08971808 0.0899767
0001e0 07 4e 67 be 3e 59 ef bd da 31 08 be 22 33 15 bd
       -0.22588359 -0.116869435 -0.13300267 -0.036425717
0001f0 93 4c 5e bd 7e f8 08 be 05 f3 94 bd 4b 26 2c 3c
       -0.054272246 -0.13376042 -0.07272915 0.010507177
000200 4a 44 24 be 63 a1 5d bc 66 c8 0e be 7b 52 75 be
       -0.16041675 -0.013527247 -0.13943633 -0.23957245
000210 76 3c d3 3d 8f 2a 4f 3d 1a f0 d5 bd 49 49 9d bd
       0.103142664 0.050577696 -0.10446186 -0.07679994
000220 b0 8a ff bd 9d e7 b2 3b 45 c1 3d 3c 08 2e d6 bc
       -0.124776244 0.0054597394 0.011581724 -0.026144996
000230 0c 2e c2 bb 91 f3 5c 3d 1f 34 ba 3d 29 80 69 ba
       -0.0059258994 0.05394322 0.090919726 -0.0008907342
000240 f0 4d f9 bd c0 5e bf bd 52 88 a1 3c b0 8a 0d bd
       -0.121730685 -0.09344244 0.019718323 -0.03455609
000250 48 b2 7a bd 51 55 41 bd 73 c7 10 3e d8 1b 86 bc
       -0.06120518 -0.047200505 0.14138584 -0.016370699
000260 84 76 61 3d e2 3a 5c 3c 54 a5 1d 3e 99 64 b8 bc
       0.055044666 0.013441773 0.15395099 -0.022508906
000270 9a 60 09 be 5a 33 fd bc 2a 20 09 be b7 43 09 be
       -0.13415757 -0.030908275 -0.13391176 -0.13404737
000280 00 7d 59 3d 69 44 d6 bc f7 40 77 bd 42 7c 4a be
       0.053097725 -0.026155667 -0.06036469 -0.19773963
000290 a8 e1 50 be 2a 6c f2 bb cc 75 10 3d 51 31 69 bd
       -0.20398581 -0.007398148 0.03526859 -0.056931797
0002a0 db 29 3c 3d 97 6a 4d 3d 1b 84 8f 3d 33 22 f1 bc
       0.045938354 0.05015048 0.07007619 -0.029435253
0002b0 03 53 26 be 51 53 3c 3c 6a 5b 93 be 85 8d 33 be
       -0.16242604 0.011494474 -0.2878068 -0.17534454
0002c0 d1 21 1e be ad 48 7b bd f0 ed 72 bd 08 f6 04 3d
       -0.15442587 -0.061348606 -0.059308946 0.032461196
0002d0 28 3e 31 be 55 d8 f7 3c 17 a7 aa bd 15 68 c6 bc
       -0.17308867 0.030254522 -0.08332651 -0.024219552
0002e0 0d ce 21 be 5d 63 21 be 89 44 b6 3d e9 50 bd 3b
       -0.15801258 -0.1576056 0.08899791 0.0057774675
0002f0 74 13 d6 3d 22 81 14 3e 2d 00 35 3e 62 31 74 bd
       0.10452929 0.14502385 0.17675848 -0.059617408
000300 e1 ff 04 3d 12 bf ae 3d d2 52 1f bd 0a c4 2e bd
       0.032470588 0.085325375 -0.038897343 -0.042667426
000310 f2 98 63 3e 5d 0a 91 3c e5 ff a5 3c 5c 09 d2 3d
       0.22226313 0.017705137 0.020263622 0.102556914
000320 98 a5 98 bd 04 4a ef bc 60 30 e6 3d 6e 3e 35 3d
       -0.074534595 -0.029210098 0.112396955 0.04424899
000330 6f 62 7f bd c7 ec ca 3d 13 e9 92 bd 1b c7 17 be
       -0.062349733 0.09908443 -0.07173362 -0.14822046
000340 63 b4 ac bd e5 7e 82 bd 10 6d d8 bc 24 25 4a 3d
       -0.084328435 -0.063718595 -0.026419193 0.049351826
000350 cc 7b 71 3d a5 9b 6e 3d 7d b4 78 3d 5c 68 14 3d
       0.058955953 0.058253903 0.060719002 0.036232337
000360 73 26 41 3e 0d 7a fa 3d 18 e7 15 be 97 96 8a 3d
       0.18862323 0.122303106 -0.14638937 0.06767004
000370 1d df 2d 3e ad df 5d 3d 2e 01 43 be d5 98 03 3e
       0.16979642 0.054168392 -0.19043419 0.1285127
000380 2b 17 bd bd eb a6 92 bd 0f ba 96 bd 95 9e 6c bd
       -0.092329346 -0.07160743 -0.073597066 -0.057768423
000390 4e bb b0 bd 22 89 4f be a0 9a 81 3d 09 99 e4 bd
       -0.086294755 -0.20267156 0.063283205 -0.11162002
0003a0 a9 47 32 be ce f9 97 bd 84 43 6e be 4a e4 7a be
       -0.17410149 -0.07420693 -0.23267943 -0.24501148
0003b0 c0 1d 59 be 85 a6 9e bd 65 46 20 be 5a b9 f2 bc
       -0.21202755 -0.07746605 -0.15651853 -0.029629398
0003c0 bf d8 17 3e b5 e0 12 3d e0 50 22 3d 2e d4 54 bd
       0.14828776 0.03585883 0.03962791 -0.051960163
0003d0 a7 e7 87 bd bf de 9b bb b0 45 04 be 60 3a 50 be
       -0.06635981 -0.004756778 -0.12917209 -0.20334768
0003e0 d5 2e 4b be 53 27 f2 bc 28 01 0f bd 08 93 bf bc
       -0.19842084 -0.029559767 -0.034913212 -0.02338554
0003f0 3b 71 bd bd a3 ce a1 bd 0d 6c 3e bd 96 ae f8 bd
       -0.092501126 -0.07900741 -0.046489764 -0.121426746

conv3.bias f4 [64]
000000 a5 74 b2 ba 15 4d e6 bd b4 e0 df bb ce ad 8d bd
       -0.0013615085 -0.11245171 -0.0068322066 -0.06917916
000010 64 65 32 bd ee cd b0 bd d5 b7 46 be 42 a7 03 3d
       -0.043553725 -0.08633028 -0.19406064 0.03214193
000020 87 ce c1 bd e9 e7 87 3c ed 16 e1 bd 58 18 b0 bd
       -0.0946322 0.016590076 -0.10990701 -0.08598393
000030 0f f0 9a bd 04 5f 6b 3c bb a8 0f be 4a 7a d8 3d
       -0.07565319 0.014365915 -0.1402921 0.105702
000040 1a b8 3d bc d7 e9 4d bd 82 04 c1 bc 2a f8 aa bd
       -0.011579538 -0.050271835 -0.02356172 -0.08348115
000050 b8 22 15 bd 18 fe b2 bd fa 6c 31 bd 2c 65 93 bd
       -0.036410064 -0.08739871 -0.04331682 -0.071970314
000060 4d 90 27 bd 45 71 aa b9 6f d3 c5 bd 32 7a 58 bd
       -0.0409091 -0.0003250932 -0.096594684 -0.05285091
000070 f9 24 ab bd 94 2c 1a be ea f6 d9 bd 46 80 bd 3d
       -0.08356661 -0.15056068 -0.10642798 0.09252982
000080 5b 89 38 be d2 7e d4 bd 09 b7 34 be 72 bb 12 be
       -0.18021147 -0.103757516 -0.17647947 -0.14329317
000090 f7 ee 0a 3e b4 25 51 bd fc 9b 52 3d f5 25 36 3d
       0.1356772 -0.051061347 0.05141829 0.044469792
0000a0 40 1b 54 bd 99 ce 53 3d 33 ad 11 3d 6b 41 3d bc
       -0.0517838 0.0517107 0.035565566 -0.011551241
0000b0 57 81 95 bd e2 c5 70 bd 9a a0 0d be 74 06 28 bd
       -0.0730006 -0.058782466 -0.13830796 -0.04102178
0000c0 29 c8 35 3d 5e b1 b6 3d fc ec 01 be bc 7f 9c bd
       0.04438034 0.08920549 -0.12688059 -0.07641551
0000d0 06 bc 19 bd ea 0e 69 bd 94 bc 63 bd 7b a7 72 3d
       -0.03753283 -0.05689899 -0.055599764 0.059241753
0000e0 51 53 ca bd 97 43 64 bd 36 37 e0 bd e8 ab 7a 3d
       -0.098791726 -0.05572852 -0.10948031 0.0611991
0000f0 7a 3a a2 bd 16 ab c0 bd 01 22 fe 3c fe a9 c1 bd
       -0.0792131 -0.09407632 0.031022074 -0.094562516

fc1.weight f4 [20, 576]
000000 2d af 31 3d 33 2f d0 3c f5 37 e5 bc 09 4c fd bc
       0.04337995 0.025413131 -0.027980784 -0.030920045
000010 99 81 87 bd dd 08 48 be 6e 07 15 3e 21 c7 18 3c
       -0.06616516 -0.19534631 0.14553615 0.00932482
000020 45 c7 0b 3d 63 9c b3 3b 8e 8c 34 3d 5a 33 79 3c
       0.034125585 0.0054812892 0.044079356 0.015209997
000030 a8 2c d8 bd 03 1b 93 3d 2c 59 22 3c 8b 20 27 be
       -0.105553925 0.071828865 0.009908956 -0.16321008
000040 eb 04 c7 bd 33 16 04 be db 94 9f 3c 60 2f f6 3c
       -0.09717735 -0.12899093 0.01948016 0.030051887
000050 61 bb 0d 3d 78 d8 e0 bb ef d8 2c bc e7 5e 44 3d
       0.034602527 -0.0068617426 -0.010549768 0.04794207
000060 89 5f c8 bb 75 40 e5 bd a4 b5 9f bd 4a de a6 3c
       -0.0061149043 -0.11193935 -0.07798317 0.020369668
000070 df 40 9c 3b 17 c5 40 3b e6 5c 5d bd c3 17 52 bd
       0.0047684754 0.002941435 -0.054043673 -0.051292192
000080 44 05 8a 3d f5 3c a2 3d 52 3c 9b bc 3e 5d be bd
       0.067392856 0.07921783 -0.018949661 -0.09295128
000090 bb 37 a8 3c c8 57 15 bd de 35 c4 3d 7b 02 17 3d
       0.020534387 -0.036460668 0.09580587 0.0368676
0000a0 41 85 df bc 2e 13 be bd b3 18 65 bd d8 16 5f 3e
       -0.02728522 -0.09281002 -0.055931758 0.21786058
0000b0 30 12 24 3d a2 a7 e0 3d 8f 15 e3 3c d6 ad 97 bb
       0.040056407 0.109694734 0.02772024 -0.004628877
0000c0 e8 95 48 bd 1b a3 be 3c 2d eb d3 3d 97 1d 94 bd
       -0.048971087 0.023271134 0.103475906 -0.07232206
0000d0 5f 17 24 be d4 cd 7d bd 93 86 b0 bc 19 be 3a 3d
       -0.1602454 -0.06196387 -0.021548545 0.045591448
0000e0 fe 20 80 3c 25 ab 51 bd 52 23 c2 bc fd ee 37 bd
       0.015640732 -0.051188607 -0.023698483 -0.04490565
0000f0 84 29 ec bd 3c 4f 8d bd 51 5b 85 be 85 17 26 3e
       -0.11531356 -0.068998784 -0.2604623 0.1621991
000100 a2 10 19 be f8 22 8a 3d ef 83 16 bd fa d3 81 3d
       -0.14947751 0.06744951 -0.036746915 0.063392594
000110 5f c0 35 be 19 7f 16 3d 70 7b 82 3d d7 73 0c 3d
       -0.17749165 0.036742304 0.063712 0.03429016
000120 43 17 e9 ba 0b ae 38 3d a0 78 4c 3c 8d 66 32 bc
       -0.0017783422 0.045087855 0.012479931 -0.010888708
000130 47 43 c2 3d 83 9e 70 3d b7 77 17 3c dc 5e 2b 3c
       0.094854884 0.05874492 0.009244851 0.010459628
000140 a7 22 37 3c f3 58 b8 3d b2 68 e0 3c 5d c5 74 bc
       0.011177695 0.09001341 0.027393673 -0.014939633
000150 33 91 cd 3d b5 a2 73 bd c3 2c 02 3d 55 6f 39 3e
       0.1003746 -0.05948134 0.03178097 0.18108876
000160 44 6e 1d 3e 0c 5f 2c 3e fe 18 99 3d 46 23 da bb
       0.15374094 0.16833133 0.0747547 -0.006657037
000170 dc bc 0e 3e 80 65 cd bb 6a d7 7f 3d 93 09 31 3e
       0.13939232 -0.0062682033 0.062461294 0.17288809
000180 79 9d 70 3d 64 c8 6e 3d dc e0 8c be 85 5e 75 3d
       0.058743928 0.058296576 -0.27515304 0.059904594
000190 04 fe 22 3d 04 62 92 3d 81 02 cb 3c 88 b9 50 bd
       0.03979303 0.07147601 0.024781467 -0.050958186
0001a0 da 66 68 bd 26 e0 59 bd 71 af 5d 3b 53 7c 11 bd
       -0.056738712 -0.05319228 0.0033826495 -0.035518955
0001b0 d4 9d 07 3d d1 92 33 3e 92 a3 8e bb 54 22 88 3d
       0.0331095 0.17536475 -0.004352995 0.066471726
0001c0 6f 19 95 3d 31 3d b2 bc 46 3d 22 3b a7 2f 9f 3d
       0.07280242 -0.021757694 0.002475576 0.07772761
0001d0 98 a4 17 bc 6c ee 23 be 75 6f d9 3d 31 e6 d9 bd
       -0.009255551 -0.1600892 0.10616962 -0.10639609
0001e0 80 75 a8 bd 64 0f 90 3d 4c db 43 bd 20 a1 05 3e
       -0.08225536 0.070341855 -0.04781656 0.13049746
0001f0 62 ec 68 3e d3 43 37 3d 3d 14 02 3e de 5c ab 3d
       0.22746423 0.044742417 0.12703033 0.083673224
000200 b7 25 13 3e 2a f8 ea bd b3 3b ef bd 75 65 17 bc
       0.14369856 -0.11473115 -0.116813086 -0.009240498
000210 40 90 6d be b6 d1 cb 3d 28 dc 0b bd cd 0d a4 ba
       -0.23199558 0.099521086 -0.034145504 -0.001251632
000220 44 81 26 bd dc fa 49 bb d6 92 00 be 44 5d 62 3d
       -0.04065062 -0.003081969 -0.12556013 0.055264726
000230 96 47 2c 3c d3 55 45 3d 14 c8 37 3e 3f 47 de bd
       0.010515114 0.04817755 0.17947417 -0.10853433
000240 3b cc 46 3e e8 bb 01 be 19 8c 9e 3d d0 a8 9c 3c
       0.19413845 -0.12669337 0.07741565 0.019123465
000250 3c 64 14 bd c1 2a c1 bd 3e bd 19 bc f3 b7 c1 bd
       -0.036228403 -0.09431983 -0.009383498 -0.09458914
000260 33 d6 09 bd 3b 58 0b be bd 9e a4 bd 23 90 cc bd
       -0.033651542 -0.13607876 -0.080380894 -0.099884294
000270 eb c4 e5 bd d1 9e b6 3d df cd 66 3d ba b0 31 bc
       -0.112192 0.089170106 0.056348678 -0.010845358
000280 55 17 26 3e d0 6a 82 bd 30 c6 2c 3d ee 16 31 bd
       0.16219838 -0.06368029 0.042181194 -0.043234758
000290 f8 27 bf 3c c4 a1 16 be 5b ce d2 3c db fb 7b 3d
       0.023334488 -0.14710146 0.025733164 0.061519485
0002a0 71 27 ea bd 1c e2 0a 3e e9 6f 19 be 39 1d 5e bd
       -0.11433304 0.13562816 -0.14984097 -0.054227088
0002b0 5b 92 c3 bb c4 2a 38 bc 93 bc db 3c af 63 87 3d
       -0.0059683747 -0.011240665 0.026823318 0.0661081
0002c0 bc 53 c8 3c 58 d7 04 3e 50 ab 2c 3e a9 dc 61 3d
       0.02445399 0.12972772 0.16862226 0.05514208
0002d0 27 22 97 3c aa 8d ca 3b 91 7c 36 3d cb 6e bf 3b
       0.018448902 0.0061814385 0.04455239 0.005842065
0002e0 23 a6 e5 3d 28 f2 ae 3d 1a 98 ee 39 02 7a 24 be
       0.11213329 0.085422814 0.00045508222 -0.16062167
0002f0 7b 14 12 be a4 81 6f 3c 30 d0 2d 3d 9a 08 21 bd
       -0.14265625 0.014618311 0.04243487 -0.039314844
000300 d1 85 c5 3c 73 2b 25 3d 17 27 62 3d e4 3f f3 bd
       0.02411166 0.04032464 0.05521306 -0.118774205
000310 89 15 88 bd e0 48 31 be 3f 37 ab 3d 42 5c 04 3d
       -0.066447325 -0.17312956 0.08360147 0.032314546
000320 10 de de bd 33 11 cb 3c 46 17 b9 3c 07 97 84 3d
       -0.10882199 0.024788475 0.022594105 0.06474119
000330 2c 9b 3d bd aa 9b 5b 3d e1 72 07 3e 17 ca e0 bc
       -0.04629056 0.05361525 0.13227417 -0.027440114
000340 a7 3b 11 3d cd 98 4b 3d d9 c5 b3 3c ce f7 cb bd
       0.03545728 0.04970627 0.021944927 -0.09959374
000350 64 1a e6 bd 8d 22 d3 3c 02 b1 f0 3c fb b8 a7 bd
       -0.11235502 0.025773311 0.029381279 -0.08189579
000360 e3 b4 b7 3d ab c0 97 3d 48 89 18 3e db 17 37 bd
       0.08970048 0.074097954 0.14896119 -0.044700485
000370 21 e0 76 bd 6a 77 a0 3d 72 09 37 3e 7a 3d 66 3d
       -0.06027234 0.078352764 0.17874697 0.056210972
000380 10 30 17 3c 23 4e 0c 3e 6a 82 13 3d c2 ce 4b be
       0.009227768 0.13701682 0.036013044 -0.1990309
000390 88 f0 e9 3d 81 4c 56 3d 9e db 29 be bc 29 a7 bd
       0.11422831 0.052319054 -0.16587684 -0.08162257
0003a0 cd 78 86 be 1a 0e 5f be 3b 58 95 bd c9 00 0d 3d
       -0.2626404 -0.21782723 -0.07292219 0.034424577
0003b0 97 c0 67 bc ed b5 07 be 53 9a 88 3d 75 6a 38 3e
       -0.014145038 -0.13252993 0.0667006 0.1800936
0003c0 8c 1d c2 3c 8f f3 39 3e 94 46 59 be 17 1a 1e bc
       0.02369573 0.18159316 -0.2121833 -0.009649775
0003d0 ce 32 cb 3d c6 b7 5e bb a8 15 55 3d db 8e 04 bd
       0.099217996 -0.003398405 0.052022606 -0.0323628
0003e0 60 e5 0a bd 99 2d cd bc 3c 8f 9d bc d6 0f 16 bd
       -0.033910155 -0.025046157 -0.019233339 -0.036636196
0003f0 42 0d 1e 3e 85 44 14 be 85 75 ca bc 69 e6 c8 3c
       0.15434745 -0.14479263 -0.02471424 0.02452393

fc1.bias f4 [20]
000000 b9 6c c5 3d 0d cf d6 3d 84 e9 23 3d b9 86 e4 bb
       0.09639878 0.104887106 0.04001762 -0.006974068
000010 97 0e a9 3d 5b f7 a5 3b ec b8 14 bc 09 0b 9b 3d
       0.08254736 0.0050648875 -0.009077292 0.07570464
000020 02 80 8f b6 4f 32 2f 3d ef b2 e4 a4 fb 66 c8 bc
       -4.276634e-06 0.042772587 -9.9182363e-17 -0.024463167
000030 ad fc 90 a8 74 0c 8c b3 c3 7e ce 3d 9b 11 4b 96
       -1.6096792e-14 -6.521523e-08 0.10082772 -1.6403765e-25
000040 0c 89 28 bc 72 fb d0 3d 3e 9d bf 3c 86 ec 73 b1
       -0.010286581 0.102042094 0.023390409 -3.5495602e-09

fc2.weight f4 [10, 20]
000000 04 4c 93 bd 47 8a 8c bd 92 3f 47 3e 94 10 d8 bb
       -0.07192233 -0.06862312 0.19457844 -0.006593773
000010 60 46 67 3d 1b 02 a0 3b 49 56 35 bc fd 7e ce be
       0.0564636 0.0048830635 -0.011067935 -0.4033126
000020 f8 2e 5d 39 b9 b3 1f bd f0 89 00 80 ca 11 0d 3d
       0.000210937 -0.038989756 -4.9483e-41 0.034440793
000030 0c 8a 00 80 6c aa 99 a8 5c df 87 3d 7b ef d2 96
       -4.9522e-41 -1.7060321e-14 0.06634399 -3.4078463e-25
000040 26 cd b9 be 96 4d 34 3e 36 95 9d 3e aa 6e 2a af
       -0.36289328 0.17607722 0.307779 -1.5500726e-10
000050 f6 67 4f 3e b1 d2 56 be bd fd a9 be ff fd 46 bd
       0.20254502 -0.2097881 -0.332014 -0.048582073
000060 b5 5e 51 3d 95 5b 06 bc 38 1a 7c be 1c 48 81 be
       0.05111571 -0.008200546 -0.24619377 -0.25250328
000070 3a f5 a4 b9 a3 0d 3a 3e 02 7a 00 80 cb 57 7b 3e
       -0.00031463226 0.18169264 -4.3768e-41 0.24545209
000080 a1 89 00 80 ce 89 00 00 d9 ba db 3c af 09 91 19
       -4.9372e-41 4.9435e-41 0.026822494 1.499656e-23
000090 86 d2 89 3e bc 34 18 3e 2a 7a ca bd 67 e2 6c b0
       0.2691843 0.14863867 -0.09886582 -8.6178037e-10
0000a0 c4 9b 62 be 10 a2 80 3e 39 b8 81 bc 87 b8 29 3c
       -0.22129732 0.25123644 -0.015834915 0.010358936
0000b0 f7 16 3b bc d2 51 94 bb be 04 d6 3d ef 7f 6f be
       -0.011419049 -0.0045263553 0.10450123 -0.23388647
0000c0 76 12 9a bb b8 83 93 bd 13 dd b3 8d 83 d9 d0 3d
       -0.0047019077 -0.07202858 -1.1084948e-30 0.10197737
0000d0 1d 8a 00 00 d7 a9 e8 ae ef a1 30 be 7b 12 1c 99
       4.9546e-41 -1.0580308e-10 -0.17249273 -8.068743e-24
0000e0 54 62 0b 3e 2a 05 fa bd 0a c5 1d be 57 d4 a6 b5
       0.13611728 -0.12208016 -0.15407196 -1.2429763e-06
0000f0 13 a6 dc bd 44 7b 9b bd 26 0d 2d be 18 02 35 3d
       -0.10773864 -0.075918704 -0.16899547 0.04419145
000100 99 aa c4 bd 11 3d a1 bd 5d cc 3d 3b 8b 02 76 3e
       -0.096028514 -0.078729756 0.0028960921 0.24024408
000110 98 11 0c 3c fb 9c 41 be 18 93 6a b6 b6 00 12 3e
       0.008549117 -0.1890754 -3.4954337e-06 0.14258084
000120 6c 89 00 00 5f 25 92 25 7a 58 93 be 47 f0 95 a2
       4.9298e-41 2.5352286e-16 -0.2877844 -4.0640934e-18
000130 bb 73 0b be 97 40 31 3e 45 a8 63 bd 83 96 6f b0
       -0.13618366 0.17309795 -0.055580396 -8.7161584e-10
000140 2e 26 66 bc 87 d0 9f be 9f a9 9b bc 35 28 bf b9
       -0.014047189 -0.3121378 -0.01900178 -0.00036460315
000150 6a 25 db be 32 66 37 bc d7 aa 84 3d 1f f1 ff 3d
       -0.42801982 -0.011193799 0.064778976 0.12497162
000160 ba 8c 81 bb e4 de f7 bd 01 89 00 00 07 5b a1 be
       -0.0039535435 -0.1210306 4.9148e-41 -0.3151476
000170 d3 cc 53 37 93 e1 d9 b9 0a e5 b0 3d ca b9 c9 11
       1.2624269e-05 -0.0004155753 0.08637436 3.182671e-28
000180 16 5c 75 3e 16 42 17 be 7d 33 a0 3d 60 99 08 36
       0.23960909 -0.14771304 0.078223206 2.0354855e-06
000190 2b ff 66 be e0 67 e4 bc 37 76 14 3e 07 61 b4 bc
       -0.22558276 -0.027881563 0.1449822 -0.022018922
0001a0 05 4e 5f 3e 17 fe 77 3c 6e 35 9f be 24 dd 57 3e
       0.21807106 0.015136263 -0.3109545 0.21080452
0001b0 dc 50 18 bd 01 eb 81 be 4e e4 6e b8 79 de 0a be
       -0.03718649 -0.25374606 -5.6956247e-05 -0.13561429
0001c0 70 89 00 00 a8 3d 38 9c 9a aa b6 be cc 09 05 0f
       4.9303e-41 -6.096018e-22 -0.35677034 6.559293e-30
0001d0 ba aa af 3d 93 da 81 bc 99 dd 43 3e 35 35 34 ae
       0.085774854 -0.015851295 0.19127502 -4.097452e-11
0001e0 11 b4 92 bd 78 fa ce 3d 6a 61 03 3e 0c 96 ed 3b
       -0.07163251 0.10106367 0.1283013 0.007250553
0001f0 c2 1b ea bd 19 a6 54 3d c4 87 ec be c5 7a a8 be
       -0.11431076 0.051916216 -0.4619733 -0.32906166
000200 a6 7b 74 bc 61 d9 09 3e c6 89 00 00 1e 50 c8 bc
       -0.014922058 0.1346183 4.9424e-41 -0.024452265
000210 c1 a7 00 80 85 a0 8d a4 17 4f 0d 3e 00 02 3a 19
       -6.0179e-41 -6.142093e-17 0.13799702 9.6163785e-24
000220 9c 1f 63 3e 04 d1 45 be 1b 3f 93 3e 66 24 7c 30
       0.22180027 -0.19318014 0.28759083 9.172879e-10
000230 e3 63 84 3e 1e f1 74 be 07 5a 90 bd fb 70 90 bc
       0.25857458 -0.23920104 -0.07048421 -0.017631998
000240 6d bd 42 3d 77 46 1d bd e6 d8 66 3e 96 67 4f bd
       0.04754393 -0.03839728 0.22543678 -0.050635897
000250 f1 09 49 3b 88 3f 07 bd f3 8a 84 a0 3d fa 8f bd
       0.0030676092 -0.033019572 -2.2453619e-19 -0.07030151
000260 e7 88 00 80 06 d4 e5 ab fd f5 c4 be 5a c0 cc 14
       -4.9111e-41 -1.6330277e-12 -0.38468924 2.0674605e-26
000270 cc 02 f2 bd fe 97 7d be a8 74 71 3e f6 70 ee b5
       -0.1181694 -0.24765012 0.23579657 -1.7765258e-06
000280 b5 87 0c 3e b2 13 85 3e 8d 27 b8 be 7c 17 91 bc
       0.13723643 0.2599159 -0.35967675 -0.017711394
000290 ec f1 40 bd 62 93 4d 3b 8c 22 4f be 9b f0 30 3e
       -0.047105715 0.0031368365 -0.20228022 0.17279284
0002a0 85 31 8a 3b a2 11 b6 bd 4e c9 67 ae 1d 98 72 be
       0.004217329 -0.08890082 -5.2702114e-11 -0.23690839
0002b0 ff 88 00 80 c9 8e cb ac 19 69 51 3c 0b 33 80 93
       -4.9145e-41 -5.7854594e-12 0.012781405 -3.2362075e-27
0002c0 9e 59 8a bd 79 76 30 bd 1e d0 41 3e b1 be 32 ad
       -0.06755374 -0.043081734 0.18927047 -1.01604706e-11
0002d0 47 02 43 3e 0a b2 25 be f9 01 8b 3e 7d 72 32 bd
       0.19043837 -0.16181198 0.27149943 -0.043566216
0002e0 e9 0c cb bd 5b 72 10 bd 32 83 de bd 0b 61 5f 3e
       -0.09914572 -0.035265308 -0.10864867 0.21814363
0002f0 5f 3b 8b bc e3 a2 05 be f0 8f ff a8 a0 d0 38 3e
       -0.016996084 -0.13050418 -2.837311e-14 0.18048334
000300 fd 74 86 b7 21 a8 f0 ba 1a d8 0b 3e 84 a1 a0 91
       -1.6028522e-05 -0.0018360653 0.13656655 -2.534309e-28
000310 c1 e9 77 be d9 47 bd be 9a 2b 10 bd 8d ce db b1
       -0.24210264 -0.36968878 -0.03519783 -6.397221e-09

fc2.bias f4 [10]
000000 9f f1 05 be b3 64 90 bd d4 86 3e 3e 40 bd 99 bd
       -0.13080452 -0.07050457 0.1860612 -0.075068
000010 dc d4 12 be 61 41 90 be 79 a0 82 bd 33 0b 35 bc
       -0.14339012 -0.2817488 -0.06378264 -0.011050033
000020 63 b3 22 be fa 92 97 3b
       -0.15888743 0.0046256753
