checkpoints/epoch_200.pth (torch, 144357 bytes, 10 tensors)

conv1.weight f4 [16, 1, 3, 3]
0.003874281 0.27922833 0.36576813 -0.10240759 0.15030427 0.21783665 0.321584 0.030176882
0.33128375 0.47374466 0.41109574 0.44316465 -0.17273913 -0.3749324 -0.3428575 -0.18444471
-0.13466965 0.053095784 -0.1683159 -0.10224671 -0.49711087 -0.13670152 -0.34036833 -0.032480408
0.3897379 0.2100667 0.58258086 -0.16653292 -0.08127798 -0.22123998 -0.14735617 -0.020265726
-0.22192578 -0.19747595 0.038670134 -0.1598269 0.23435645 0.08633871 0.27822274 -0.4294378
-0.3926038 0.63004375 -0.4138357 0.21687046 0.21236196 -0.04527399 0.07310015 -0.1959116
-0.18130298 -0.12271854 -0.17316413 0.072524875 -0.23989771 -0.028466726 0.15207116 -0.16619414
-0.13536489 -0.03485684 0.013446087 -0.21051593 -0.06851234 -0.3266616 0.044270813 -0.2690927
-0.383861 0.35008153 0.028890088 0.24367425 0.6312218 0.26280445 -0.07813012 -0.45730165
-0.04244743 -0.25904784 -0.4056736 0.28243092 0.3993497 -0.24544834 0.017500388 0.38442028
0.11131674 0.55090684 -0.24165374 0.0055369884 0.43721518 -0.2761968 -0.26761594 0.47031116
0.26747027 -0.29686028 -0.027138663 0.09784426 0.22798283 -0.26085666 0.015023542 -0.39217
-0.33328044 -0.14406288 -0.26728967 -0.074544996 -0.14919336 -0.2293358 0.059995662 -0.0017315744
-0.20653546 -0.23719975 -0.2704338 -0.19617026 0.6031236 0.3330497 0.23404488 -0.16576856
-0.20888415 0.29074478 -0.37471864 -0.078922056 -0.12702732 -0.04996901 -0.04474753 0.26534373
0.5423785 0.36836267 0.040910497 -0.50731415 -0.541639 -0.02332773 0.44867343 0.6127401
-0.11676781 -0.04185695 0.10103258 -0.5151537 0.2017205 -0.08484676 -0.4517115 0.38500592
0.23959713 0.40073413 0.019907413 0.1764774 0.22025393 -0.44061667 -0.4640104 -0.2739704
00000000: a6e7 7d3b 04f7 8e3e f645 bb3e 12bb d1bd
00000010: 5de9 193e 9210 5f3e a8a6 a43e 8235 f73c
00000020: 069e a93e a98e f23e 247b d23e 7ae6 e23e
00000030: 87e2 30be 24f7 bfbe 058b afbe 13df 3cbe
00000040: d7e6 09be f77a 593d 015b 2cbe b966 d1bd
00000050: 5185 febe 7cfb 0bbe c244 aebe 2d0a 05bd
00000060: ba8b c73e ba1b 573e 0524 153f 9b87 2abe
00000070: 1275 a6bd bc8c 62be 89e4 16be 4f04 a6bc
00000080: 8340 63be 2337 4abe 9364 1e3d aaa9 23be
00000090: 23fb 6f3e 59d2 b03d 3673 8e3e 45df dbbe
000000a0: 5e03 c9be 8c4a 213f 46e2 d3be 4a13 5e3e
000000b0: 6a75 593e 3871 39bd 88b5 953d 0d9d 48be
000000c0: 7da7 39be dc53 fbbd f051 31be ec87 943d
000000d0: bfa7 75be 0d33 e9bc 8bb8 1b3e cc2e 2abe
000000e0: 189d 0abe 0cc6 0ebd fa4c 5c3c 7d91 57be
000000f0: 3350 8cbd 3040 a7be 5055 353d 85c6 89be
00000100: 6e89 c4be e33d b33e e8aa ec3c be85 793e
00000110: c097 213f 4e8e 863e af02 a0bd 7123 eabe
00000120: 5bdd 2dbd eba1 84be 73b4 cfbe c99a 903e
00000130: 9077 cc3e cf56 7bbe f95c 8f3c bcd2 c43e
00000140: 08fa e33d 3b08 0d3f 1474 77be a06f b53b
00000150: abda df3e ab69 8dbe f504 89be a0cc f03e
00000160: ddf1 883e 12fe 97be e751 debc 9262 c83d
00000170: 5574 693e 018f 85be 4d25 763c 82ca c8be
00000180: bca3 aabe 3885 13be 31da 88be 0cab 98bd
00000190: 25c6 18be 01d7 6abe 03be 753d fff5 e2ba
000001a0: 087e 53be 7ee4 72be 4d76 8abe dbe0 48be
000001b0: 4f66 1a3f 7e85 aa3e 76a9 6f3e 3cbf 29be
000001c0: bae5 55be 80dc 943e 1fdb bfbe e3a1 a1bd
000001d0: 7313 02be 4eac 4cbd 3049 37bd 22db 873e
000001e0: 51d9 0a3f 089a bc3e c491 273d 57df 01bf
000001f0: daa8 0abf cc19 bfbc 86b8 e53e 89dc 1c3f
00000200: f623 efbd 3172 2bbd 2bea ce3d 1de1 03bf
00000210: d28f 4e3e 23c4 adbd bb46 e7be 7f1f c53e
00000220: f358 753e 062d cd3e df14 a33c 7eb6 343e
00000230: 3f8a 613e 8298 e1be c592 edbe d945 8cbe

conv1.bias f4 [16]
-0.026150486 -0.20318533 -0.25469556 -0.54087687 -0.18648627 -0.3223773 -0.22212648 -0.09025306
0.09352478 -0.27896 -0.5503881 -0.48818025 -0.28062943 -0.13328879 -0.27607262 -0.27063447
00000000: 8b39 d6bc d10f 50be 7567 82be e876 0abf
00000010: 42f6 3ebe a30e a5be 2075 63be 99d6 b8bd
00000020: eb89 bf3d d8d3 8ebe 3ce6 0cbf c3f2 f9be
00000030: a9ae 8fbe db7c 08be 6459 8dbe 9a90 8abe

conv2.weight f4 [32, 16, 3, 3]
0.019142602 -0.12109263 -0.3909851 0.009822139 -0.11363684 -0.008859615 -0.0010951058 0.047726005
0.14772797 0.08003567 -0.0030590782 -0.12894864 0.13102768 0.071126714 -0.34079853 0.062694244
0.21345228 0.046101734 -0.113355055 0.042552974 0.040438194 -0.03395708 0.2105802 -0.0037081132
-0.08131411 -0.29048797 -0.08092912 -0.047149304 0.042741276 0.16908143 -0.041920315 -0.20312192
-0.09979235 -0.12672073 -0.0034723768 -0.17917284 -0.1985331 -0.3936534 -0.26974726 0.045877628
0.026931416 -0.13661559 -0.08791723 0.01790335 0.1902995 -0.041765623 -0.021300547 0.042177964
0.0037573383 -0.318387 -0.16525032 0.004041773 -0.086931095 -0.11126782 0.0118747465 0.00526193
0.08579671 0.115301505 -0.15542988 -0.17739592 0.072225176 -0.013038386 -0.122699484 0.024103984
-0.23029612 -0.22340442 0.20928738 0.12243112 -0.045736175 0.10452469 0.042934917 0.08151822
0.05931756 -0.0049755704 -0.17946573 0.0084382 0.10825752 0.1547335 0.024909038 -0.2517549
0.11517927 -0.06611639 0.12111284 -0.043110076 -0.022106834 -0.15188412 0.063683845 0.12613413
-0.07057426 -0.001443768 -0.031727303 -0.029702773 0.08806698 -0.04614346 -0.10079356 -0.24527124
-0.108521126 0.10500385 0.024905326 -0.054590356 0.11610444 0.13848452 -0.10334642 -0.31251127
-0.26121172 -0.058229543 0.025057197 -0.20305632 0.09256711 -0.031777747 -0.15436374 0.04195482
0.21017091 -0.17419286 -0.12177459 0.20550649 0.2531246 0.23918715 -0.03910992 -0.2013359
0.1507469 0.055050373 0.11372793 0.054917254 0.11770322 0.15864818 -0.026760891 0.057192013
-0.085581325 0.02689249 -0.22719201 -0.24353577 0.12754363 0.061128393 0.04226903 0.010505304
-0.18287294 -0.25179526 0.12383317 0.14180411 -0.10079513 -0.098745175 0.1283598 0.1746632
-0.030713 0.05491605 -0.031246625 -0.014231188 -0.09310658 0.036828212 -0.1890732 -0.1605777
-0.0067299874 0.04577924 0.013395212 -0.041874945 0.1017287 -0.08702641 0.15119831 -0.16696309
-0.123135515 -0.17194566 0.096800864 0.2639734 0.19397494 -0.1502217 -0.25628147 -0.18998303
0.11333022 0.10068142 0.36857447 -0.013864955 -0.2142219 -0.18162823 -0.034651812 -0.031141117
-0.043004278 0.046816114 0.01921007 -0.024945213 0.1539109 0.025346685 -0.023839083 -0.002349184
-0.029164968 0.07359746 -0.23961693 -0.15089545 0.06724885 -0.0074685803 -0.13069236 -0.25654802
0.100504324 -0.025795149 0.040654615 0.033238653 0.10138842 0.019828783 -0.046058297 -0.2162148
-0.32446352 -0.012811506 -0.028770251 0.038204174 0.0077749304 -0.10849717 -0.03386995 0.14633143
0.070496336 0.06107269 0.08915035 0.0033684082 0.09090295 -0.23413825 -0.16684665 0.20618379
-0.07886404 0.19758381 0.17970465 -0.22384788 -0.22824818 -0.1292774 -0.056243535 0.0078701
0.083580725 -0.18023838 -0.10833954 -0.0674943 -0.13291883 -0.20626259 -0.13019718 -0.074752934
-0.1604453 -0.1784135 -0.036988504 -0.10467774 -0.19238807 0.01551983 0.18177645 0.07329499
0.021918258 -0.070429295 -0.044000532 -0.11234034 -0.18364397 -0.36263394 0.028908089 -0.045746263
-0.1634064 0.044074614 0.09018227 -0.11132369 0.0040486343 0.088174015 -0.0208072 0.1468207
00000000: f2d0 9c3c 6aff f7bd 332f c8be 09ed 203c
00000010: 6eba e8bd eb27 11bc a789 8fba 587c 433d
00000020: 0046 173e bee9 a33d d17a 48bb 1d0b 04be
00000030: 1f2c 063e e2aa 913d 257d aebe d765 803d
00000040: 3c93 5a3e 2cd5 3c3d b226 e8bd 074c 2e3d
00000050: 85a2 253d 9416 0bbd 56a2 573e d103 73bb
00000060: 0388 a6bd d7ba 94be 2bbe a5bd a11f 41bd
00000070: 7a11 2f3d af23 2d3e a3b4 2bbd 31ff 4fbe
00000080: ee5f ccbd 14c3 01be d190 63bb 1679 37be
00000090: 434c 4bbe f08c c9be 501c 8abe 2eea 3b3d
000000a0: 469f dc3c f5e4 0bbe f30d b4bd 0caa 923c
000000b0: dfdd 423e 6e12 2bbd 7c7e aebc cdc2 2c3d
000000c0: ad3d 763b 9f03 a3be 6137 29be d970 843b
000000d0: ee08 b2bd 62e0 e3bd 4c8e 423c 456c ac3b
000000e0: 2fb6 af3d 3223 ec3d 0329 1fbe 47a7 35be
000000f0: cbea 933d f49e 55bc de49 fbbd b875 c53c
00000100: bfd2 6bbe 21c4 64be 6e4f 563e 2bbd fa3d
00000110: db55 3bbd 0a11 d63d 86dc 2f3d 06f3 a63d
00000120: f8f6 723d 1c0a a3bb ddc5 37be 6040 0a3c
00000130: 1eb6 dd3d 7572 1e3e 0a0e cc3c 05e6 80be
00000140: 1ce3 eb3d 0868 87bd 020a f83d 3194 30bd
00000150: 6419 b5bc 8387 1bbe ad6c 823d 4e29 013e
00000160: 3d89 90bd d13c bdba 7df4 01bd 3b53 f3bc
00000170: 765c b43d ed00 3dbd db6c cebd 6228 7bbe
00000180: 5340 debd 420c d73d 4106 cc3c 239a 5fbd
00000190: 2ac8 ed3d e3ce 0d3e 4aa7 d3bd 7a01 a0be
000001a0: 8bbd 85be 1a82 6ebd c044 cd3c ffed 4fbe
000001b0: d393 bd3d 6229 02bd 8711 1ebe d1d8 2b3d
000001c0: 0b37 573e 9d5f 32be f564 f9bd 4b70 523e
000001d0: 8c99 813e 7aed 743e b931 20bd 002b 4ebe
000001e0: 655d 1a3e 807c 613d 30ea e83d eaf0 603d
000001f0: 630e f13d ab74 223e a839 dbbc 2c42 6a3d
00000200: 4345 afbd a44d dc3c 06a5 68be 7161 79be
00000210: cc9a 023e c461 7a3d 4a22 2d3d 701e 2c3c
00000220: 0b43 3bbe 4feb 80be 3f9c fd3d 1935 113e
00000230: ad6d cebd e93a cabd c070 033e e9da 323e
00000240: d499 fbbc a7ef 603d ecf8 ffbc ee29 69bc
00000250: aaae bebd 2ed9 163d 689c 41be 7b6e 24be
00000260: 3a87 dcbb 0383 3b3d 9777 5b3c 1085 2bbd
00000270: 2357 d03d e73a b2bd bbd3 1a3e 5ff8 2abe
00000280: 792e fcbd 8612 30be 883f c63d 8627 873e
00000290: 5ea1 463e b8d3 19be 5337 83be e98a 42be
000002a0: ad19 e83d 0f32 ce3d cbb5 bc3e d629 63bc
000002b0: fc5c 5bbe c0fc 39be 0fef 0dbd a81b ffbc
000002c0: 4125 30bd 41c2 3f3d 705e 9d3c e759 ccbc
000002d0: d29a 1d3e daa3 cf3c 2e4a c3bc c4f4 19bb
000002e0: 5feb eebc 44ba 963d 245e 75be 5684 1abe
000002f0: c4b9 893d feba f4bb 38d4 05be 435a 83be
00000300: 36d5 cd3d 5950 d3bc 7485 263d 4125 083d
00000310: bba4 cf3d f96f a23c a0a7 3cbd 6a67 5dbe
00000320: 1520 a6be 5ae7 51bc 97af ebbc fb7b 1c3d
00000330: d8c4 fe3b c433 debd 37bb 0abd e8d7 153e
00000340: 6260 903d 5b27 7a3d 7594 b63d 83c0 5c3b
00000350: 532b ba3d f0c1 6fbe d9d9 2abe d821 533e
00000360: 7883 a1bd 6953 4a3e 7f04 383e 6138 65be
00000370: e4b9 69be 4b61 04be 9f5f 66bd 98f1 003c
00000380: 5f2c ab3d 6990 38be 1fe1 ddbd 743a 8abd
00000390: e01b 08be 8036 53be 6952 05be 1118 99bd
000003a0: c64b 24be 07b2 36be 4281 17bd 4861 d6bd
000003b0: 6101 45be e346 7e3c 9b23 3a3e af1b 963d
000003c0: eb8d b33c 3c3d 90bd e739 34bd b112 e6bd
000003d0: 2a0d 3cbe 28ab b9be a8d0 ec3c 6f60 3bbd
000003e0: 0254 27be 9587 343d 7bb1 b83d adfd e3bd
000003f0: 68aa 843b 9494 b43d dc73 aabc 2a58 163e

conv2.bias f4 [32]
-0.09731279 -0.085826755 0.094971105 -0.0073936973 0.123113126 -0.009681719 -0.09402942 -0.05991236
0.06932143 0.050580624 0.051221486 -0.018419199 -0.01914295 -0.12733892 0.09804686 -0.008372282
0.049802754 0.03075398 -0.011255808 0.045587577 0.038320724 -0.070538476 -0.009549156 -0.0027476598
-0.0138093475 0.021935245 -0.06506043 0.014233386 0.14385416 0.087981336 0.007127763 -0.12447077
00000000: ee4b c7bd f0c5 afbd 3680 c23d d446 f2bb
00000010: bc22 fc3d 13a0 1ebc 7f92 c0bd aa66 75bd
00000020: 65f8 8d3d a12d 4f3d 9fcd 513d dce3 96bc
00000030: add1 9cbc 2265 02be cbcc c83d e52b 09bc
00000040: f9fd 4b3d c5ef fb3c 486a 38bc 0aba 3a3d
00000050: 31f6 1c3d 7a76 90bd 1074 1cbc 1512 34bb
00000060: 9a40 62bc 8bb1 b33c 673e 85bd 2633 693c
00000070: 814e 133e 8f2f b43d 0290 e93b 88ea febd

conv3.weight f4 [64, 32, 3, 3]
0.17482093 0.08896461 0.04649708 -0.21985658 -0.0051277373 -0.043097854 0.07972576 -0.05707862
0.11137347 -0.11429731 -0.21225896 -0.007896531 0.12120919 -0.00051947625 -0.14000714 -0.08833433
0.059046753 0.31520084 -0.03960812 -0.011051903 -0.098471835 0.10933608 -0.07471946 -0.14403404
-0.19069158 -0.1398236 -0.2189087 -0.050333317 -0.18913753 0.07211939 -0.17535917 0.05942354
-0.18892457 -0.16554163 0.06738153 0.00058343116 -0.17479908 -0.00598991 -0.13647552 -0.16060014
0.025833042 -0.04660079 -0.17471695 -0.14959443 -0.12891999 -0.017500969 -0.15111074 0.0076240264
0.006351729 -0.08045034 0.000117443225 -0.17423972 -0.09656885 -0.13459645 -0.12283155 -0.11940811
-0.09384145 0.010267539 0.046301868 -0.042329665 -0.076877706 -0.14526083 0.19149524 -0.07553857
-0.21496828 0.005461673 0.008141724 -0.08249576 -0.1858658 -0.047774278 -0.070510805 0.1863239
0.09665735 -0.07388836 -0.054617256 -0.14899567 -0.029397454 0.007269069 -0.085030936 -0.07071454
0.02503977 0.0289138 -0.23257712 -0.005454004 0.14196032 0.13239044 -0.0732043 -0.19777048
0.027514212 0.15283062 -0.056249745 0.061982054 0.08334289 0.1871441 -0.0322337 -0.13395071
0.053137694 -0.096770905 -0.090477966 0.2758882 -0.20285898 0.0063513364 -0.22111408 -0.1696611
0.16493814 0.062393006 -0.12710996 0.04700058 0.04258513 -0.16050088 0.1322036 -0.15382019
0.011095121 0.056689825 -0.061705243 -0.081352085 0.11850473 0.01863842 -0.004162006 0.02504138
0.110141054 -0.02181101 0.021868285 0.08172082 -0.04074334 -0.10798592 -0.1016154 0.07803159
0.000514702 -0.10023114 0.118257806 -0.0015789729 -0.09813355 -0.061913267 -0.15313558 0.013431106
-0.06410784 -0.053093623 -0.013779575 -0.22527727 0.005886461 0.043820463 0.06032225 -0.13666394
0.06807962 0.003505492 -0.025278924 0.220015 -0.021560121 -0.108953126 -0.15199909 -0.075396374
-0.19087271 -0.0047552953 0.03252639 -0.04030743 -0.105000176 -0.15602396 -0.08684497 0.01866949
0.02686329 -0.07487951 -0.08695401 -0.21000774 0.006569007 0.10411865 0.1004953 -0.16994825
-0.060936164 0.043797903 0.18232317 -0.14590812 0.1635148 -0.14518407 -0.094959535 0.029213892
-0.042706527 -0.055442657 -0.22016336 -0.15940253 -0.020817572 0.0071742767 -0.10057862 0.12767653
0.20157416 -0.26312792 0.06558624 0.054109156 -0.18710636 0.12011285 0.23253052 -0.02736188
-0.03090315 -0.1329852 0.05118025 0.04020794 0.0023967316 -0.067795664 0.078564525 -0.02560376
0.07385465 0.026952632 -0.10738477 -0.0769393 0.09276936 -0.049515173 0.045530926 0.14933357
-0.050933473 0.013077058 -0.16161256 -0.066849016 -0.04053016 -0.057758 0.0013922071 0.05274645
0.15946735 0.07138817 0.03775846 -0.061470933 0.00087110803 -0.23471609 -0.03673901 0.05226387
0.0084192 0.047414843 0.1831158 -0.035464212 0.049104344 -0.075950705 0.002979606 0.089150146
-0.031596117 -0.12057865 -0.24484013 -0.014439473 -0.014016947 -0.21510932 0.109790646 -0.0864346
0.0001120527 -0.024432393 0.021379884 0.02266868 -0.057267085 0.253642 0.10239626 -0.028854093
-0.19649185 -0.033455577 0.0029300856 0.16864954 -0.18570453 0.023021951 -0.20005725 -0.19209537
00000000: 4204 333e 1433 b63d b973 3e3d 1522 61be
00000010: 9406 a8bb 6087 30bd 4247 a33d 45cb 69bd
00000020: c617 e43d b514 eabd 6a5a 59be 7460 01bc
00000030: 863c f83d 762d 08ba 085e 0fbe a1e8 b4bd
00000040: 02db 713d 0162 a13e 203c 22bd 0a13 35bc
00000050: 9aab c9bd 98eb df3d 8406 99bd a97d 13be
00000060: a744 43be eb2d 0fbe 9a29 60be 4f2a 4ebd
00000070: 45ad 41be 55b3 933d 5b91 33be 1966 733d
00000080: 7175 41be bf83 29be 54ff 893d 67f1 183a
00000090: 88fe 32be 0247 c4bb 3dc0 0bbe 5d74 24be
000000a0: d19f d33c 78e0 3ebd 00e9 32be 482f 19be
000000b0: 9a03 04be 315e 8fbc c6bc 1abe f8d2 f93b
000000c0: 2a22 d03b 26c3 a4bd da4b f638 e66b 32be
000000d0: e4c5 c5bd a7d3 09be 1c8f fbbd 3d8c f4bd
000000e0: f22f c0bd 2e39 283c 07a7 3d3d df61 2dbd
000000f0: 0f72 9dbd 41bf 14be 5417 443e f7b3 9abd
00000100: a520 5cbe d5f7 b23b de64 053c 89f3 a8bd
00000110: 9b53 3ebe f6ae 43bd f867 90bd b1cb 3e3e
00000120: 4af4 c53d c852 97bd 58b6 5fbd 5292 18be
00000130: eed2 f0bc 5f31 ee3b b324 aebd c9d2 90bd
00000140: 3420 cd3c a2dc ec3c b228 6ebe 80b7 b2bb
00000150: 0c5e 113e 5c91 073e 23ec 95bd 5884 4abe
00000160: 7c65 e13c a17f 1c3e 2266 66bd e5e0 7d3d
00000170: adaf aa3d b4a2 3f3e 7c07 04bd 602a 09be
00000180: e9a6 593d d32f c6bd 834c b9bd 3841 8d3e
00000190: 44ba 4fbe df1e d03b bb6b 62be a4bb 2dbe
000001a0: 8be5 283e cf8f 7f3d 1d29 02be ae83 403d
000001b0: bf6d 2e3d 585a 24be 6160 073e 0a83 1dbe
000001c0: 4fc8 353c 9733 683d a3be 7cbd ec9b a6bd
000001d0: 9cb2 f23d 9aaf 983c 7061 88bb 9523 cd3c
000001e0: a291 e13d 01ad b2bc 1e25 b33c 3f5d a73d
000001f0: 7de2 26bd b927 ddbd bc1b d0bd 07cf 9f3d
00000200: 11ed 063a fc45 cdbd 2631 f23d 8af5 ceba
00000210: 3efa c8bd c498 7dbd 93cf 1cbe 240e 5c3c
00000220: f94a 83bd b378 59bd bac3 61bc 16af 66be
00000230: 37e3 c03b 167d 333d 7714 773d a2f1 0bbe
00000240: 546d 8b3d 65bc 653b bf15 cfbc 9d4b 613e
00000250: da9e b0bc d122 dfbd a6a5 1bbe 6a69 9abd
00000260: 2374 43be 4fd2 9bbb 643a 053d 6719 25bd
00000270: 550a d7bd bfc4 1fbe c7db b1bd c2f0 983c
00000280: 6710 dc3c 6e5a 99bd f214 b2bd 450c 57be
00000290: d340 d73b 293c d53d 7bd0 cd3d ea06 2ebe
000002a0: 3398 79bd 6e65 333d edb2 3a3e f068 15be
000002b0: 6c70 273e 22ab 14be 257a c2bd f951 ef3c
000002c0: 0aed 2ebd d717 63bd 8172 61be 6b3a 23be
000002d0: 9d89 aabc 3216 eb3b 2afc cdbd a3bd 023e
000002e0: 7569 4e3e b4b8 86be 1452 863d 90a1 5d3d
000002f0: cf98 3fbe bafd f53d 7b1c 6e3e 0526 e0bc
00000300: 9a28 fdbc 462d 08be 62a2 513d 15b1 243d
00000310: 7c12 1d3b 74d8 8abd 70e6 a03d fabe d1bc
00000320: 1b41 973d c4cb dc3c 8cec dbbd 5a92 9dbd
00000330: ddfd bd3d 6cd0 4abd a37e 3a3d e6ea 183e
00000340: 9e9f 50bd 2841 563c c37d 25be 23e8 88bd
00000350: f402 26bd a793 6cbd b87a b63a a90c 583d
00000360: 694b 233e f633 923d 9da8 1a3d f2c8 7bbd
00000370: 125b 643a 6a59 70be a57b 16bd a412 563d
00000380: aff0 093c 1136 423d b582 3b3e ec42 11bd
00000390: a321 493d 0b8c 9bbd 7e45 433b 5a94 b63d
000003a0: ee6a 01bd f0f1 f6bd 5fb7 7abe 8a93 6cbc
000003b0: 56a7 65bc 9e45 5cbe ebd9 e03d a004 b1bd
000003c0: d6fd ea38 7126 c8bc de24 af3c abb3 b93c
000003d0: e490 6abd 5ddd 813e 21b5 d13d 6b5f ecbc
000003e0: 2935 49be b708 09bd ae06 403b 77b2 2c3e
000003f0: 5429 3ebe 8898 bc3c cfdb 4cbe a6b4 44be

conv3.bias f4 [64]
-0.022616284 0.008685919 -0.036676086 0.0024153613 -0.039487023 0.0043904963 -0.03676441 -0.04330017
-0.06058387 -0.12104519 -0.11558136 -0.111958444 0.025799038 -0.101446345 -0.13882245 -0.0044414727
-0.118922986 0.050983194 -0.06717966 -0.037458774 0.07686806 -0.11460895 -0.08083715 -0.044519436
-0.086495936 -0.08541324 -0.02492656 -0.019400857 -0.08886542 0.04126162 -0.18515152 -0.053397544
0.02582674 0.01701373 -0.02264138 0.028532736 0.11329632 -0.043714534 0.031499363 -0.009143633
-0.01923908 -0.036325186 -0.026366211 -0.11007759 -0.011328831 0.034412574 -0.045884643 -0.06214233
-0.0444901 -0.059166413 0.04599225 -0.0027212417 -0.06912007 -0.008223608 -0.15766206 0.050026335
-0.035884272 0.03547063 -0.036752146 -0.09273882 -0.083309144 -0.025447339 0.079138145 -0.08309023
00000000: c945 b9bc 634f 0e3c aa39 16bd 0a4b 1e3b
00000010: 25bd 21bd 27de 8f3b 4796 16bd 855b 31bd
00000020: cb26 78bd 8ae6 f7bd ecb5 ecbd 784a e5bd
00000030: 8158 d33c 1ac3 cfbd 7927 0ebe c689 91bb
00000040: e58d f3bd c1d3 503d 7d95 89bd 5f6e 19bd
00000050: 006d 9d3d 19b8 eabd f38d a5bd 035a 36bd
00000060: c824 b1bd 23ed aebd c932 ccbc 8cee 9ebc
00000070: 13ff b5bd f201 293d 5c98 3dbe 62b7 5abd
00000080: 9992 d33c 6160 8b3c 6a7a b9bc 7cbd e93c
00000090: e707 e83d 030e 33bd 7a05 013d 2dcf 15bc
000000a0: 469b 9dbc b8c9 14bd f4fd d7bc 5c70 e1bd
000000b0: 909c 39bc 33f4 0c3d 89f1 3bbd f588 7ebd
000000c0: 403b 36bd 7b58 72bd 5f62 3c3d dc56 32bb
000000d0: d38e 8dbd 50bc 06bc 2a72 21be 6ae8 4c3d
000000e0: 63fb 12bd a749 113d 6b89 16bd daed bdbd
000000f0: fc9d aabd f076 d0bc 2e13 a23d 362b aabd

fc1.weight f4 [20, 576]
0.13724788 0.30036584 -0.062186044 0.14123155 0.17091349 -0.03622833 -0.0388207 0.017145207
-0.26781434 0.005537638 -0.013010213 -0.019052792 0.027213538 -0.14257227 -0.015497309 -0.12518975
0.18416971 -0.1620872 0.1884713 0.09660714 0.03642972 -0.0130309295 0.078664646 0.101573415
-0.14693144 -0.12255272 0.121211156 0.04971209 -0.10708094 0.052436322 -0.35454804 0.29670838
0.117486864 -0.069766626 0.018805508 0.032244124 0.0025205002 0.020248214 -0.015106117 0.00104719
-0.0012439796 0.016142948 0.00852829 0.04563701 0.081916876 -0.015183164 -0.04161553 0.10680593
-0.017490238 -0.22594152 0.2266572 0.09435866 0.067509145 0.11295458 0.050015062 0.30409324
-0.03721541 -0.050821245 0.19967547 -0.019357676 -0.060305685 -0.02504193 0.003050677 0.20550981
0.049664438 0.016710248 -0.019233078 -0.11339886 0.07018321 0.13550349 -0.20275986 0.14930522
0.1132186 0.14214276 0.19669247 0.14109558 -0.020840963 -0.22783493 -0.14628552 0.06668978
0.054518647 0.03279804 0.21976504 0.06264415 0.10761365 0.00034150414 0.07179267 0.033920188
-0.044529296 -0.006034587 -0.012151656 0.10768345 0.2225918 -0.009050701 0.15422869 -0.09209518
0.12938714 0.060883213 -0.16728278 -0.011487293 -0.043333374 -0.014445448 -0.056609236 0.022050172
0.4276896 0.14688402 -0.054906618 -0.1511377 -0.025369726 0.099576086 -0.0845943 0.00888248
-0.11306173 0.14788395 0.04783167 -0.015963176 0.07963307 -0.13240907 0.16086248 -0.006130509
-0.012925599 0.12493473 0.010707294 0.121615194 -0.0869847 -0.14513648 0.0124076735 0.061640095
0.05361679 0.049597867 0.14303112 -0.08195616 -0.11481404 0.13327414 0.03974753 0.081641
-0.12347771 -0.19950959 -0.066397294 -0.25047922 0.10678475 -0.016593337 -0.024797827 0.00836384
0.07005949 0.20771578 -0.076939076 0.2071345 -0.0016778546 -0.19683594 0.041052993 -0.04158751
-0.16476148 -0.08305953 -0.00073668465 -0.058114562 -0.12954752 -0.44535756 0.031849865 0.16486168
-0.105475806 0.13808337 0.25397456 0.17125814 -0.12732899 -0.11224236 -0.19448306 -0.0439654
0.16116926 -0.41559237 0.086329676 -0.11029488 0.050039228 0.11461382 -0.13794346 0.02084687
-0.064493135 0.18143001 0.08367856 0.24730262 -0.00022001994 0.05956606 0.17990285 -0.023446785
0.21656512 0.030101743 -0.038863167 0.14701757 0.2113145 0.17838323 0.0768445 -0.023317724
0.30488613 0.028737292 0.15929541 -0.06866633 0.062369402 -0.12300254 -0.091954105 -0.21959206
-0.022590304 0.26540208 0.15902798 -0.16035512 0.07554715 0.06704286 -0.05699804 0.045519065
-0.06458502 -0.13073479 0.21946773 0.01834828 0.3666508 -0.021476451 -0.0011643929 0.026901143
-0.07908951 0.2261545 0.17883478 -0.20387809 0.16064724 0.110482484 -0.064776875 0.08574488
0.052420646 0.11076317 0.24030778 0.071367614 0.08455899 -0.141873 -0.19552475 -0.065810695
0.10297748 -0.17377512 -0.008911644 -0.016519489 -0.003779205 0.0009498411 -0.055997927 -0.030364549
-0.04766382 -0.116476335 0.03129597 0.05525589 0.08226297 -0.09681576 0.05190954 0.017662976
0.098701514 -0.079755895 0.047143873 -0.1437201 0.15430793 0.01780192 -0.014552964 -0.01690382
00000000: b58a 0c3e 8dc9 993e cbb6 7ebd 019f 103e
00000010: f203 2f3e 2864 14bd 7402 1fbd 1b74 8c3c
00000020: f61e 89be 1375 b53b ca28 55bc 9a14 9cbc
00000030: edee de3c 77fe 11be 6de8 7dbc be31 00be
00000040: fc96 3c3e 30fa 25be 9ffe 403e f7d9 c53d
00000050: 5537 153d ae7f 55bc ee1a a13d b905 d03d
00000060: 3275 16be ecfc fabd 8e3d f83d e89e 4b3d
00000070: 404d dbbd 78c7 563d 5287 b5be 29ea 973e
00000080: f49c f03d cee1 8ebd 020e 9a3c 6a12 043d
00000090: fa2e 253b 95df a53c a67f 77bc de41 893a
000000a0: 070d a3ba 373e 843c 3eba 0b3c e0ed 3a3d
000000b0: 09c4 a73d cec2 78bc 0c75 2abd 11bd da3d
000000c0: b047 8fbc 375d 67be d318 683e 1d3f c13d
000000d0: 3c42 8a3d bb54 e73d 98dc 4c3d 1cb2 9b3e
000000e0: 306f 18bd f029 50bd ba77 4c3e fd93 9ebc
000000f0: 1803 77bd bc24 cdbc deed 473b 2a71 523e
00000100: f06c 4b3d eee3 883c b08e 9dbc a93d e8bd
00000110: 37bc 8f3d 6dc1 0a3e 48a0 4fbe 78e3 183e
00000120: 27df e73d df8d 113e c069 493e 5c7b 103e
00000130: abba aabc 8f4d 69be dfcb 15be a794 883d
00000140: f24e 5f3d 3d57 063d 160a 613e 934b 803d
00000150: 8c64 dc3d e90b b339 0908 933d e5ef 0a3d
00000160: 5a64 36bd c9bd c5bb bd17 47bc 2489 dc3d
00000170: 1bef 633e 6449 14bc 20ee 1d3e 669c bcbd
00000180: 107e 043e ad60 793d 2d4c 2bbe 3335 3cbc
00000190: 567e 31bd 9aac 6cbc 16df 67bd 90a2 b43c
000001a0: 22fa da3e c468 163e c3e5 60bd d7c3 1abe
000001b0: 2cd4 cfbc 8cee cb3d c73f adbd d287 113c
000001c0: e98c e7bd e46e 173e 24eb 433d 35c5 82bc
000001d0: aa16 a33d 3e96 07be 22b9 243e 70e2 c8bb
000001e0: e4c5 53bc c8dd ff3d a56d 2f3c 6311 f93d
000001f0: 0925 b2bd a89e 14be 8e49 4b3c 537a 7c3d
00000200: 479d 5b3d 2227 4b3d c076 123e a2d8 a7bd
00000210: a023 ebbd 0479 083e 4ece 223d 6633 a73d
00000220: e2e1 fcbd 3e4c 4cbe 4efb 87bd d03e 80be
00000230: f7b1 da3d c0ee 87bc d024 cbbc 7d08 093c
00000240: 5a7b 8f3d 72b3 543e 3c92 9dbd 111b 543e
00000250: 75eb dbba 5c8f 49be 2f27 283d aa57 2abd
00000260: 3cb7 28be 1d1b aabd 121e 41ba 8909 6ebd
00000270: 1ba8 04be e805 e4be 0175 023d 80d1 283e
00000280: b303 d8bd ba65 0d3e f408 823e 4b5e 2f3e
00000290: 8862 02be 53df e5bd 9126 47be 1015 34bd
000002a0: 8e09 253e 86c8 d4be 9dcd b03d 48e2 e1bd
000002b0: eff5 4c3d a7ba ea3d 0d41 0dbe 0ec7 aa3c
000002c0: fa14 84bd cac8 393e aa5f ab3d e63c 7d3e
000002d0: 27b5 66b9 8afb 733d 7438 383e 7913 c0bc
000002e0: 3fc3 5d3e ee97 f63c fc2e 1fbd c68b 163e
000002f0: d462 583e 18aa 363e a660 9d3d d004 bfbc
00000300: 091a 9c3e 786a eb3c 561e 233e efa0 8cbd
00000310: 0f77 7f3d c1e8 fbbd 6f52 bcbd bedc 60be
00000320: 4d0f b9bc c8e2 873e 3bd8 223e 2234 24be
00000330: 77b8 9a3d c44d 893d c776 69bd 3372 3a3d
00000340: 2745 84bd 57df 05be 26bc 603e 224f 963c
00000350: a7b9 bb3e 62ef afbc 8b9e 98ba c95f dc3c
00000360: aef9 a1bd 0c95 673e 7720 373e 6bc5 50be
00000370: b680 243e a444 e23d bda9 84bd 039b af3d
00000380: 08b7 563d cdd7 e23d 3e13 763e 2f29 923d
00000390: 442d ad3d 2847 11be a437 48be c2c7 86bd
000003a0: dbe5 d23d 1bf2 31be 2502 12bc e153 87bc
000003b0: 8aac 77bb c2fe 783a 155e 65bd 13bf f8bc
000003c0: 233b 43bd 258b eebd 3430 003d 0054 623d
000003d0: 7d79 a83d 5747 c6bd 199f 543d f2b1 903c
000003e0: 0524 ca3d 0f57 a3bd ef19 413d 5d2b 13be
000003f0: e602 1e3e 55d5 913c 8e6f 6ebc e179 8abc

fc1.bias f4 [20]
0.11823293 -0.00013067388 0.07232503 -0.04307391 0.05840624 0.15926169 -0.021797737 -0.00017731503
0.020726647 0.011447902 4.199808e-29 0.0786342 0.068583965 -4.9253e-41 0.01381278 -0.04860393
-0.05405505 -0.026812335 -0.025602013 -0.007406232
00000000: 1b24 f23d 8105 09b9 251f 943d 456e 30bd
00000010: 623b 6f3d 7f15 233e 2b91 b2bc a4ed 39b9
00000020: eeca a93c fb8f 3b3c a0f4 5410 f80a a13d
00000030: c075 8c3d 4c89 0080 004f 623c ea14 47bd
00000040: d468 5dbd 8ba5 dbbc 50bb d1bc faaf f2bb

fc2.weight f4 [10, 20]
-0.27167335 0.007976905 -0.42135346 -0.1353498 0.11035608 0.13332476 0.013256811 -0.002032896
-0.029044995 -0.463969 -4.492911e-23 0.10450521 0.27752882 -4.9735e-41 -0.05426303 0.34739625
-0.28889555 -0.05549937 -0.00866698 -0.060605016 -0.19175369 -0.027630825 0.101500385 -0.33034185
0.44064525 -0.09114122 -0.07961522 0.0028293727 0.16486229 0.060139414 -4.0315542e-32 0.053608797
-0.2980959 -4.9085e-41 -0.23185866 0.00012588064 0.1980253 0.024169216 -0.049260955 0.007510699
-0.1194988 -0.012498544 -0.273375 -0.08390224 -0.008267669 0.2691407 -0.047624093 0.021654686
-0.02096153 -0.3233131 -0.00017043532 -0.17719108 -0.16078638 1.9900236e-10 0.13519217 0.092519164
0.16237934 0.021137232 0.0021226727 -0.0464123 0.20922437 -0.021306183 0.0513 0.01371579
-0.10864023 0.13374504 -0.011131171 0.011178691 0.03474686 -0.39803284 3.2967783e-08 -0.04242784
0.058966447 -0.00044984132 -0.43576565 -0.087655984 0.11973972 -0.0651574 0.008439352 0.053346507
-0.18509978 0.022697425 -0.098242365 -0.0010375904 -0.38823473 -0.4999651 -0.010760858 -0.018112898
-0.104681425 0.1850667 2.6580267e-07 -0.004080462 -0.0059265248 -1.9890354e-09 0.247008 -0.16044192
0.19265866 0.008857798 0.0071449904 -0.01040823 -0.051777057 0.026473993 0.1815749 -0.22342792
-0.16036561 -0.090559535 0.11139386 0.021922993 -0.02583759 0.019301992 -5.296842e-10 -0.20236093
0.2620045 3.8249166e-08 -0.29368752 0.2480674 -0.28601208 -0.053011093 0.012857131 -0.06861857
-0.4379244 -0.035475954 -0.08234076 0.34283867 -0.07687762 0.20567435 -0.06926587 -0.03716098
-0.10411668 0.21786089 1.6515462e-18 -0.12379226 -0.030685944 4.9293e-41 0.03091183 0.10000078
-0.30737665 -0.046416007 -0.038894594 -0.010794979 0.20420414 0.03494475 -0.3655988 -0.10592602
-0.1271193 -0.3601022 0.021424096 0.001339259 -0.09170859 -0.102742806 0.0013667332 -0.19727731
-0.24748604 -1.4138858e-09 -0.03200261 0.30765888 0.14242217 -0.0061564767 -0.02797014 -0.039562337
0.1409727 -0.013330178 0.2190023 -0.10771641 -0.058228225 0.05991837 0.0462711 0.0024935966
0.011184733 -0.11546731 -2.0722617e-05 0.06470036 -0.23212118 -0.0003127637 0.16650504 0.10186644
-0.3708233 -0.021825878 0.010641934 -0.055211395 0.26209715 -0.015008642 -0.3131387 -0.096166484
-0.08591235 -0.18786043 -0.03266981 -0.047373485 0.002641607 0.10203665 -9.973597e-05 0.0033945763
0.18645106 -1.9058378e-06 0.13362396 -0.27300376 -0.22836952 -0.0029065916 0.0020040874 -0.04875833
00000000: c518 8bbe 91b1 023c a4bb d7be 2399 0abe
00000010: 5e02 e23d 4986 083e 1833 593c 563a 05bb
00000020: c5ef edbc 588d edbe 8b43 599a d406 d63d
00000030: 4218 8e3e a48a 0080 e942 5ebd ecdd b13e
00000040: 1eea 93be 4f53 63bd f3ff 0dbc f73c 78bd
00000050: 145b 44be 0a5a e2bc 6fdf cf3d 9122 a9be
00000060: 419c e13e 3fa8 babd 4e0d a3bd ff6c 393b
00000070: a9d1 283e bf54 763d 8c54 518b e694 5b3d
00000080: 07a0 98be d488 0080 5b6c 6dbe d4fe 0339
00000090: 25c7 4a3e 85fe c53c dbc5 49bd 4f1c f63b
000000a0: c9bb f4bd b1c6 4cbc cff7 8bbe f0d4 abbd
000000b0: 1e75 07bc cfcc 893e 7b11 43bd 2b65 b13c
000000c0: 84b7 abbc 4b89 a5be e2b6 32b9 9471 35be
000000d0: 2fa5 24be 2fce 5a2f d16f 0a3e b07a bd3d
000000e0: c546 263e fd27 ad3c 8a1c 0b3b d31a 3ebd
000000f0: ea3e 563e 4e8a aebc f31f 523d 31b8 603c
00000100: c57e debd 76f4 083e 845f 36bc d426 373c
00000110: b952 0e3d f6ca cbbe 7698 0d33 d1c8 2dbd
00000120: cd86 713d aed8 ebb9 ad1c dfbe fb84 b3bd
00000130: 193a f53d 3e71 85bd 3545 0a3c de81 5a3d
00000140: cc8a 3dbe f3ef b93c 4b33 c9bd c2ff 87ba
00000150: b4c6 c6be 6dfb ffbe 4f4e 30bc 8061 94bc
00000160: 3763 d6bd 2082 3d3e a4b3 8e34 65b5 85bb
00000170: 4b33 c2bb 7baf 08b1 aaef 7c3e e34a 24be
00000180: 5048 453e 4c20 113c 8620 ea3b 4887 2abc
00000190: 2e14 54bd fddf d83c c5ee 393e 4aca 64be
000001a0: e236 24be 4777 b9bd 7722 e43d d997 b33c
000001b0: 5ba9 d3bc 361f 9e3c 3699 11b0 b437 4fbe
000001c0: 7425 863e 6747 2433 365e 96be 6105 7e3e
000001d0: 2d70 92be 2922 59bd b7a6 523c e587 8cbd
000001e0: a137 e0be 3c4f 11bd 46a2 a8bd 8d88 af3e
000001f0: 0372 9dbd 4c9c 523e 44db 8dbd 1d36 18bd
00000200: 203b d5bd ed16 5f3e a7b9 f321 cc86 fdbd
00000210: 1761 fbbc 6989 0000 ce3a fd3c 35cd cc3d
00000220: 7960 9dbe b61e 3ebd f04f 1fbd 6cdd 30bc
00000230: e41a 513e 3a22 0f3d c42f bbbe beef d8bd
00000240: 902b 02be 515f b8be 9681 af3c 138a af3a
00000250: b7d1 bbbd d26a d2bd f523 b33a 1003 4abe
00000260: fb6c 7dbe af52 c2b0 2b15 03bd 7785 9d3e
00000270: 1ed7 113e 45bc c9bb a321 e5bc 1e0c 22bd
00000280: 265b 103e d266 5abc 2442 603e 6c9a dcbd
00000290: b880 6ebd f76c 753d c486 3d3d 9c6b 233b
000002a0: 2c40 373c 207a ecbd 7bd5 adb7 9f81 843d
000002b0: 2db1 6dbe 6ffa a3b9 4c80 2a3e 5a9f d03d
000002c0: 8ddc bdbe 2fcc b2bc 825b 2e3c 5825 62bd
000002d0: 9931 863e cfe6 75bc b753 a0be eff2 c4bd
000002e0: d0f2 afbd 7c5e 40be c7d0 05bd b30a 42bd
000002f0: d01e 2d3b 97f8 d03d 5729 d1b8 8a77 5e3b
00000300: 07ed 3e3e 17cc ffb5 b8d4 083e 26c7 8bbe
00000310: b3d9 69be 847c 3ebb 0257 033b d1b6 47bd

fc2.bias f4 [10]
0.30087912 0.060895003 -0.17232944 0.17708352 0.029593365 -0.0204656 -0.07679888 -0.1916992
0.08213503 0.32022226
00000000: d40c 9a3e 0a6d 793d 2177 30be 6255 353e
00000010: c96d f23c 79a7 a7bc bb48 9dbd cc4c 44be
00000020: 6936 a83d 2cf4 a33e
