checkpoints/epoch_50.pth (torch, 144341 bytes, 10 tensors)

conv1.weight f4 [16, 1, 3, 3]
00000000: 12ae ad3d 497b a43e d373 cf3e 2043 46bd
00000010: 1792 a43e cfc1 d23e 914d 823e 3723 7d3d
00000020: 2d38 023f 845b df3e 836e f13e 9628 fc3e
00000030: bcf6 55be ca5e cdbe 0d55 abbe 96b7 81be
00000040: 1fae 2dbe 8fc1 5c3d 568f 24be 6298 93bd
00000050: 69b3 f3be 6764 4cbe bfc2 b0be 62e1 47be
00000060: 3598 f43e 5c9d a03e 89ad 163f 9f2e 5ebe
00000070: 0bd3 4ebe 8656 a1be e928 6dbe 9512 c7bd
00000080: f173 97be c4c1 8fbe 1634 3c3e f82c b9bd
00000090: 8c6d 723e 31ce 18bd e63b e13e 04c8 cebe
000000a0: 76f9 c8be 26e9 1d3f d15e d8be 20d6 543e
000000b0: bfce 583e 1554 60be 1659 f23d 355d a9be
000000c0: 2aa0 4ebe bae5 2cbe 150a a2be af78 8abd
000000d0: 2071 91be aa3a bcbd dc32 f63d 2f92 90be
000000e0: 1471 88be 76dd abbd ce0a 173e 45ae 9dbe
000000f0: ff49 8bbe 18b7 c0be fd98 4fbd ebee 67be
00000100: f299 8ebe c4be b93e 0434 013e e019 313e
00000110: 9d04 0d3f eda1 403e df7f 1abc 22a1 bbbe
00000120: 8178 d5bd d9a3 c7be ed88 a8be 6037 ad3e
00000130: 1678 e13e 391e 32be 8a87 133e 5e41 033f
00000140: ffec a23e c330 f33e f631 44be 169b 423c
00000150: 5158 fc3e be2c dfbd 2e22 a9be c40e 113f
00000160: 78b5 b43e c2ad c6be 9ec3 b8bd d204 5d3d
00000170: 381b 283e d5f5 8dbe 7021 0e3d 5b48 b7be
00000180: a530 b6be 46a1 85be 2c5c a5be 163a 4cbe
00000190: a526 8fbe d238 93be c0e2 133e cd64 26bc
000001a0: 3bae 91be 4d27 83be 2a21 a3be 1a5c 5dbe
000001b0: 092e 123f c6f4 d83e e2db 663e 9b85 88be
000001c0: fd52 a9be e98b 4c3e f6e1 d2be 8639 94bd
000001d0: 9cc0 ffbd 5305 823d 103e 843c 45fd cc3e
000001e0: e366 033f 4690 a73e f79e 1e3d 5c29 0cbf
000001f0: b185 fbbe fd78 7dbb 54da 1d3f 4276 183f
00000200: 5f48 97be 6191 19bd 9ad4 8a3e 6e12 05bf
00000210: 3d45 803e 456e 33bc ba82 e9be 5f57 d13e
00000220: caa2 9f3e 42d9 f33e 177d 29bd cd0b b63d
00000230: c762 ff3d c13d 06bf 8927 f0be a5be 9fbe
0.08480467 0.3212531 0.40518054 -0.04840386 0.32142708 0.4116349 0.25449803 0.06180116
0.5086697 0.43624508 0.47154626 0.49249715 -0.20894903 -0.4011138 -0.33463326 -0.25335377
-0.16960953 0.05389553 -0.16070303 -0.07206799 -0.47597817 -0.19960175 -0.3452358 -0.1951957
0.47772375 0.31370056 0.58858544 -0.21697472 -0.20197694 -0.31511325 -0.23160137 -0.09720341
-0.29580644 -0.2807752 0.18379244 -0.0904178 0.23674601 -0.037306014 0.4399101 -0.40386975
-0.39252824 0.6168388 -0.4225984 0.20784807 0.21172617 -0.21907075 0.11833398 -0.33078924
-0.20178285 -0.16884509 -0.31648317 -0.067613 -0.2840662 -0.09190877 0.120214194 -0.2823653
-0.26648772 -0.0839185 0.14750215 -0.3079702 -0.27204892 -0.3763969 -0.05068301 -0.22649734
-0.27851826 0.36278355 0.12617499 0.17295027 0.55085164 0.1881177 -0.009429901 -0.36646372
-0.10423375 -0.38992193 -0.32916966 0.3383131 0.4403693 -0.17394342 0.14407173 0.5127162
0.3182144 0.4749814 -0.19159684 0.011877796 0.4928613 -0.10897206 -0.3303389 0.56663156
0.352947 -0.38804442 -0.09021686 0.053959675 0.16416633 -0.27726617 0.034699857 -0.3579739
-0.35583988 -0.26099604 -0.32296884 -0.19944033 -0.2795917 -0.28754288 0.14441967 -0.010155869
-0.2845324 -0.25615922 -0.3186124 -0.21617165 0.57101494 0.42374247 0.22544816 -0.26664433
-0.33071128 0.19975246 -0.4118802 -0.07237534 -0.12487909 0.06348672 0.016142875 0.4003698
0.5132887 0.3272726 0.03872582 -0.5475061 -0.49125436 -0.003867685 0.6166127 0.5955545
-0.29547402 -0.03749216 0.27115327 -0.51981246 0.25052825 -0.010951583 -0.4560755 0.4088697
0.31178886 0.47626692 -0.04137906 0.088889696 0.12470012 -0.5243798 -0.46905163 -0.31200138

conv1.bias f4 [16]
00000000: 2b63 343e f6ce b6bd fb15 e7bd f979 9bbe
00000010: 5260 c23c ac22 07bd 1552 d33d 354a c33d
00000020: e88e 993e db41 a13c e1cb c4be bf61 abbe
00000030: 2422 18be 3bc0 113d 9843 12bd ffd9 c9bd
0.17615955 -0.089261934 -0.11283489 -0.30366495 0.02372757 -0.03299205 0.1031839 0.09535638
0.2999184 0.019684723 -0.38436797 -0.33473012 -0.14856774 0.035583716 -0.035708994 -0.098560326

conv2.weight f4 [32, 16, 3, 3]
00000000: dfcf 6d3d e84f 2ebe a1d6 91be af96 fd3c
00000010: 8b35 be3b fe02 54bd c429 98bd 4ef4 30bd
00000020: 43a8 383d 2dd2 323d e62f 0a3d 209f 98bd
00000030: ac5d ed3d c20c 163e dd27 52be 1e3f 063e
00000040: 7ef0 ae3e 6a92 053e d5dd efbc d581 163d
00000050: c8bf 8d3d 230b a33d 665c 263e 7304 8d3d
00000060: 128c 1bbe 4117 a9be 6f33 b4bb ad61 66bd
00000070: 6af6 a5bc b893 b73d f24b 62bc 91df 17be
00000080: b5f7 013d d195 3bbe aa05 b1bd e400 5abd
00000090: 6908 a9bc 2179 63be c877 20be 9870 903d
000000a0: 8306 08bd 80e2 a0bd 3cf5 0eba f92c 423d
000000b0: 52a7 0e3e dc81 c93b b912 19bd 8629 c33d
000000c0: 0297 a1bd 2e14 2abe dec8 b5bc 6401 01bd
000000d0: 8c80 98bd fccd 97bd 7f39 acbc f97c ae3c
000000e0: 2c4a 1e3d 9e09 13b9 5c98 0abe 510c d3bd
000000f0: a361 a43c 8cd5 033c 68d2 8cbd 4495 083e
00000100: 8317 69be 0669 75be fd08 9b3e b066 243e
00000110: 1428 51bb 3d37 5d3e 7657 a83d 165b a139
00000120: 49d8 693d 3570 823d e9cd a4bd d724 2f3e
00000130: 79d1 493e 29ae a33d 15c2 fcbc e753 5fbe
00000140: 139a 603d 3969 313d 986d ff3c 0641 84bd
00000150: c729 1b3c 3d6a 283d 20b6 2b3d 6138 143e
00000160: b1b6 aebd 5bbf 7dbd e1ab 08bd 01d9 f8b9
00000170: 08f9 c03d 47e6 08be 04d6 1abe dd8d 2cbe
00000180: d86e 68bc 6316 043e ca29 5f3d 38d3 1dbd
00000190: ca1b b23c 488a ca3b 3756 9abd 8665 0dbe
000001a0: aee0 f7bd a007 9cbc 36fd 74bd d2a6 25be
000001b0: 9030 f13d a070 00bc 92cf abbd 96a2 093e
000001c0: c380 1e3e 3b69 d2bd 34ab d03d f0da be3e
000001d0: ef65 853e 5297 1c3e 3d63 7fbd 3d0c 5cbe
000001e0: a604 703d 48ea b53d f073 db3d 9057 d93d
000001f0: c364 2f3e 6fea a93d 708c 8d3d b938 a83d
00000200: a048 00be 4b5f 9c3c f9f2 28be 80a5 6abe
00000210: 8651 bc3d 9d53 083d 40af 273c f842 423c
00000220: 6c95 25be bc2b 44be 2023 033e 77bd 783c
00000230: a0e7 b5bc fdff 353d e606 5c3e fc70 4e3e
00000240: b4c0 7ebd 2f57 a03d 2162 a53d b77d cd3c
00000250: 8eb0 a13a 6efd a53d 84c6 25be a803 12be
00000260: ccc9 4fbd 5bb8 02be 4474 5abc 3b85 c83c
00000270: dc47 af3d 65ed 173e 7684 773e 5660 23be
00000280: eb4e 4cbe ecbc 72be b6c3 ef3d b442 2a3e
00000290: 9a5f 6d3e 094d 9ebd d171 0cbe 9d1d e0bd
000002a0: 3db8 20bd 5af4 963d c7b4 633e 8ee7 863b
000002b0: 1a66 a2bd 264a 23be 07df 35bd 68ee 82bd
000002c0: 3116 d6bd 2613 d43c c5ba 693d 4359 fe3a
000002d0: d5a4 7d3d 67ff 823d d4f6 573d bb35 273c
000002e0: 9845 b0bc 3aef 233e 03af 8cbd 038e 76bc
000002f0: 90f0 e23d 9fbc b5bd 501a 8cbd 2860 1fbe
00000300: ad6d a23d df26 593c 9059 093d 2778 39bc
00000310: 5182 623d f09c 773d b50e 82bd dd5e b2bd
00000320: 6bea 6bbe b5ce 64bc 0d88 71bd 977d 8cbc
00000330: f369 953c e911 b4bb 2200 80bd 341a 173e
00000340: 07bc e13d de52 2a3e 837a 473b 69e9 603c
00000350: 6cb2 393e c6ee 83be efec 18be 04ee 633e
00000360: 46be 6d3d 1473 5a3e 56b7 943e 90bb 7ebe
00000370: a408 88be c26d 1cbe c3c4 81be 4a55 30bd
00000380: 23a5 b63d 0b7b 373c ceb9 bcbd f45a a33c
00000390: 4fe1 ecbc 7499 06be c8c2 17be dc0f 03be
000003a0: da3c 10be 96b0 eabd 83de e2bd d2fd ef3c
000003b0: 0cd5 06be 0f76 b0bb 5e85 e33d 48bb b43d
000003c0: 1f25 993d 7c09 77bd f531 73bd 420e 91bc
000003d0: 3db7 a2bd a94d 4abe 3105 f8bb c704 9e3c
000003e0: 6ac5 17be 5a90 903d a4ee 27bd a806 41bd
000003f0: 7f40 c43c de3b dc3c 592c b63d 7f40 8c3d
0.05805957 -0.1702267 -0.2848406 0.03095564 0.0058047227 -0.051760666 -0.07429841 -0.043201737
0.045082342 0.04365747 0.033737086 -0.07452226 0.11590132 0.14653304 -0.20523019 0.13110015
0.34167856 0.13044134 -0.029280582 0.03674491 0.06921345 0.079611085 0.16246185 0.06885614
-0.15190151 -0.33025554 -0.0054992954 -0.056245495 -0.020259101 0.08963722 -0.013812052 -0.14831378
0.031730372 -0.18318869 -0.086436585 -0.053223506 -0.020633893 -0.22214176 -0.15670693 0.070527256
-0.033209335 -0.078557014 -0.0005453413 0.04740617 0.13931015 0.0061495136 -0.03737137 0.09529404
-0.078901306 -0.1660926 -0.022190508 -0.031495467 -0.07446393 -0.07412335 -0.02102351 0.021299826
0.038644955 -0.00014022595 -0.13534683 -0.103050835 0.020066088 0.008046519 -0.06876069 0.1333819
-0.22762875 -0.23965845 0.30280295 0.16054797 -0.0031914758 0.21603103 0.08219807 0.00030776177
0.05709103 0.06369058 -0.08047087 0.17103897 0.19708814 0.07992203 -0.030854264 -0.2180935
0.054834437 0.04331324 0.031180188 -0.06457715 0.00947041 0.04111694 0.041921735 0.14474632
-0.08530939 -0.06195007 -0.03336704 -0.00047463927 0.09422499 -0.13369094 -0.15120703 -0.16850992
-0.014186583 0.12899165 0.054483213 -0.038531512 0.021741766 0.006181035 -0.075359754 -0.1380826
-0.12103401 -0.019046605 -0.059811793 -0.16176918 0.11776841 -0.007839352 -0.083892 0.13440928
0.15478806 -0.10273977 0.101889044 0.3727641 0.26054332 0.15292099 -0.0623505 -0.21489044
0.058598183 0.08882576 0.10715473 0.10612404 0.17128281 0.08296668 0.06911552 0.08213944
-0.12527704 0.019088408 -0.16498937 -0.22914696 0.09195237 0.033282865 0.010234654 0.011856787
-0.16170281 -0.19157308 0.12806368 0.015181891 -0.022205174 0.044433583 0.21487007 0.20160288
-0.062195495 0.07829129 0.08075357 0.02508436 0.0012335943 0.081049785 -0.16189009 -0.14259207
-0.050729558 -0.12765639 -0.013333384 0.024477592 0.08558628 0.14836653 0.24171624 -0.15954718
-0.1995198 -0.2370488 0.11707251 0.16627008 0.23181 -0.07729537 -0.13715293 -0.10943148
-0.039238203 0.07370825 0.2223693 0.004116959 -0.079296306 -0.15946254 -0.04440215 -0.06393129
-0.104534514 0.025888037 0.057062883 0.0019405264 0.061924774 0.063963704 0.052725628 0.010205681
-0.02151756 0.16009226 -0.06869318 -0.015048507 0.1108104 -0.08873867 -0.06840956 -0.15564024
0.07931075 0.0132538965 0.03353268 -0.01132015 0.05530006 0.0604524 -0.063504614 -0.087095
-0.23038642 -0.013965298 -0.05896764 -0.01714973 0.018238997 -0.005495299 -0.06250025 0.1475609
0.110221915 0.16633174 0.0030438013 0.013727524 0.18134469 -0.25768107 -0.14934133 0.22258765
0.058042787 0.21332961 0.29046124 -0.24876237 -0.26569092 -0.15276244 -0.2534543 -0.043050088
0.08918216 0.011198769 -0.09215127 0.01994083 -0.02891603 -0.13144475 -0.14820397 -0.12799019
-0.14085713 -0.11459462 -0.11077597 0.029295836 -0.13167208 -0.0053851674 0.11109422 0.088247836
0.074777834 -0.06031178 -0.059373815 -0.017706994 -0.07945106 -0.19756187 -0.0075689782 0.019289387
-0.14821401 0.07058783 -0.04099907 -0.04712549 0.023956535 0.026884016 0.088951774 0.06848239

conv2.bias f4 [32]
00000000: 27c8 ccbd d815 c8bd df47 313d 61b8 93bc
00000010: bb46 d53d 81db a83c 7d2e 90bd 9665 9fbd
00000020: d6ed 8f3d 098b 7e3d 21c7 f43c a502 48bd
00000030: 597d 973b 72f9 3abc acfb 0c3d cc11 683d
00000040: 2d1a 063d cdcd 523d af6f 2abc 07fe fc3b
00000050: ecbb ac3d 14c6 b5bc ea09 15bd fff1 5a3b
00000060: 66fd 14bd f935 4dbc b61e c1bb d956 8c3c
00000070: 3ed2 e43d f311 dd3d 3f8f 473c bbfa 92bd
-0.099991135 -0.09769791 0.043281432 -0.018032255 0.104138814 0.02061248 -0.07040117 -0.07783048
0.070277855 0.062144313 0.029880108 -0.048830647 0.004623097 -0.011412011 0.0344197 0.056657597
0.032739807 0.0514658 -0.010402604 0.007720712 0.08434281 -0.022189178 -0.036386408 0.00334084
-0.036374472 -0.012525075 -0.0058935536 0.017131256 0.11172913 0.10794439 0.012180149 -0.07176729

conv3.weight f4 [64, 32, 3, 3]
00000000: fbf5 083e e2a1 c43d 0acb 803d 515c 3abe
00000010: 806e 2dbc db70 1bb9 6bcd a0b9 a679 873c
00000020: 084e de3c cabb d3bc 3eca 1bbe 6f1c 493d
00000030: 99fc 983d 169f 903c 479f dbbd 534a c8bc
00000040: 6037 d93d e4a7 d73d f44b 0c3e f6bd b6bc
00000050: bbc2 91bd 3a14 a43d f266 ab3d 8661 dbbd
00000060: 3ecc 7cbd 2418 dbbd 76c3 0ebe 71be 63bd
00000070: f06b e5bd b680 6ebd 6871 aebd f354 1abd
00000080: fd1f 4bbd 1074 abbd 2b27 ccbc b27d 03bc
00000090: b94f 04be fbc1 273c c88c aebc 42db d3bd
000000a0: fde7 8bbd e3f0 a1bc 41ad bbbd 974b 6abd
000000b0: b584 adbd ba07 df3c 8909 a0bc 3bbd 6abb
000000c0: d642 c93d 250c 9d3d 63ac e2bc 1bd1 e8bd
000000d0: ecff 77be 8c76 1bbe 8504 9cbd 8dbd a7bd
000000e0: 25bc 99bd 88bb 8e3d 5041 6a3c 17b1 113c
000000f0: 460a 36be 0c96 84bd 7e59 1b3e 5a2b 6bbd
00000100: bc1f 2ebe 4339 9abd c491 d03c 2b64 8ebd
00000110: 4826 1bbe 6476 d9bd d96b dcbb 5b91 b93d
00000120: 9a96 4e3d c76c 8dbd 0540 0fbd 1d3f 33be
00000130: 2587 b3ba 309c 1e3d 56f5 f8bd 9aa2 683d
00000140: 65ef 2c3d 193d b8bc 637b 18be e2bc 25bd
00000150: 5752 c73d adf9 233d aba1 b93b 2100 17bd
00000160: 9868 1a3d eb6e 083e 1331 8ebc 25cc 003d
00000170: 5e72 0b3d 8327 d93d a5e8 b83d f54e f73c
00000180: 2529 c13c 8dc1 2abd 94ba 19be 3130 123e
00000190: 541b 19be 8320 15bd 2c89 82bd 54a9 05bd
000001a0: 64de 3fbc 4bb9 ba3c a7ff 8c3c c42a 6b3d
000001b0: 7d38 323d b014 f3bc ccb9 bf3d 84fe 26be
000001c0: 0028 493c 7500 48bd fc1e a8bd d3d1 90bd
000001d0: 8d34 1f3e 6e96 5abb 4dba 38bd e12f 56bc
000001e0: 3c1c edbc 6ada bdbc 36d8 ab3d 64d4 a83d
000001f0: c528 7fbd 5915 a93c 97a8 05bd 7d57 c63d
00000200: 6d78 04bd 243f 11bd 4056 62bc be3e 57bd
00000210: fd7a 1cbe 84c8 b9bb 9e3f 38be e69d 953c
00000220: 53d4 97bc 0d06 21bd b94d 253d 3436 c3bd
00000230: b084 373c 171a 103e 97b4 253d a930 9d3d
00000240: 4b1b 3ebd 4ab7 e8bc 6ad4 733c ad27 043e
00000250: 3ea7 873c 709d 7fbd 9aa0 cbbc 087c 9d3b
00000260: 35de 89bb f8dc bc3b fb6f 1fbc ca22 9dbd
00000270: 6966 5d3d 239c 96bd f1b2 f0bd acdb 4f3d
00000280: a651 46bd 5f9d 06be 933f 193d 2f1e f4bd
00000290: bc2e 57bc d532 33bd 2365 f13c fd3e 5bbe
000002a0: 3c01 423c b277 b53d 8582 0f3e 877f 0bbe
000002b0: b691 bf3c 09e9 e1bd d769 4abd c610 be3c
000002c0: 6b59 c7bc f7ff 6bbe 8445 02be 3468 81bd
000002d0: 71f9 f6bc 0b75 55bd ec25 5ebd a2ad 9b3d
000002e0: 0e92 fabc 4d65 1abe 4204 523d c12c 6bbd
000002f0: a59a 49be cae6 843b f9eb 913d 71bb 5bbd
00000300: bfaa 88bd 11ec 84bd 62de 59bd 67bb 78bc
00000310: b168 18bd d978 ffbc bf2c f03d 036f 87bd
00000320: aa51 8e3c 28a3 86bd d68a eebd 9314 ecbc
00000330: c24d 803d e534 83bb 60c6 bc3d f065 3b3d
00000340: e23a 81bd 1a05 a8bd a149 68be e348 d2bc
00000350: 1154 f43c b599 80bc 1b7f 523d 041d 1ebd
00000360: 7cc9 cd3d d466 e0bc d61e 1d3d 97cd a0bc
00000370: 44fc 573d 68f7 efbd 73ec 473b 5889 cf3d
00000380: 62af 833c 862d 7c3d 1145 c03d cfe8 603c
00000390: 3e0f 3d3d 1e64 0abd d9ac 0c3e a4cc 9e3d
000003a0: f476 8fbc 7780 f7bd 313b c9bd 0281 cc39
000003b0: 5632 423d 5ec1 e1bd 3ccd babd be87 abba
000003c0: 65a0 7f3c 5a9b b1bc 7c70 533a e3d5 a53d
000003d0: 83a5 76bd 75d4 fa3c 31c7 b23d e342 94bc
000003e0: 6413 20be 753b 31bd 32c2 273d 2fc0 603d
000003f0: ae0d cbbd ffae 953d cbee 97bd 50e8 bdbd
0.13375084 0.09601189 0.06288727 -0.18199278 -0.010585427 -0.00014823994 -0.00030670626 0.016537499
0.027136818 -0.02584638 -0.15213868 0.049099382 0.07470054 0.017653983 -0.10723739 -0.024449503
0.10606265 0.105300695 0.13700849 -0.022307377 -0.0711722 0.080116704 0.08369245 -0.107119605
-0.061718218 -0.10697964 -0.1394175 -0.05560154 -0.11202228 -0.058228217 -0.08517724 -0.03767867
-0.049591053 -0.083717465 -0.02492102 -0.008025574 -0.12921037 0.01023912 -0.021307364 -0.103445545
-0.06831358 -0.019768184 -0.09163905 -0.057200994 -0.084725775 0.027225364 -0.019535797 -0.0035818357
0.09827201 0.07668332 -0.027670091 -0.11368009 -0.2421872 -0.15181941 -0.076180495 -0.08190451
-0.07506589 0.069693625 0.014297798 0.008892319 -0.17777357 -0.06473932 0.15170857 -0.05741439
-0.17004293 -0.07530453 0.025460131 -0.06952699 -0.15151322 -0.10618284 -0.0067267236 0.090609275
0.050436594 -0.06905513 -0.034973163 -0.17504545 -0.0013696892 0.03872317 -0.12156169 0.056795694
0.042220492 -0.022490071 -0.14890818 -0.040463336 0.09732502 0.04003303 0.0056650243 -0.036865357
0.037697405 0.13323562 -0.017357385 0.031444687 0.034044616 0.106032394 0.090287484 0.030189017
0.02357919 -0.04168849 -0.1501258 0.14276196 -0.14951831 -0.03640796 -0.0637382 -0.032632187
-0.011710737 0.022793433 0.017211748 0.05741383 0.043510903 -0.02967295 0.0936161 -0.16308028
0.012277603 -0.04882856 -0.08209035 -0.07071271 0.1554739 -0.0033353823 -0.045099545 -0.013072939
-0.028944127 -0.023175437 0.08390848 0.08243635 -0.06229474 0.020640062 -0.032631483 0.09684656
-0.03234141 -0.035460606 -0.013814509 -0.05255007 -0.15281291 -0.0056696553 -0.17993018 0.018263768
-0.018533861 -0.03931241 0.040357325 -0.09531823 0.011201069 0.14072452 0.040455427 0.07675297
-0.046412747 -0.028407712 0.014882186 0.1290576 0.01655924 -0.062406003 -0.024856854 0.0048060454
-0.0042073973 0.005763646 -0.009731288 -0.07672651 0.054052744 -0.073539995 -0.1175288 0.050746605
-0.04841771 -0.1314597 0.037414145 -0.119198196 -0.013133701 -0.04374965 0.029467171 -0.21410747
0.011841115 0.08860721 0.14014633 -0.13622867 0.02338491 -0.11030776 -0.049417343 0.023201358
-0.02433463 -0.23046862 -0.1272183 -0.06318703 -0.03014824 -0.052113574 -0.054235384 0.07601477
-0.030587222 -0.15077706 0.05127359 -0.057415728 -0.19687898 0.0040558325 0.07125086 -0.053645555
-0.06673192 -0.064903386 -0.053190596 -0.015181399 -0.037209217 -0.031185554 0.11727285 -0.06612971
0.017372925 -0.06574088 -0.116475746 -0.028818404 0.06264831 -0.0040041083 0.092175245 0.045751512
-0.06310059 -0.08204098 -0.22684337 -0.02566952 0.029825242 -0.015698293 0.05139075 -0.03860189
0.10048196 -0.027392782 0.038359486 -0.019629283 0.052730814 -0.11717111 0.0030505925 0.10133618
0.01607484 0.061566852 0.09388173 0.013727381 0.046157114 -0.033786885 0.13737811 0.07753876
-0.017512776 -0.120850496 -0.09825743 0.0003900603 0.047411285 -0.1102321 -0.091211766 -0.0013086719
0.015602206 -0.021680523 0.00080657727 0.08097436 -0.060216438 0.030618886 0.08729399 -0.0180983
-0.15632397 -0.043269593 0.040956683 0.05487078 -0.099147186 0.073087685 -0.07418593 -0.09272826

conv3.bias f4 [64]
00000000: 03b2 1e3d 736d 27bd e8ba 88bb 3083 583c
00000010: b568 70bc 6210 3c3d ab61 2abd a199 f5bb
00000020: b1f7 99bc 3c5f aabc 7125 a5bd 07bf 2abd
00000030: e68c f13c a1ec 0bbd bcf8 f5bd bece c2bc
00000040: 1505 8abd 6f7f 1f3d b7d0 82bd 23f6 453c
00000050: 7967 7b3d c354 abbd 1f7c f8bc b3c0 e4bc
00000060: 1083 60bd c702 66bd 260d 23bc 6334 04bd
00000070: e5a3 efbc 4c24 773c c9ba 66bd 9800 bfbc
00000080: 0e2d 013d ce42 0d3d 7d98 ab3c a15e 8d3d
00000090: 05dd e23b 3cb6 e3bc a17f f3bc 0a41 94bc
000000a0: a171 2ebd c675 6abb e004 d73c e967 81bd
000000b0: f386 02bb 67f2 69bc 264f dfbc b684 a2bd
000000c0: a4b7 9abc ffb7 54bb dcae 5d3c 8735 e03c
000000d0: 551f 30bd abe0 cbbc 6eeb b1bd 7a42 ccbc
000000e0: 1316 58bd 80d7 7dbc 6e0f 03bd 5f71 66bd
000000f0: 24e0 f8bc 0ba4 943c 5e6a 3e3d a773 52ba
0.038743984 -0.040875863 -0.0041726716 0.013214871 -0.014673402 0.04591406 -0.04159705 -0.0074951206
-0.018794866 -0.020797364 -0.08063782 -0.041686084 0.02948613 -0.034161214 -0.12010333 -0.023780223
-0.067392506 0.03893989 -0.063874654 0.012082609 0.061377976 -0.083657764 -0.030332623 -0.027923917
-0.05481249 -0.056154992 -0.009951865 -0.032276522 -0.029252956 0.015084337 -0.056330476 -0.023315713
0.031537108 0.034487538 0.020946736 0.06902815 0.0069233202 -0.027796857 -0.029723944 -0.01809742
-0.042588834 -0.0035775765 0.026247442 -0.063186474 -0.0019916862 -0.014278985 -0.02725942 -0.07935469
-0.018886395 -0.0032458303 0.013530459 0.027369274 -0.04299863 -0.024887403 -0.08687483 -0.024934042
-0.052755427 -0.015493274 -0.031997137 -0.056260463 -0.030380316 0.018144628 0.04648816 -0.0008028098

fc1.weight f4 [20, 576]
00000000: b6a0 323e 2d6a d73d a86f 80bc 08d8 ac3d
00000010: 61e4 053e a686 d1bd 3801 02bd 3649 fbbc
00000020: 51cf 3ebd 9ae9 d03d 493c 23bc af5a 38bc
00000030: 0e3c 1b3d bfa3 7cbc 2a50 2bbd fc90 17bd
00000040: 368d 0d3e ebda 1dbe fa1c a53d 12d8 013e
00000050: 443b 143d a2ca 05bd 462d 8b3d 5460 02bb
00000060: 6940 80bd 56f3 e43c e0e3 8b3b eb44 033e
00000070: 3517 283d 3f86 853d 1518 1cbe 15a9 423e
00000080: 9f00 b43d 599f 7fbc 0040 d2bc b6bf 3abc
00000090: 3058 8a3b a400 d33b d772 9eb8 dc2d 583a
000000a0: b37a 0c38 f13e 3b3b 9a30 05b9 5536 d839
000000b0: 4dd4 1fb9 fe99 76bb 460a bbbd b962 043d
000000c0: b184 563d 5c81 29be a7fd 283e f87d 923d
000000d0: 3576 8c3d 94c2 a53d 9851 ab3d d805 293e
000000e0: a72d 10bd 8300 9a3d c79b 0d3e 6180 98bd
000000f0: 7179 5dbd 6f6a 81bb aede 073c 66c7 943d
00000100: 9871 883d 4994 7b3d ba70 18bd c561 6ebd
00000110: 0411 013d c702 0c3e 072e d9bd 362c 363e
00000120: 70c8 983d 02a1 043e 40c3 123d 0c0e b0bc
00000130: c2ba 80bd 2351 87bd f62c bbbd 0aa2 ed3d
00000140: 58b0 5f3c a78f 753d a48a 333e 4d16 a83d
00000150: bd48 643d 59ee 09bc f676 a43c 8df3 b13d
00000160: 8590 e6bc 0301 4fbc dfaf 6e3c 99a7 443c
00000170: 3382 c63d f217 743d f774 da3d e3ca c6bd
00000180: 3922 d23d 8472 b2bc a653 a9bd 5c7c c03d
00000190: 53e3 d4bc 7392 77bd 4f57 23bd b95a 5b3d
000001a0: eedc 8a3e 7fce 7c3d deb5 ec3c 0f0c ebbd
000001b0: e2de b13d 1c74 8abc fc96 edbd 24bc 12bd
000001c0: 9744 8d3d b1d3 ab3d 3ffc b33c 9b11 043d
000001d0: ec26 423d 2b3f a6bd 80d7 073e bb34 88bc
000001e0: 66d2 9bbc 42cd 583d 65ca 80bd dbad 203d
000001f0: 6b41 563b 778e d03c 0671 f33b 3f48 a73d
00000200: 2bc4 443d 085b eabc f461 443d bb1e bebd
00000210: 492a 283d f955 3cbc 2bd3 0cbd f862 4e3d
00000220: 1a4f f9bd f119 0dbe 7ed3 02bd fda4 3ebe
00000230: f673 3e3d e294 6a3d bc45 4b3b dc7f bc3c
00000240: 5c4a d33d 06ba 003e c585 3e3b 7c72 e03d
00000250: 6d17 1a3c 706e f1bd 754a 253d 90b4 2abd
00000260: 03dc 0dbd df9d 3ebd 7714 83bc 84a3 3cbc
00000270: 8ab9 ba3c 45fe 49be 7e7b 103b 0016 323e
00000280: f79b c7bd 23dd 093e 399a 133e 9350 d53d
00000290: 32ce d3bd c874 b9bd d5c8 8bbd c0a6 983c
000002a0: 115b 183e a6e8 97be 4d76 193e 31c7 97ba
000002b0: 21a9 8b3d fe12 203d 5708 febd 7ff5 023d
000002c0: e663 243d 106e c93d ccd0 943c 30eb 0f3e
000002d0: 50cc a9bd 94a8 d33d 259e 2b3e 4b40 30be
000002e0: 08b6 203e 40db 68bc 4e50 60bd 97cb 343e
000002f0: 4426 bf3d ab02 2d3e a0c5 efbc 82fb 90bd
00000300: 5637 d33d ca62 da3c 0d0d ae3d 4c18 b73d
00000310: 005a 063d 1f51 6bbd 3617 d6bc 7742 cbbd
00000320: c38d 9ebd db2c c33d 0483 7f3d f0f3 20be
00000330: 7dfb b93d b269 8c3c d5a3 36bd 556a 993c
00000340: b041 86bd bd88 3abd e858 d83d 6676 8b3d
00000350: dc21 633e 23aa 213d 1217 123c 658f 36bd
00000360: 9aa2 11bd a25f 213e 771b be3d ca93 0fbe
00000370: de20 c03d 49b8 b43c 82a7 aebb f1a1 013e
00000380: b8a4 013b dfef 743d a440 153e 5161 f93c
00000390: 98d8 383c 1f0d 81bd 458e 17be 8de7 7abc
000003a0: 054e b63d 6183 48be aacd fd3b d8f4 82bc
000003b0: e80d fdbb 55b6 29bc ded8 82bc 24bc 6dbc
000003c0: 2641 ea3b 7a66 81bb 81a2 003c 4d9d d33d
000003d0: 3f87 163d b308 103c 4ee9 8f3c c7e4 593d
000003e0: b2bd 99bd 9c6b ffbc cd14 32bc ccf0 e8bd
000003f0: eb5a 083e cd01 a63b d68d cfbd 2849 143d
0.17444119 0.10518298 -0.015678242 0.08439642 0.13075401 -0.1023076 -0.031739444 -0.030674558
-0.04658443 0.10200806 -0.009963104 -0.011252089 0.03789907 -0.0154198995 -0.041824497 -0.037003502
0.13823399 -0.15415542 0.080621675 0.1268008 0.036189333 -0.03266395 0.067957446 -0.0019893842
-0.06262285 0.027948063 0.004269108 0.12819259 0.041037757 0.06519746 -0.15243562 0.19009812
0.08789181 -0.015601956 -0.025665283 -0.0113982465 0.0042219386 0.0064392854 -7.555418e-05 0.00082465797
3.3492874e-05 0.0028571452 -0.00012701974 0.0004123921 -0.0001524251 -0.0037628408 -0.09132819 0.03232071
0.052372638 -0.16553253 0.1650301 0.07152933 0.06858484 0.080937535 0.08365172 0.16506135
-0.035199787 0.07519629 0.13828956 -0.07446361 -0.054070894 -0.0039494555 0.008292837 0.07264595
0.06662291 0.061420713 -0.03721688 -0.05819871 0.031510368 0.13672934 -0.10604482 0.17790303
0.074601054 0.12952045 0.035830736 -0.021491073 -0.06285621 -0.066072725 -0.09139435 0.11603172
0.0136528835 0.05995145 0.17533356 0.082073785 0.05573343 -0.008418643 0.020076256 0.08689032
-0.028145084 -0.012634519 0.014568298 0.012002849 0.09692802 0.05959315 0.106668405 -0.09706666
0.10260434 -0.02178312 -0.08267908 0.0939872 -0.025987303 -0.0604424 -0.039878186 0.053553317
0.2712168 0.061720368 0.028895315 -0.11476909 0.0868509 -0.016901068 -0.116010636 -0.035823956
0.06897848 0.08389986 0.021970866 0.032243352 0.0474004 -0.08117517 0.132658 -0.016626706
-0.019021224 0.052930124 -0.06288604 0.0392283 0.00326928 0.025458558 0.007429245 0.08168077
0.048038643 -0.02860786 0.047944978 -0.09283205 0.04105595 -0.011495107 -0.034381073 0.050387353
-0.121732906 -0.13779427 -0.031939976 -0.18617626 0.046497308 0.057270892 0.0031016907 0.023010187
0.10316917 0.12570962 0.0029071432 0.10959336 0.009404999 -0.117886424 0.04035421 -0.041676104
-0.034633648 -0.046537276 -0.01600097 -0.011513595 0.02279355 -0.19725902 0.0022046263 0.17391205
-0.09746545 0.13463263 0.144143 0.10415759 -0.10342063 -0.090554774 -0.06825415 0.0186342
0.14878489 -0.29669684 0.14986534 -0.0011579749 0.06819368 0.039080612 -0.124039344 0.031972405
0.040134333 0.09835446 0.018165968 0.1405456 -0.08290923 0.10334888 0.16759546 -0.17212026
0.1569444 -0.0142124295 -0.054764085 0.17655788 0.093334705 0.16895549 -0.02926904 -0.07079221
0.10313289 0.026658434 0.08498583 0.08940181 0.032800674 -0.05745041 -0.026134115 -0.099247865
-0.07741883 0.0953004 0.062380806 -0.15718055 0.09081171 0.017140243 -0.044589836 0.01872746
-0.06555498 -0.04554056 0.105638325 0.06809692 0.22180885 0.039468896 0.008916633 -0.044570345
-0.03555546 0.15759137 0.09282582 -0.14021221 0.09381269 0.02206053 -0.005330027 0.12659432
0.0019782018 0.05979907 0.1457544 0.030441912 0.011282109 -0.06301331 -0.14800365 -0.015313995
0.089016 -0.19581367 0.0077454643 -0.015985891 -0.007722605 -0.010358413 -0.015972551 -0.014510188
0.0071488796 -0.0039489837 0.007851244 0.10332737 0.036750074 0.008791137 0.017567303 0.053196695
-0.07506885 -0.031179242 -0.010869217 -0.11374053 0.13315932 0.0050661326 -0.10134475 0.03620258

fc1.bias f4 [20]
00000000: 61cf 9e3d b3ce 92bc 69a7 183d a616 85bc
00000010: 6cd2 b3bb 1ee7 b93d 42fb 9ab9 1a2a 0dba
00000020: 358f c33a 3b5d 99bc 6b49 073c ce46 70bc
00000030: fc13 bb3c f344 15b8 96cd 0fbc 2f7c 83bc
00000040: b5b9 22bc f2dc 09ba 5c22 3ebc 4520 83bb
0.07754398 -0.017920827 0.03726903 -0.016246151 -0.0054877307 0.09077285 -0.0002956037 -0.0005384997
0.0014919998 -0.018721214 0.00825725 -0.014665319 0.022836678 -3.5588582e-05 -0.008777043 -0.016050426
-0.009931971 -0.00052590587 -0.011604872 -0.0040016496

fc2.weight f4 [10, 20]
00000000: cfbc 42be 05af 063c f007 b5be c4ec 0bbe
00000010: 98c0 5d3c 70d4 303e 8bbd c5ac 0ec8 1ab6
00000020: 8cbd 953d f4a9 aabe e409 b8bc a7c4 2ebb
00000030: d2cd 643e 7c18 c03c 90fb babd 9c31 b13e
00000040: 8b9f 2cbe 77af 6235 eabd 30bb 7a03 5637
00000050: 5fe5 18be 2ea7 94bd a75e 2a3e aecf 06be
00000060: 4632 b63e 8104 99bd 0989 0080 f888 0000
00000070: ef6e 85bc 971f d63d 2ddf e6bc 4959 1ebb
00000080: 42e0 95be 59b6 2dbc 7ca8 5cbe fbc3 b83d
00000090: b70d 383e 0153 1b31 88b0 36bc ddc1 c4a9
000000a0: 9c6d 73bd f50d 673d 0aad 4bbe 9179 a2bd
000000b0: 25ef 2d3d c226 6c3e 6589 0000 829f 0480
000000c0: 0c4f 57b8 1fdf 6dbe d120 1f3a 1fc9 b338
000000d0: bdb0 0fbe 39ed b9bc 3a39 ea3d 3af1 563d
000000e0: 79f9 063e 4a63 e0ae aa60 96bd 8956 7a33
000000f0: 8a88 1c3e 2477 8c3d c622 07bc 47b0 ddbc
00000100: 2a16 1dbd cde0 c63d 128c fa3a 0f16 e9ba
00000110: ef5c 853d 1673 bfbe 49cc d33a 678c fc3a
00000120: 4aba a43d 229d 73ba 0605 a4be 6aff 91bd
00000130: 655a cf3d 61af c138 a52c aebc 59a3 2fbc
00000140: b061 c4bd b04d 9c3c e845 d4bd 3bdd de3d
00000150: c3f0 adbe 8f77 bdbe 68d4 31ba 89b0 6239
00000160: 2c67 213b ce9d 3c3e 0cad 50bc 5adf d7bc
00000170: 5115 c63b 3f41 90bc dd2f 623e 32d3 aabd
00000180: 5cfe 563e 89d8 72b8 09f2 233b 9ad4 b8a9
00000190: 125f 683c 40e4 a1bd da27 073e 3bdc 71bd
000001a0: 9a77 f0bd e36c a5bd a8c0 58ae 8aa1 7d38
000001b0: dd1f 02bc e3e0 32bd 345e 9bba 5b86 87bb
000001c0: ae81 853e e04d 0b3c f3ff 74be e534 553e
000001d0: a487 85be b7dc db37 17d7 a0ba d9e4 d4a9
000001e0: 35b4 e1be 4498 c53c e70c 79bd 4ba1 dc3d
000001f0: 9bf6 0fbe 4c84 463e a4d8 a413 986e 17b7
00000200: 9be1 8abb 4ac8 2f3e 6389 47bb b2c4 78b9
00000210: 1fb7 aeb9 b672 e3bb 15b0 a43d 45f3 043e
00000220: 8491 7bbe 9e47 beb8 58ce 803c 3f84 8235
00000230: 2644 293e 1d18 76bc f338 a4be c40e d1bd
00000240: 98dd 0bbe c7a3 7fbe 48c7 583c ddde 1c35
00000250: 89f1 bfba 29b0 c2bd d6d6 003b f2b0 a0bb
00000260: 4410 5cbe 1399 7cbc c691 5f3d 31f8 633e
00000270: fbef c03d 2dcf 2bb1 385d 63ba 06db 26b6
00000280: a339 fc3d 937e 81bb fc0a 353e b2e3 d0bd
00000290: 0e5b c1bc 47ad 183d d6dd ccb8 6411 56b5
000002a0: d6f8 9f3d d796 acbd f952 313c b6d2 853b
000002b0: 7f0f 2ebe 10a6 ee3b d6c1 d43d 6d57 db3d
000002c0: f271 adbe 6c2c 1bb8 a642 bbbc a391 43bd
000002d0: 7d92 633e 7ba7 3bbc 666c 88be 1239 c3bd
000002e0: 78b9 5c3c 47c5 2cbe 83a2 76bc 7bae 36b5
000002f0: 0ef7 453d 29df cd3d 81e4 163c bf7e e1bc
00000300: 218d 1e3e 0b96 8e3c 4c91 df3d 4c10 76be
00000310: 028e 2abe dedd 19b8 3f01 a9bc 22c0 853d
-0.19017337 0.008220439 -0.35357618 -0.13664538 0.013534687 0.17268538 -5.6201203e-12 -2.3064235e-06
0.07311544 -0.3333279 -0.022465654 -0.0026667507 0.22344139 0.023449175 -0.09130013 0.3460816
-0.16857736 8.4446896e-07 -0.0026968666 1.2756203e-05 -0.14931248 -0.072584495 0.1663767 -0.13165161
0.3558523 -0.07471562 -4.9159e-41 4.9135e-41 -0.016288249 0.10455244 -0.02818259 -0.0024162105
-0.29272658 -0.010602557 -0.21548647 0.09021755 0.17973982 2.260265e-09 -0.011150487 -8.7377784e-14
-0.059430704 0.056409795 -0.19890228 -0.07933343 0.042464394 0.2306166 4.9288e-41 -4.24563e-40
-5.1333613e-05 -0.23229645 0.00060702587 8.572847e-05 -0.14032264 -0.022696124 0.11436696 0.052476145
0.13181104 -1.0203978e-10 -0.07342656 5.8286364e-08 0.1528646 0.06858662 -0.008248037 -0.027061595
-0.038351215 0.09710846 0.001911523 -0.0017783063 0.06511866 -0.3739249 0.0016158904 0.0019267917
0.08043344 -0.0009293129 -0.32035083 -0.071287945 0.10124663 9.235624e-05 -0.021261523 -0.010720097
-0.09588945 0.019080013 -0.10364896 0.1088204 -0.3397275 -0.37005278 -0.0006783665 0.00021618804
0.0024628146 0.18419573 -0.01273657 -0.02635162 0.0060450216 -0.017609237 0.22088571 -0.083410636
0.20995468 -5.789896e-05 0.002501609 -8.208122e-14 0.014182823 -0.07904863 0.13198796 -0.05904792
-0.11741562 -0.08077409 -4.9283827e-11 6.0470345e-05 -0.007942167 -0.0436715 -0.0011853636 -0.0041358895
0.260755 0.008502454 -0.23925762 0.20820959 -0.26080048 2.6209613e-05 -0.0012271133 -9.45439e-14
-0.440828 0.024120457 -0.06080332 0.10772952 -0.14058916 0.19386405 4.1613044e-27 -9.026051e-06
-0.00423832 0.17166248 -0.003044688 -0.00023724398 -0.00033324302 -0.006941165 0.080413975 0.12983425
-0.24567229 -9.073246e-05 0.015723392 9.724243e-07 0.16529903 -0.0150203975 -0.320747 -0.102078944
-0.1365875 -0.2496482 0.013231106 5.843884e-07 -0.0014644127 -0.09506256 0.0019659302 -0.004903906
-0.2149058 -0.015417355 0.05458238 0.22262646 0.09420773 -2.500154e-09 -0.00086732535 -2.4863416e-06
0.12315681 -0.0039518564 0.17679971 -0.101996794 -0.023602989 0.037274625 -9.768798e-05 -7.974652e-07
0.078111336 -0.08427208 0.010823005 0.0040839566 -0.16998099 0.00728298 0.10388534 0.107100345
-0.33875996 -3.699625e-05 -0.022858929 -0.047746312 0.2222385 -0.011453505 -0.266452 -0.0953237
0.013471954 -0.1687213 -0.015053394 -6.8054186e-07 0.048331313 0.1005233 0.009209753 -0.027526258
0.15483524 0.01740553 0.10916385 -0.24029654 -0.16655734 -3.6684673e-05 -0.020630477 0.06530787

fc2.bias f4 [10]
00000000: d202 9d3e 67d6 fc3c 7211 3cbe 4750 343e
00000010: 802f 183e 65a6 653d 909a 0cbb ca1c f5bd
00000020: f8cb 043d c487 6f3e
0.30666214 0.030863954 -0.1836603 0.17608748 0.1486187 0.05606689 -0.002145443 -0.11968382
0.032421082 0.23391634
