checkpoints/epoch_150.pth (torch, 144357 bytes, 10 tensors)

conv1.weight f4 [16, 1, 3, 3]
0	0xbbc6ef77	-0.006071027
1	0x3e954f64	0.29162133
2	0x3eb712b1	0.35756448
3	0xbde183e2	-0.11011483
4	0x3e552e64	0.20818478
5	0x3e65706f	0.22406171
6	0x3e8b1bd5	0.27169672
7	0x3d020c1d	0.031749833
8	0x3ecd6f13	0.40123805
9	0x3efa8c49	0.48935154
10	0x3f040a02	0.5157777
11	0x3efee235	0.49781957
12	0xbe4a1d5c	-0.19737762
13	0xbec30ab0	-0.3809409
14	0xbea86101	-0.32886508
15	0xbe72c13d	-0.23706527
16	0xbe43521d	-0.19074292
17	0x38222758	3.866045e-05
18	0xbe303428	-0.17207396
19	0xbdc231ca	-0.09482153
20	0xbf06f0cf	-0.52711195
21	0xbe2e2278	-0.17005336
22	0xbea1e915	-0.3162314
23	0xbdc34648	-0.095348895
24	0x3edd126b	0.43178114
25	0x3e8cad40	0.2747593
26	0x3f1e1720	0.61754036
27	0xbe43977e	-0.19100758
28	0xbe1743d0	-0.14771962
29	0xbe92c8e8	-0.28668904
30	0xbe50b544	-0.20381647
31	0xbd5baf62	-0.053634055
32	0xbe79e969	-0.24405445
33	0xbe8a4973	-0.27009162
34	0x3db03dbf	0.08605527
35	0xbd927624	-0.0715144
36	0x3e74cff4	0.23907453
37	0x3d533f83	0.05157424
38	0x3ea4536a	0.3209489
39	0xbeddd13a	-0.4332369
40	0xbed442cb	-0.4145721
41	0x3f2b3c0e	0.6688851
42	0xbee3fa55	-0.44526926
43	0x3e63460d	0.22194691
44	0x3e550c47	0.20805465
45	0xbdbe6648	-0.09296852
46	0x3d7b5981	0.061364654
47	0xbe6c620c	-0.23084277
48	0xbe45335d	-0.19257875
49	0xbdf682a7	-0.12036639
50	0xbe52687f	-0.20547675
51	0x3c9669ee	0.018361058
52	0xbe7e2c89	-0.24821676
53	0x3b6e3de0	0.0036352798
54	0x3e11a89b	0.14224474
55	0xbe3efc78	-0.18650997
56	0xbe117db5	-0.1420811
57	0xbdd7f54f	-0.10544836
58	0x3d9a1e10	0.07525265
59	0xbe4173dd	-0.18891855
60	0xbde855bc	-0.113444775
61	0xbea32e7a	-0.31871396
62	0x3d1ecefc	0.038771614
63	0xbe6863fb	-0.2269439
64	0xbec7e44e	-0.3904137
65	0x3ebf0d8c	0.37315023
66	0x3d8b7518	0.06809443
67	0x3e794db9	0.24346055
68	0x3f23537c	0.6379926
69	0x3e69ac74	0.22819692
70	0xbdcd56ce	-0.10026322
71	0xbef3f61e	-0.4764871
72	0xbcc7958d	-0.024363304
73	0xbea1541c	-0.31509483
74	0xbed5549e	-0.4166612
75	0x3ea4e33c	0.32204616
76	0x3edcb685	0.43108
77	0xbe337f89	-0.1752912
78	0x3d981341	0.074255474
79	0x3ee54536	0.44779366
80	0x3e49ebff	0.19718932
81	0x3f0c87ca	0.548947
82	0xbe6ebb2a	-0.23313585
83	0x3c78cfa8	0.015186228
84	0x3ee1882f	0.44049212
85	0xbe6fe825	-0.234284
86	0xbe8df283	-0.27724084
87	0x3ef0b2b6	0.47011346
88	0x3e9459f5	0.28974882
89	0xbe99529b	-0.29945835
90	0xbc9b825d	-0.01898306
91	0x3d946079	0.07244963
92	0x3e505c31	0.20347668
93	0xbe9a84ce	-0.30179447
94	0xbc7f9724	-0.0156
95	0xbec56b5d	-0.38558474
96	0xbebd89f5	-0.37019315
97	0xbe4cb8e5	-0.19992407
98	0xbe931838	-0.28729415
99	0xbdbff7f9	-0.09373469
100	0xbe468bb3	-0.19389229
101	0xbe6c80fd	-0.2309608
102	0x3d235f42	0.039885767
103	0xbcd3bcde	-0.025846895
104	0xbe56ba45	-0.20969494
105	0xbe88034b	-0.26565012
106	0xbe933ecf	-0.28758857
107	0xbe2e8021	-0.17041065
108	0x3f193d34	0.59859014
109	0x3ec0152a	0.37516147
110	0x3e7199e2	0.23593858
111	0xbe5e83b9	-0.21729936
112	0xbe861f59	-0.2619579
113	0x3e92d15f	0.28675362
114	0xbed6c4ec	-0.41947114
115	0xbdf95664	-0.12174681
116	0xbdf4e82b	-0.11958345
117	0xbc305ca8	-0.0107642785
118	0x3d58fc2f	0.052974876
119	0x3eac852a	0.33695346
120	0x3f06f2c6	0.5271419
121	0x3ec69d24	0.38791764
122	0x3d66f73b	0.05638812
123	0xbf08802f	-0.5332059
124	0xbf07f2d5	-0.5310491
125	0xbcd40d9b	-0.025885394
126	0x3f082782	0.53185284
127	0x3f1525dc	0.58260894
128	0xbe2c5168	-0.16827929
129	0xbdb762b1	-0.08954371
130	0x3e150ca5	0.14555605
131	0xbf014c92	-0.5050746
132	0x3e512d21	0.20427372
133	0xbd88d36f	-0.06680953
134	0xbedca520	-0.4309473
135	0x3ed1f5cc	0.4100784
136	0x3e98370e	0.29729503
137	0x3ed7a30d	0.42116585
138	0xbd26554d	-0.040608693
139	0x3e167d21	0.1469617
140	0x3e2eabc3	0.1705771
141	0xbeef0016	-0.46679753
142	0xbee68157	-0.45020553
143	0xbe831d08	-0.25608087

conv1.bias f4 [16]
0	0x3c7d0b08	0.015444525
1	0xbe2361d2	-0.15955284
2	0xbe5aab87	-0.21354495
3	0xbeed28d8	-0.46320224
4	0xbdecb1cf	-0.11557352
5	0xbe926724	-0.28594315
6	0xbe38b44c	-0.18037528
7	0xbd32fce2	-0.0436982
8	0x3e258bc8	0.16166604
9	0xbe5bd59f	-0.21468209
10	0xbef9f2ad	-0.4881796
11	0xbeef2150	-0.46705103
12	0xbe76249a	-0.240374
13	0xbdc5da3c	-0.096607655
14	0xbe7e13f2	-0.24812296
15	0xbe7e18fb	-0.24814217

conv2.weight f4 [32, 16, 3, 3]
0	0x3d46c167	0.048524287
1	0xbdbe273b	-0.09284826
2	0xbead81f6	-0.33888215
3	0xbbcfa958	-0.006337326
4	0xbd7edfbd	-0.062225092
5	0x3ab3dbda	0.0013722137
6	0xbd05c954	-0.032662705
7	0xbd17098c	-0.03687434
8	0x3d664f4b	0.056227963
9	0x3db2dd61	0.08733631
10	0x3c5bc84f	0.0134144565
11	0xbe1a85f1	-0.15090157
12	0x3e188c59	0.14897288
13	0x3d899b4a	0.06719072
14	0xbe93686f	-0.28790614
15	0x3e00f893	0.12594824
16	0x3e959d79	0.29221705
17	0x3e1c0ab6	0.15238461
18	0xbd81128f	-0.06302368
19	0xbc3834b0	-0.01124303
20	0x3da2e8e1	0.079545744
21	0x3d80b964	0.062853605
22	0x3e246741	0.16055013
23	0x3caa6178	0.02079843
24	0xbe034cd1	-0.12822272
25	0xbe97a498	-0.29617763
26	0x3b27b564	0.0025590295
27	0xbdb054d4	-0.0860993
28	0xbc8b5b77	-0.017011387
29	0x3de8590b	0.113451086
30	0xbc5f60a9	-0.013633885
31	0xbdf3923b	-0.118931256
32	0xbd3a893b	-0.04554103
33	0xbdd0bc95	-0.10192219
34	0xbdd5bb57	-0.10436123
35	0xbe3f010a	-0.1865274
36	0xbdfb4c17	-0.12270372
37	0xbed4749d	-0.4149522
38	0xbe8802dc	-0.26564682
39	0x3d90969d	0.07059977
40	0x3caf2f83	0.02138496
41	0xbdccdbf3	-0.100028895
42	0xbde72ec8	-0.1128822
43	0xbbaa1aa7	-0.0051911655
44	0x3e1f14ac	0.1553523
45	0xbb74976d	-0.0037321702
46	0xbd71b41c	-0.059009656
47	0x3d07a072	0.033111997
48	0x3a9cb523	0.0011955838
49	0xbe9166e6	-0.28398818
50	0xbe22b8de	-0.15890834
51	0xbcfb7a25	-0.030697891
52	0xbd9ac8eb	-0.07557853
53	0xbd826303	-0.06366541
54	0xbdc5f448	-0.096657336
55	0xbca7a553	-0.020464575
56	0x3da07b4f	0.07836019
57	0x3d1f2cf8	0.038861245
58	0xbe0ea0b1	-0.13928486
59	0xbe3c2a5a	-0.18375531
60	0x3ddb9533	0.10721817
61	0x3ca1275e	0.019672092
62	0xbd5b2828	-0.053505093
63	0xbaa07711	-0.0012242516
64	0xbe93a7b2	-0.2883888
65	0xbe3952cc	-0.18097991
66	0x3e91651e	0.2839746
67	0x3dc89543	0.097940944
68	0xbd0918fe	-0.0334711
69	0x3e3f2507	0.18666469
70	0x3da2a15a	0.079409316
71	0x3dad1604	0.08451465
72	0x3d00f160	0.031480193
73	0xbbcdabe1	-0.006276593
74	0xbe869d21	-0.26291755
75	0x3d65350d	0.055958796
76	0x3e148a16	0.145058
77	0x3dcd5417	0.100258045
78	0xbc82ad5c	-0.015951805
79	0xbe53e2f9	-0.20692052
80	0x3dc67f08	0.09692198
81	0xbc2fd5ea	-0.010732153
82	0x3dca6192	0.09881891
83	0xbd2a4203	-0.04156686
84	0xbd8837c7	-0.06651264
85	0xbe0b61eb	-0.13611571
86	0x3cd138b9	0.025539743
87	0x3dc7525f	0.09732508
88	0xbde301fb	-0.11084362
89	0xbd9a4021	-0.07531763
90	0xbde40e5f	-0.111355536
91	0xbdd87ec5	-0.10571054
92	0x3d4dbf8e	0.05023151
93	0xbda25ae8	-0.07927495
94	0xbe0f2b56	-0.13981375
95	0xbe64fe3f	-0.22362612
96	0xbdd5a813	-0.10432448
97	0x3e36bfef	0.17846654
98	0x3d79e2c4	0.061007276
99	0xbd9a2319	-0.075262256
100	0xbc719f08	-0.014747389
101	0x3d5dc941	0.05414701
102	0xbd4bdc9d	-0.04977094
103	0xbe96adda	-0.29429513
104	0xbe49332f	-0.19648431
105	0xbd6e32ac	-0.058153793
106	0xbc2f98ff	-0.010717629
107	0xbe417786	-0.18893251
108	0x3ded6221	0.11590982
109	0x3c3c3e52	0.011489468
110	0xbd9ee489	-0.07758433
111	0x3e0187f5	0.1264952
112	0x3e6ef6dc	0.23336357
113	0xbdfc6902	-0.12324716
114	0xbd6e516f	-0.05818313
115	0x3e8be155	0.27320352
116	0x3e825117	0.25452492
117	0x3e50289a	0.20327988
118	0xbdd07e03	-0.10180285
119	0xbe629eee	-0.2213094
120	0x3e2aad25	0.16667612
121	0x3df6a914	0.12043968
122	0x3e4e06d3	0.2011979
123	0x3d854f24	0.065092355
124	0x3e0bb597	0.1364349
125	0x3e4c1d9b	0.19933169
126	0x3d1176ad	0.03551357
127	0x3c73bb84	0.01487625
128	0xbdcd50af	-0.10025155
129	0x3c5f1e5c	0.013618078
130	0xbe46097d	-0.19339557
131	0xbe6099cc	-0.21933669
132	0x3dcee534	0.10102311
133	0x3dc90cdc	0.09816906
134	0x3d0c5169	0.034257326
135	0x3cc1d043	0.023658877
136	0xbe214b24	-0.1575132
137	0xbe563e95	-0.2092231
138	0x3dd3ebe5	0.10347728
139	0x3dfee0a6	0.12445192
140	0xbd19f07f	-0.03758287
141	0xbde4ed1c	-0.111780375
142	0x3e252b28	0.16129744
143	0x3e4fc67f	0.20290564
144	0xbd4468b7	-0.047951426
145	0x3d5f7aa8	0.054560333
146	0xbcb38482	-0.02191377
147	0x3d1f716d	0.03892653
148	0xbdf0819c	-0.11743471
149	0x3d9dcbea	0.07704909
150	0xbe5fab2c	-0.2184264
151	0xbe2ce99c	-0.1688599
152	0xbd03ce75	-0.032179315
153	0x3d3a10f9	0.045426343
154	0x3df87d25	0.121332444
155	0x3d014798	0.031562418
156	0x3d43b81f	0.047783013
157	0x3b3fe461	0.0029280412
158	0x3e2f8ea2	0.17144254
159	0xbe7394cf	-0.23787235
160	0xbdc1915a	-0.09451552
161	0xbde09268	-0.10965425
162	0x3e21e215	0.158089
163	0x3e525cd3	0.20543222
164	0x3e5d1d42	0.21593192
165	0xbe225aa7	-0.15854894
166	0xbe28ec53	-0.164964
167	0xbe2b9755	-0.16756947
168	0x3d9ce8f6	0.07661621
169	0x3d349396	0.04408606
170	0x3e91b01e	0.2845468
171	0xbc492b38	-0.012278371
172	0xbe254509	-0.16139616
173	0xbe2cb1a7	-0.16864644
174	0xbdb4355f	-0.08799242
175	0xbd3e06e0	-0.046393275
176	0xbc0f7b5c	-0.0087574385
177	0x3c041a69	0.008062937
178	0x3b7022f9	0.003664194
179	0x3d07a3d2	0.033115216
180	0x3e6270e4	0.22113377
181	0x3d951ef0	0.072812915
182	0xbcb41945	-0.021984706
183	0x3cf76a73	0.030202126
184	0xbd713f9a	-0.058898546
185	0x3df38c90	0.118920445
186	0xbdf2145e	-0.11820291
187	0xbe11fa05	-0.14255531
188	0x3d632529	0.05545536
189	0xbd7ccdb9	-0.06171963
190	0xbe0507fa	-0.12991324
191	0xbe8c5a79	-0.27412775
192	0x3de35568	0.11100274
193	0xbc8146e3	-0.015780872
194	0x3c0b712e	0.008510871
195	0x39c92387	0.00038364177
196	0x3dcf3e1c	0.10119268
197	0x3d84c619	0.06483097
198	0xbd18400b	-0.03717045
199	0xbe0dc1a9	-0.13843407
200	0xbe9dfbfd	-0.30856314
201	0xbc76c29f	-0.01506105
202	0xbcd506e1	-0.026004257
203	0x3d3b648b	0.045750182
204	0x3d857354	0.06516138
205	0xbd4005ce	-0.046880536
206	0xbb065997	-0.0020500177
207	0x3e1b17eb	0.15145843
208	0x3defadcc	0.11703071
209	0x3d9e1627	0.07719069
210	0x3dde3dd0	0.108516335
211	0x3cd2f7aa	0.025752861
212	0x3e1a5668	0.15072024
213	0xbe8276c4	-0.25481236
214	0xbe509c57	-0.20372139
215	0x3dd801b2	0.10547198
216	0xbdfbb5da	-0.12290545
217	0x3e510edf	0.20415829
218	0x3e8c026e	0.27345604
219	0xbe826013	-0.25463924
220	0xbe741c5d	-0.23838945
221	0xbe190758	-0.14944208
222	0xbdb4b734	-0.08824006
223	0xbd4caa37	-0.049967017
224	0x3c8f156d	0.017466271
225	0xbda91b86	-0.08257203
226	0xbd35a80c	-0.044349715
227	0xbd2ac601	-0.041692737
228	0xbd7ee291	-0.06222779
229	0xbe14d978	-0.14536083
230	0xbd975b5b	-0.073904715
231	0xbcc09fb7	-0.023513658
232	0xbe24ac3a	-0.16081324
233	0xbe0f83e1	-0.14015152
234	0xbd0b0064	-0.03393592
235	0xbd511fa0	-0.05105555
236	0xbdd08fbf	-0.101836674
237	0xbcf49431	-0.02985582
238	0x3e0d02db	0.1377062
239	0x3cdf0d1d	0.027227933
240	0x3d99626d	0.07489476
241	0xbd6272e4	-0.05528535
242	0xb87e018b	-6.0559756e-05
243	0xbd2e5427	-0.042560723
244	0xbe4ddac4	-0.20102984
245	0xbe97b967	-0.29633638
246	0xbc800181	-0.015625717
247	0xbc8e6143	-0.017380362
248	0xbdfc1129	-0.123079605
249	0x3d463576	0.048390828
250	0x3d765bb6	0.060146056
251	0xbd0c95ff	-0.034322735
252	0x3ca5a9b0	0.020222515
253	0x3d4bf82b	0.04979722
254	0x3de3ec11	0.111290105
255	0x3dbbf903	0.091783546

conv2.bias f4 [32]
0	0xbdeed28b	-0.11661252
1	0xbddb99ed	-0.107227184
2	0x3d6a23f5	0.057163198
3	0xbc9d2372	-0.01918194
4	0x3e00c956	0.12576804
5	0xba0e6cfb	-0.00054331095
6	0xbdab8f1b	-0.083769046
7	0xbd62e176	-0.055390798
8	0x3da4ce7b	0.080471955
9	0x3c1c7db4	0.009551454
10	0x3d4efcde	0.05053412
11	0xbcff730f	-0.031182794
12	0xbca72d8c	-0.02040746
13	0xbdbeea52	-0.09322037
14	0x3d879f20	0.066221476
15	0x3ca07a64	0.01958961
16	0x3d268b39	0.040660117
17	0x3cc7087a	0.024296034
18	0xbc15d3c3	-0.009144726
19	0x3d363e91	0.04449326
20	0x3d363218	0.044481367
21	0xbd1ae90f	-0.03781992
22	0x39d334c2	0.00040284364
23	0x37d19caf	2.4987703e-05
24	0xbd0dd8e3	-0.034630667
25	0x3a95f503	0.0011440817
26	0xbd8d2241	-0.06891299
27	0x3cabf46c	0.020990573
28	0x3dff84fc	0.12476537
29	0x3dd03d3f	0.10167932
30	0x3b848b0f	0.0040448974
31	0xbde5e6e5	-0.1122568

conv3.weight f4 [64, 32, 3, 3]
0	0x3dea12f9	0.114294
1	0x3d4603ac	0.048343346
2	0x3d851ff7	0.065002374
3	0xbe3e764f	-0.18599819
4	0x3d206b21	0.039164666
5	0xbd0a4465	-0.033756632
6	0x3d1a76da	0.037711002
7	0xbd1f16d2	-0.038840123
8	0x3d7c4170	0.061585844
9	0xbd87ae90	-0.06625092
10	0xbe410b5d	-0.18851991
11	0x3cde0236	0.027100664
12	0x3dd2733e	0.10275887
13	0x3ca2f385	0.01989151
14	0xbe07020e	-0.13184378
15	0xbdcf467a	-0.10120864
16	0x3d491c71	0.04909939
17	0x3e837eff	0.25682828
18	0x3c8b935d	0.017038042
19	0x3ca4d77b	0.02012228
20	0xbdc74dfb	-0.097316705
21	0x3db83bd6	0.08995788
22	0xbc9e6d14	-0.019339122
23	0xbdd66e7d	-0.10470293
24	0xbd6ad3fd	-0.057331074
25	0xbe21bd39	-0.15794839
26	0xbe8fd259	-0.2809017
27	0xbda13b3b	-0.078726254
28	0xbe420145	-0.18945797
29	0xbc653161	-0.013988824
30	0xbe23c175	-0.15991767
31	0xbd3a1aff	-0.0454359
32	0xbddd7aec	-0.10814461
33	0xbe1f8bbd	-0.1558065
34	0xbd413559	-0.047170017
35	0xbccc8a39	-0.024968253
36	0xbe1d606d	-0.15368815
37	0xbd4f3d0c	-0.05059533
38	0xbd8ad425	-0.067787446
39	0xbe27cfdd	-0.16387887
40	0xbd63f0bd	-0.055649508
41	0x3cb437c9	0.021999257
42	0xbe3ceb26	-0.18449077
43	0xbdf65e98	-0.12029761
44	0xbdf2244c	-0.11823329
45	0x3d01b50e	0.031666808
46	0xbdd1796f	-0.1022824
47	0xbd59fc26	-0.053218983
48	0xbcbdbfb0	-0.023162693
49	0xbbfe9e27	-0.007770318
50	0x3cc7450d	0.024324918
51	0xbdc5c757	-0.09657162
52	0xbe1185fb	-0.14211266
53	0xbe4598dc	-0.19296592
54	0xbddf121b	-0.10892125
55	0xbe3711fe	-0.17877957
56	0xbde48e9a	-0.111600116
57	0xbda695e3	-0.081340574
58	0xbcd7f348	-0.026361123
59	0xbbabf6f2	-0.005247944
60	0xbdd8ce98	-0.1058628
61	0xbdf19341	-0.117956646
62	0x3e89347f	0.26797864
63	0xbd4e7821	-0.050407533
64	0xbe45b887	-0.19308673
65	0xbbf182cc	-0.0073703285
66	0xbd8f334d	-0.06992207
67	0xbd40da5a	-0.047083236
68	0xbe58f091	-0.21185519
69	0xbdc86177	-0.09784215
70	0xbc98e398	-0.018663213
71	0x3e358d49	0.17729677
72	0x3b483da3	0.0030554316
73	0xbdba8cbc	-0.09108874
74	0xbe24f130	-0.1610763
75	0xbdc44a3a	-0.0958447
76	0xbd850101	-0.06494332
77	0x3c8371d6	0.016045492
78	0xbda3aae7	-0.079915814
79	0xbd86d69e	-0.06583904
80	0xbc1ad6ab	-0.009450595
81	0x3c5ff463	0.013669106
82	0xbe7c7b09	-0.24656309
83	0xbc79d2a5	-0.0152479755
84	0x3df3cd03	0.11904337
85	0x3d913ba6	0.07091455
86	0xbd528ec9	-0.0514057
87	0xbdb54a2e	-0.08852039
88	0x3cf2ecf4	0.029654004
89	0x3e2f4fc8	0.17120278
90	0xbd84d4c6	-0.06485896
91	0xbd183120	-0.037156224
92	0xbd5276bd	-0.05138277
93	0x3e2068d9	0.15664996
94	0x3ba93c1b	0.005164636
95	0xbe07dd98	-0.13268125
96	0x3d811e0c	0.06304559
97	0xbda01602	-0.07816698
98	0xbd88277b	-0.06648155
99	0x3e6a50fa	0.22882453
100	0xbe614f74	-0.22002965
101	0xbd5b2aba	-0.053507544
102	0xbe162db6	-0.14665875
103	0xbe37f5a9	-0.17964806
104	0x3d98188f	0.07426559
105	0x3cd2bb9a	0.025724221
106	0xbe27bb00	-0.16379929
107	0x3d8032d5	0.062596954
108	0x3d9b7438	0.07590526
109	0xbd63e40b	-0.0556374
110	0x3d9c7396	0.07639234
111	0xbe406f8c	-0.18792552
112	0x3cfc31d1	0.030785473
113	0x3c6f23d0	0.014595941
114	0xbd9ee839	-0.07759137
115	0xbdffd454	-0.1249167
116	0x3e25f60e	0.16207144
117	0x3bc90cfd	0.0061355815
118	0x3cb504f7	0.022097094
119	0x3cb4417f	0.022003887
120	0x3c8e8227	0.017396046
121	0xbdd667ce	-0.10469018
122	0xbc74c2ba	-0.014939005
123	0x3d8f8228	0.07007247
124	0xbe04c356	-0.1296514
125	0xbdfad353	-0.12247338
126	0xbd820324	-0.06348255
127	0x3da54e39	0.080715604
128	0xbd876e66	-0.06612854
129	0xbda74d4b	-0.08169039
130	0x3da21873	0.079148196
131	0xbbc863ff	-0.006115436
132	0xbe07b077	-0.1325091
133	0xbdde37d2	-0.10850491
134	0xbe411aec	-0.18857926
135	0x3b630c52	0.0034644795
136	0xbdb01f32	-0.085997
137	0x3d25b42b	0.040455025
138	0xbc395bac	-0.01131336
139	0xbe4c4780	-0.1994915
140	0x3d86624f	0.065617196
141	0x3d8d247b	0.06891724
142	0x3dd43cfb	0.103631936
143	0xbe11f684	-0.14254194
144	0x3d19b99a	0.03753052
145	0x3bd16617	0.006390344
146	0xbaaad2cc	-0.0013032793
147	0x3e44d128	0.19220412
148	0xbd5c4325	-0.05377497
149	0xbd755a40	-0.059900522
150	0xbe4d7889	-0.20065512
151	0xbd83f7e6	-0.06443767
152	0xbe28ab5e	-0.16471621
153	0xb9aa7e55	-0.00032519051
154	0xbd83a5ee	-0.06428133
155	0xbdf158fa	-0.11784549
156	0xbd826c31	-0.06368292
157	0xbd9c869e	-0.07642864
158	0xbe038538	-0.12843788
159	0x3d1ded7a	0.038556553
160	0xbdbb055a	-0.0913188
161	0xbde68d96	-0.11257474
162	0xbd543969	-0.051812563
163	0xbe20de11	-0.15709712
164	0xbd09e8ba	-0.03366921
165	0x3cfec41d	0.031099373
166	0x3d1d926f	0.038469728
167	0xbe629974	-0.2212885
168	0xbc8fe83e	-0.017566796
169	0x3de2c245	0.1107221
170	0x3e331832	0.17489699
171	0xbe7ad3e2	-0.2449489
172	0x3d0a9f30	0.03384322
173	0xbdf85ee0	-0.12127471
174	0xbdf3d8f6	-0.119066164
175	0x3dcb65aa	0.099315
176	0xbd2c9254	-0.042131737
177	0xbe17fe23	-0.14843039
178	0xbe5a78cb	-0.21335141
179	0xbe29ac0f	-0.16569541
180	0xbd7ddade	-0.061976306
181	0xbd25637c	-0.04037808
182	0xbd04b5b9	-0.032399867
183	0x3de80819	0.113296695
184	0x3db92905	0.09041027
185	0xbe6a736f	-0.22895597
186	0x3dc62db0	0.09676683
187	0x3ca47620	0.020075858
188	0xbe3cfd49	-0.18455996
189	0x3d698947	0.057015684
190	0x3e000632	0.12502363
191	0x3d64b47d	0.05583619
192	0xbdfa4995	-0.12221066
193	0xbda9418f	-0.082644574
194	0x3b906400	0.004406452
195	0x3d04a4ed	0.032383848
196	0xbdb2b8ab	-0.08726629
197	0xbe198e42	-0.14995673
198	0x3d5d8f41	0.054091696
199	0xbd800bd5	-0.06252257
200	0x3cc2fd59	0.023802446
201	0xbd646915	-0.055764277
202	0xbe0aa92a	-0.13541093
203	0xbcb947f5	-0.02261732
204	0x3d3118bb	0.043236475
205	0xbd9ebe7c	-0.07751176
206	0x3d8fbd39	0.07018513
207	0x3df53c01	0.119743355
208	0xbdeb1d06	-0.11480145
209	0xbd04258a	-0.032262363
210	0xbe55083d	-0.20803924
211	0xbcb08bb6	-0.021550994
212	0xbd98933d	-0.074499585
213	0xbbeae5b7	-0.0071684974
214	0x3d04a885	0.032387275
215	0x3c312c5a	0.010813797
216	0x3e257b45	0.16160305
217	0x3da0966e	0.07841192
218	0x3d6edbf1	0.05831522
219	0xbd36e60f	-0.044652995
220	0x3c93fd0d	0.018065
221	0xbe454be4	-0.19267231
222	0xbd02370d	-0.03179078
223	0x3d0594aa	0.03261248
224	0xbd84b7c3	-0.06480362
225	0x3d6c8c11	0.057750765
226	0x3e28359a	0.16426697
227	0x3da471a8	0.08029491
228	0x3db90a88	0.09035212
229	0xbe029dc8	-0.12755501
230	0x3da29a26	0.07939558
231	0x3d9f506f	0.07779013
232	0xbe0c9c0a	-0.13731399
233	0xbe028b6f	-0.12748502
234	0xbe3a398e	-0.18186018
235	0xbdca3c16	-0.09874742
236	0x3d5cf497	0.053944197
237	0xbe74ba93	-0.23899297
238	0xbd274e79	-0.04084632
239	0xbcbe32d9	-0.023217605
240	0xbc628392	-0.013825314
241	0xbd8b7ce5	-0.06810931
242	0x3c30df50	0.010795429
243	0x3d28f6fb	0.041251164
244	0xbd6ad361	-0.057330493
245	0x3d9027db	0.07038852
246	0x3d8455f1	0.064617045
247	0xbd14688c	-0.036232516
248	0xbe223bd1	-0.1584313
249	0xbdcaa719	-0.098951526
250	0x3bb868f6	0.0056277467
251	0x3e258b5a	0.1616644
252	0xbe63ade6	-0.22234306
253	0xbc51f56f	-0.012814864
254	0xbe343a30	-0.17600322
255	0xbe4a4217	-0.19751774

conv3.bias f4 [64]
0	0xbbe7c844	-0.007073434
1	0xbb7d7a3d	-0.0038677596
2	0xbd075e39	-0.033048842
3	0xbbe7b61a	-0.0070712687
4	0xbcb8551b	-0.022501519
5	0xbc29ff23	-0.010375771
6	0xbd445268	-0.04793015
7	0xbc91b822	-0.017787997
8	0xbd7aa63c	-0.06119369
9	0xbdd196e4	-0.10233858
10	0xbdbf5646	-0.09342627
11	0xbd7347de	-0.05939471
12	0x3c351bc3	0.011053982
13	0xbdd05c39	-0.1017384
14	0xbdd0feef	-0.10204875
15	0x3b4ef27e	0.0031577642
16	0xbd9f4439	-0.07776684
17	0x3d09ee16	0.033674322
18	0xbd48c4f8	-0.04901597
19	0xbd56fee6	-0.052489184
20	0x3d6d18cf	0.057884987
21	0xbdd596fe	-0.1042919
22	0xbd80a5cc	-0.06281623
23	0xbbc35e6e	-0.0059621846
24	0xbd9c6621	-0.07636667
25	0xbd8fe4a0	-0.07026029
26	0xbd12c428	-0.0358316
27	0xbcb511c0	-0.02210319
28	0xbd895301	-0.06705285
29	0x3c24b09f	0.010051875
30	0xbe01c68c	-0.12673396
31	0xbc92c0fc	-0.017914288
32	0x3c91c3a5	0.017793486
33	0x3d338aa0	0.043833375
34	0xbc33b3a5	-0.010968124
35	0x3d39be50	0.04534751
36	0x3d9f5271	0.07779396
37	0xbc4ddbb2	-0.0125645865
38	0x3d1724d5	0.03690036
39	0xbc301178	-0.010746352
40	0xbd12cddc	-0.035840854
41	0xbad51d6a	-0.0016259376
42	0xbb68f096	-0.003554379
43	0xbdb32a76	-0.08748333
44	0x3bd0f107	0.006376389
45	0x3c885f7d	0.016647095
46	0xbd37b513	-0.04485042
47	0xbd9e896b	-0.07741054
48	0x9c67f298	-7.6745034e-22
49	0xbd68a9a3	-0.056802403
50	0x3d9d601d	0.07684348
51	0x3c8aea37	0.016957385
52	0xbce31c88	-0.027723566
53	0xbc36ff06	-0.011169201
54	0xbe1bd301	-0.1521721
55	0x3ce66d11	0.028128179
56	0xbcb04061	-0.021515073
57	0x3c6f77f6	0.014616003
58	0xbd2c94e5	-0.042134184
59	0xbdc571b7	-0.0964083
60	0xbd4e93d3	-0.050433945
61	0x3c269e47	0.010169572
62	0x3dd93d97	0.106074505
63	0xbd956bb8	-0.07295936

fc1.weight f4 [20, 576]
0	0x3e545793	0.20736532
1	0x3e6887be	0.22708032
2	0xbd3c2f44	-0.045943514
3	0x3dbc288c	0.09187421
4	0x3e65bce3	0.22435336
5	0xbda7def1	-0.081968196
6	0xbc96d1dd	-0.018410617
7	0xbd1a1421	-0.037616853
8	0xbe130ef3	-0.14361171
9	0x3d136c72	0.035992093
10	0xbd3c5509	-0.045979533
11	0xbc839a20	-0.016064703
12	0x3dc13fa6	0.09435968
13	0xbc80f82f	-0.015743343
14	0xbc70aed5	-0.014690121
15	0xbe065df5	-0.1312178
16	0x3dfbfef2	0.12304486
17	0xbe0b640f	-0.13612388
18	0x3e05651d	0.13026853
19	0x3e2750f9	0.16339482
20	0x3cf30351	0.029664667
21	0xbdf66938	-0.12031788
22	0x3e0a7b16	0.13523516
23	0x3d764e62	0.060133345
24	0xbdccd422	-0.100013986
25	0x3c8a7619	0.016902016
26	0x3dc26735	0.094923414
27	0x3dabcc09	0.08388526
28	0xbd4a9efd	-0.04946803
29	0x3d541704	0.051779762
30	0xbeb6048e	-0.3555035
31	0x3e8d8056	0.27636975
32	0x3dfe0c56	0.12404697
33	0xbdb602bd	-0.08887241
34	0x3ca3362c	0.019923292
35	0x3da66888	0.081254065
36	0xbc3fab44	-0.011698548
37	0x3c81379c	0.015773587
38	0xbbe83d4e	-0.007087386
39	0xbd0ea7af	-0.034827884
40	0xbc7d9651	-0.015477733
41	0x3d96c228	0.07361251
42	0x3cf6e287	0.030137314
43	0x3d7f76c6	0.06236913
44	0x3c4eb152	0.012615519
45	0xbc865abb	-0.016400686
46	0xbc17e7bf	-0.009271561
47	0x3d6c83c5	0.057742853
48	0xbda73432	-0.08164252
49	0xbe2cafbc	-0.16863912
50	0x3e10c8fc	0.1413917
51	0x3df765fa	0.12079997
52	0x3dce621f	0.10077309
53	0x3d8961bf	0.06708097
54	0x3d8402a9	0.0644582
55	0x3e987e51	0.29783872
56	0xbd3babdc	-0.045818195
57	0xbb44243e	-0.0029928829
58	0x3e5ced34	0.21574861
59	0xbd5a6453	-0.053318333
60	0xbd29920c	-0.041399047
61	0x3cd5ecb5	0.026113847
62	0x3c8d4feb	0.017250022
63	0x3e567d50	0.2094624
64	0x3d762b87	0.060100105
65	0x3cb0af65	0.02156801
66	0xbcf24560	-0.029574096
67	0xbe248e4c	-0.16069907
68	0x3e001a66	0.1251007
69	0x3dd3538a	0.10318668
70	0xbe247d56	-0.16063437
71	0x3e17e491	0.14833285
72	0x3e0973ac	0.13423032
73	0x3e06063a	0.13088313
74	0x3e0c71a2	0.13715222
75	0x3dad5bec	0.08464798
76	0xbad8d7c9	-0.0016543801
77	0xbe24fcaa	-0.16112009
78	0xbe439df5	-0.19103225
79	0x3def3a2c	0.11681017
80	0x3daec0b3	0.08532848
81	0x3c413551	0.011792497
82	0x3e42fb73	0.19041233
83	0x3df07c03	0.11742403
84	0x3dd7b6e8	0.105329335
85	0xba9b38aa	-0.0011842449
86	0x3d93ac81	0.07210637
87	0xbb98be20	-0.0046613365
88	0x3cab2f31	0.020896526
89	0xbce6113d	-0.028084392
90	0xbc93650c	-0.017992519
91	0x3ddad502	0.10685159
92	0x3dba9f50	0.09112418
93	0xbd53969f	-0.051657315
94	0x3e28000a	0.16406265
95	0xbce02b16	-0.027364295
96	0x3e1be857	0.1522535
97	0x3d287a5b	0.041132312
98	0xbd993555	-0.074808754
99	0x3d15371e	0.036429517
100	0xbd7fbd3f	-0.06243634
101	0xbdb8a40c	-0.090156645
102	0xbdee48cd	-0.116349794
103	0x3d765660	0.060140967
104	0x3ed4b729	0.4154599
105	0x3e06dd9a	0.13170472
106	0x3ba62c8b	0.005071228
107	0xbde1829f	-0.11011242
108	0xbc2c84dd	-0.010529724
109	0x3d3194fc	0.043354973
110	0xbd7e155b	-0.062032085
111	0xbdc64c02	-0.09682466
112	0xbe120f5d	-0.14263673
113	0x3e18c754	0.14919788
114	0x3cbeb085	0.02327753
115	0x3cd30128	0.025757387
116	0x3d81135c	0.06302521
117	0xbd9a7ff8	-0.07543939
118	0x3df674ab	0.120339714
119	0xbd6b50ae	-0.05744999
120	0xbc4f909e	-0.012668757
121	0x3d892f22	0.06698443
122	0xbdff0d10	-0.12453663
123	0x3e412ef7	0.18865572
124	0xbd23257c	-0.03983067
125	0xbde90f1d	-0.11379836
126	0xbbbfbfcb	-0.005851721
127	0x3d63ccab	0.05561511
128	0x3d7cb047	0.06169155
129	0xbc661ade	-0.014044492
130	0x3dcda32f	0.100408904
131	0xbdb085d1	-0.086192735
132	0x3ab88a35	0.0014079275
133	0x3e0a8c42	0.13530067
134	0x3d0195c6	0.031636976
135	0x3db85cd1	0.09002078
136	0xbdc6fba1	-0.09715963
137	0xbe37f868	-0.17965853
138	0xbcd9fba7	-0.026609255
139	0xbe4793e6	-0.19490013
140	0x3dc182b2	0.09448756
141	0x3d801a12	0.062549725
142	0x3d410352	0.047122307
143	0x3ce57cda	0.028013635
144	0x3d6d5cf1	0.057949964
145	0x3e57b125	0.21063669
146	0xbc32e90c	-0.0109198205
147	0x3e604bdd	0.2190394
148	0xbd487dfc	-0.048948273
149	0xbe1455ea	-0.14485899
150	0x3c12d9bd	0.008963046
151	0xbdbde28a	-0.092717245
152	0xbe1ca6b9	-0.15297975
153	0xbd83ba82	-0.06432058
154	0xbca4e7d7	-0.020130081
155	0xbd3151d8	-0.043290943
156	0xbd8e65d5	-0.06953017
157	0xbecf24bf	-0.40457723
158	0x3dbce888	0.09224039
159	0x3e2e1c90	0.17003083
160	0xbca588f3	-0.020206904
161	0x3de3a0c2	0.111146465
162	0x3e204b9c	0.15653843
163	0x3e0295dd	0.12752481
164	0xbe02b193	-0.12763052
165	0xbdeeb30b	-0.116552435
166	0xbe03e77f	-0.12881278
167	0xbd1dbc4f	-0.038509663
168	0x3e5f1b98	0.2178787
169	0xbed58977	-0.4170644
170	0x3e2885dd	0.16457315
171	0xbddf204a	-0.108948305
172	0x3da84089	0.08215434
173	0x3deb3916	0.11485498
174	0xbe2b6026	-0.16735896
175	0x3d2f1d12	0.042752333
176	0x38587ea9	5.1616375e-05
177	0x3e175073	0.14776783
178	0x3d889b1a	0.06670208
179	0x3e31e6d1	0.17373206
180	0xbd22b69d	-0.039724935
181	0x3e1c182f	0.152436
182	0x3e50fd26	0.20409068
183	0xbd4d2938	-0.050088137
184	0x3e4a738b	0.19770639
185	0x3c844c10	0.01614955
186	0xbcfc50a4	-0.030800171
187	0x3dfbfb13	0.12303748
188	0x3e0321a8	0.12805808
189	0x3e2db25c	0.1696257
190	0x3d059ed0	0.03262216
191	0xbdca12e3	-0.098668836
192	0x3e8f217e	0.2795524
193	0x3d9b1e22	0.07574107
194	0x3e21a338	0.1578492
195	0xbc82fe19	-0.015990304
196	0x3db0172b	0.08598169
197	0xbdb9d025	-0.090729035
198	0xbbb8d3c9	-0.005640481
199	0xbde47990	-0.11155999
200	0xbbb962b9	-0.0056575206
201	0x3e502097	0.20324932
202	0x3d20bb70	0.039241254
203	0xbe340290	-0.17579103
204	0x3deffc15	0.11718003
205	0x3d222fb6	0.039596282
206	0xbd1f5f8f	-0.03890949
207	0x3d6c0e49	0.05763081
208	0xbdde709c	-0.10861322
209	0xbe19721a	-0.14984933
210	0x3e3f74f5	0.1869696
211	0xbc109eae	-0.008826895
212	0x3eb43987	0.3520014
213	0xbc87bc13	-0.016569173
214	0xbba6c732	-0.005089664
215	0x3ced48c2	0.028965358
216	0xbdb900f0	-0.09033382
217	0x3e865e5d	0.26243868
218	0x3e4b163e	0.19832703
219	0xbe4258d7	-0.18979202
220	0x3d71ca77	0.059030976
221	0x3e0fce8e	0.14043638
222	0x3cb7b7b6	0.022426467
223	0x3de6174f	0.112349145
224	0x3d755a9d	0.05990087
225	0x3da94769	0.082655735
226	0x3e41e110	0.18933511
227	0x3c343433	0.010998773
228	0x3d42e1e2	0.0475787
229	0xbe082b4d	-0.13297768
230	0xbe4eabf5	-0.20182784
231	0xbdadd84f	-0.08488523
232	0x3da68804	0.08131412
233	0xbe17e5b6	-0.14833722
234	0xbc8f16ba	-0.017466892
235	0xbd158dd6	-0.03651222
236	0xbcdd88e1	-0.027042808
237	0xbd0fbb49	-0.03509072
238	0xbd80f778	-0.06297201
239	0xbd2f0967	-0.042733576
240	0xbc876ade	-0.01653045
241	0xbc86d4ae	-0.016458835
242	0x3b1eb934	0.0024219276
243	0x3db10f7a	0.0864553
244	0x3dca0a2c	0.098652214
245	0xbd115b06	-0.035487197
246	0x3dac4df8	0.08413309
247	0x3cc5c101	0.024139883
248	0x3d4b7245	0.049669523
249	0xbcbd050a	-0.023073692
250	0xbb8005a5	-0.003906923
251	0xbdf79d6d	-0.120905735
252	0x3dca0274	0.09863749
253	0x3b090755	0.0020908911
254	0xbc50798b	-0.012724291
255	0xbcdc9dc3	-0.026930695

fc1.bias f4 [20]
0	0x3e052457	0.13002144
1	0x00008b6b	5.0014e-41
2	0x3d967e01	0.07348252
3	0xbd51ab27	-0.051188614
4	0x3ce73871	0.028225156
5	0x3e1224a8	0.14271796
6	0x00009f70	5.7195e-41
7	0xb9b76d7f	-0.0003498606
8	0xbc4e52f3	-0.012593019
9	0x3cb4e64b	0.022082468
10	0xb2a66f2f	-1.9375504e-08
11	0x3d3cd1f9	0.046098683
12	0x3d7c65a7	0.06162038
13	0x8e46d1cd	-2.45064e-30
14	0x3c9f7ebf	0.019469617
15	0xbccdff2a	-0.025146086
16	0xbd70188a	-0.058617152
17	0xbd03129e	-0.032000177
18	0xbba87b9f	-0.00514169
19	0xbc716eec	-0.0147359185

fc2.weight f4 [10, 20]
0	0xbe76693a	-0.24063578
1	0x342a30c9	1.5850232e-07
2	0xbee09547	-0.4386389
3	0xbe2706ba	-0.1631116
4	0x3dfd33c8	0.12363392
5	0x3e2157bd	0.15756126
6	0x8000a98a	-6.0819e-41
7	0xbccaa796	-0.024738114
8	0xbd3f7b02	-0.04674817
9	0xbee336cf	-0.44377753
10	0xba33bfc7	-0.0006856885
11	0x3dc1bd50	0.094599366
12	0x3e815a1f	0.2526407
13	0x2722161a	2.2493998e-15
14	0xbd79c055	-0.060974438
15	0x3eae325c	0.34022796
16	0xbe895982	-0.26826102
17	0xbcda91ef	-0.026680915
18	0x3313bee0	3.4399704e-08
19	0xbd7b43f0	-0.061344087
20	0xbe3ba65a	-0.18325177
21	0x19cabba9	2.0962106e-23
22	0x3df0c66a	0.117565945
23	0xbe96983e	-0.29413027
24	0x3edd187d	0.43182746
25	0xbdac8434	-0.08423653
26	0x80008b0f	-4.9885e-41
27	0x3d112a22	0.03544057
28	0x3e023020	0.1271367
29	0x3dabf864	0.08396986
30	0x390d8364	0.00013495755
31	0x3d99140c	0.07474527
32	0xbe9f2e00	-0.31089783
33	0xa6843bed	-9.175583e-16
34	0xbe552f13	-0.20818739
35	0x3cdb5bac	0.026777111
36	0x3e3c3b66	0.18382034
37	0xbb8c8cf0	-0.004289262
38	0x3bfcad3a	0.00771108
39	0xbcd88dd2	-0.026434813
40	0xbdc1166e	-0.09428106
41	0x342d0ff3	1.6117683e-07
42	0xbe5f5475	-0.21809562
43	0xbdd814c6	-0.10550837
44	0xbc07126d	-0.008244139
45	0x3e896b47	0.2683966
46	0x03416881	5.6837567e-37
47	0x3cb8bf21	0.022552075
48	0xbcf242fb	-0.029572954
49	0xbea02b63	-0.312831
50	0xbb70f3aa	-0.003676633
51	0xbe1c7cf6	-0.15282044
52	0xbe241f6a	-0.16027609
53	0x3989cf18	0.00026284973
54	0x3df32b3e	0.11873482
55	0x3dac52b0	0.08414209
56	0x3e16084d	0.14651604
57	0xbba47ef7	-0.005020018
58	0x3ac89f25	0.0015306218
59	0xbd247408	-0.04014972
60	0x3e34df27	0.17663251
61	0x3412d33f	1.367416e-07
62	0x3ca6d908	0.02036716
63	0xbc825e85	-0.015914211
64	0xbdb8e50c	-0.09028062
65	0x3df4157d	0.11918161
66	0x00008a1f	4.9549e-41
67	0x3c85fc0e	0.01635554
68	0x3d10c87f	0.035347458
69	0xbed6cefb	-0.4195479
70	0x3cd9a741	0.02656901
71	0xbd91b9ea	-0.071155384
72	0x3d68ffc7	0.056884553
73	0xbcaa91ee	-0.020821538
74	0xbed0a0fe	-0.40747827
75	0xbdc8234a	-0.09772356
76	0x3dfc0e5e	0.12307428
77	0xbd53300d	-0.051559497
78	0xbba8833b	-0.005142597
79	0x3d3d58b6	0.04622718
80	0xbe15666a	-0.14589849
81	0x31f8e460	7.243713e-09
82	0xbd77b68c	-0.060476825
83	0x3bbeb80e	0.005820281
84	0xbec55201	-0.38539127
85	0xbefb0de8	-0.49034047
86	0x80008a43	-4.9599e-41
87	0x3c40dfa1	0.011772067
88	0xbd103109	-0.035203014
89	0x3e366081	0.17810251
90	0x3a808b12	0.0009807071
91	0xbd675f70	-0.0564875
92	0xba96c460	-0.0011502616
93	0xbbced02d	-0.0063114376
94	0x3e793571	0.24336793
95	0xbdf13edc	-0.117795676
96	0x3e58526c	0.21125191
97	0x3c2a9a7b	0.010412808
98	0x3bd4ab65	0.0064901584
99	0x3d1ba70a	0.038001098
100	0xbd08358b	-0.033254188
101	0xb84fd719	-4.955297e-05
102	0x3e35eff9	0.17767324
103	0xbe26225e	-0.16224048
104	0xbe0025e2	-0.12514451
105	0xbd85df3e	-0.06536721
106	0x00008b0d	4.9882e-41
107	0x3c0c4dad	0.008563441
108	0x3cc393f5	0.023874262
109	0x3c2c3f01	0.010513068
110	0xbc3877ee	-0.011259062
111	0xbe2d5acb	-0.16929166
112	0x3e8c1d37	0.2736604
113	0x3c69153f	0.014226257
114	0xbe8e9d06	-0.27854174
115	0x3e7f96ff	0.24959944
116	0xbe94aacc	-0.29036558
117	0xbc9ff65a	-0.01952665
118	0x3bb0792c	0.0053855386
119	0xbdb47160	-0.08810687
120	0xbee0b777	-0.43889973
121	0x348812a0	2.5345526e-07
122	0xbdce0566	-0.100596234
123	0x3e94c87a	0.290592
124	0xbe0b1592	-0.13582447
125	0x3e3cb1cc	0.18427199
126	0x0000aa9d	6.1205e-41
127	0xbd658be4	-0.056041613
128	0xbe02fd44	-0.12791926
129	0x3e4854be	0.19563577
130	0x3b259c62	0.0025270213
131	0xbdb6c48e	-0.089242086
132	0xbc24d22a	-0.010059873
133	0x370ed438	8.513271e-06
134	0x3d50a8e8	0.05094233
135	0x3ddb3ed2	0.107053414
136	0xbe9128f7	-0.28351566
137	0xbd38b515	-0.04509457
138	0xb4194ff1	-1.4278318e-07
139	0x3cec1eaf	0.028823225
140	0x3e3c628a	0.18396965
141	0xb039183e	-6.733706e-10
142	0xbeb164ee	-0.34647316
143	0xbc522eb8	-0.012828521
144	0xbe2cabd1	-0.16862418
145	0xbeb22931	-0.34797052
146	0x00008ac1	4.9776e-41
147	0xbc120c00	-0.008913994
148	0xbdae4e1a	-0.085109904
149	0xbda2cecc	-0.079495996
150	0x3cf8916f	0.030342786
151	0xbdf47a6c	-0.119374126
152	0xbe7a2455	-0.24427922
153	0xbbf89829	-0.0075864983
154	0xbc3665eb	-0.011132698
155	0x3e92c587	0.28666326
156	0x3e01a438	0.126603
157	0x3c5c1c11	0.013434426
158	0xbc7cc338	-0.015427403
159	0xbcd950fe	-0.026527878
160	0x3e0c3e75	0.136957
161	0xb3ef50d1	-1.1144005e-07
162	0x3e469928	0.19394362
163	0xbde4699b	-0.11152955
164	0xbcd99870	-0.026561946
165	0x3d4a62ee	0.049410753
166	0x39827f01	0.00024890158
167	0x3b77e8e6	0.0037828027
168	0x3b8399b2	0.0040161246
169	0xbdf9eedf	-0.12203764
170	0xbb8a3198	-0.004217338
171	0x3cba83d5	0.02276794
172	0xbe6769bd	-0.2259893
173	0xbcfd877c	-0.030948393
174	0x3e02e77c	0.12783617
175	0x3dcb600b	0.09930428
176	0xbecaa668	-0.39580083
177	0xbc216806	-0.009851461
178	0xbce5b19d	-0.028038794
179	0xbd60b63f	-0.054861303
180	0x3e868006	0.2626955
181	0xb6b2e28a	-5.331186e-06
182	0xbe95fe87	-0.2929575
183	0xbd064343	-0.03277899
184	0xbdb047b2	-0.08607425
185	0xbe49089e	-0.19632193
186	0xb98c1a4a	-0.00026722468
187	0xbd3d7773	-0.046256494
188	0xba92e3b9	-0.0011206783
189	0x3de8c011	0.11364759
190	0xbba1c1bb	-0.0049364245
191	0x3d2ef0d1	0.04271013
192	0x3e3d881e	0.18508956
193	0xbd03b9a4	-0.032159463
194	0x3e0fcef9	0.14043798
195	0xbe8f09c2	-0.27937132
196	0xbe4542f2	-0.19263819
197	0xbcb36350	-0.021897942
198	0x3ca6eda8	0.020376995
199	0xbd3a2943	-0.045449506

fc2.bias f4 [10]
0	0x3ea25089	0.31702068
1	0x3cca0c67	0.024664117
2	0xbe554e73	-0.20830707
3	0x3e353c4e	0.17698786
4	0x3d9ca493	0.076485775
5	0x3c9279d6	0.017880362
6	0xbd598fdd	-0.053115714
7	0xbe315a86	-0.17319688
8	0x3da710d2	0.08157505
9	0x3e9739ce	0.2953629
