checkpoints/epoch_100.pth (torch, 144357 bytes, 10 tensors)

conv1.weight f4 [16, 1, 3, 3]
00000000: 25b0 4e3d 9140 9d3e 7bb5 b03e c664 b8bd
00000010: ff26 813e 8a35 8e3e 2b9e 713e 4399 ad3c
00000020: 18a2 de3e 6b08 eb3e fb1d 013f 31cc fb3e
00000030: dc22 30be a79e cebe d804 aebe b3e7 5bbe
00000040: 793e 3dbe bda3 dd3c 20be 3ebe 6009 c6bd
00000050: 43a1 fcbe fd35 47be dfe2 afbe 8e1f 02be
00000060: 4653 f23e e7d8 a13e fc02 213f 4b60 3fbe
00000070: 4171 3abe 142c 9fbe 5b5d 49be 2eb6 a5bd
00000080: dc8b 9cbe 8784 85be 100b 123e b1f5 96bd
00000090: 6ac4 553e d4e1 e83b 72ee ae3e beb2 e7be
000000a0: b104 ddbe d00f 213f 8542 eabe 8dbe 363e
000000b0: 8509 613e 922d 01be 3b26 ac3d 0dc8 92be
000000c0: 6570 53be 9623 11be 9714 81be c009 4ebc
000000d0: c941 83be cd99 03bd f87b 0a3e b365 56be
000000e0: f878 4dbe ae03 b1bd 4287 db3d d614 71be
000000f0: 1589 36be 7bd2 acbe a80d f3bc 60fa 7abe
00000100: c725 bdbe 9ec9 c33e 73f6 e03d 5f82 333e
00000110: 769a 173f 6cb5 513e c2eb d1bd 7c75 e6be
00000120: f6f1 f4bc 9220 abbe 398a babe aa00 b13e
00000130: 1ff3 e73e 2308 23be 2d0f 933d 9091 033f
00000140: 97a5 853e 7638 083f 03a1 61be 4afc 57ba
00000150: d017 ec3e 1d30 2fbe 70a5 a4be 5d3e 073f
00000160: 2341 9d3e b4c6 bebe 6d61 5ebd 1cc9 813d
00000170: 72ae 213e f1cb 8bbe b0d4 e338 8bf0 ccbe
00000180: 4d82 bebe fc4e 66be 5ef7 aebe 57df f0bd
00000190: 8902 58be d979 67be 04f7 ad3d 151d 49bc
000001a0: c586 77be 7f64 89be 100e 8ebe bcbf 4cbe
000001b0: 4089 1d3f 0721 da3e cbc7 643e f390 70be
000001c0: f201 97be a231 713e 17eb d7be c059 b8bd
000001d0: b0fa ecbd b503 ef3c 193e 433d 841c ae3e
000001e0: 12fe 093f 586a c83e 35b8 733d f808 08bf
000001f0: fc6e 00bf daad 1d3b c1fb 133f 2917 143f
00000200: d278 80be c4ce 6cbd 3f5a 293e fd2c 0cbf
00000210: 55be 483e 6812 a2bd 87c2 03bf 7d6d d23e
00000220: f3b7 8f3e f07c e63e 3731 0bbd be94 ce3d
00000230: 8461 2b3e b227 03bf 9ddd 05bf 1360 8dbe
0.050460953 0.30713323 0.3451346 -0.09003596 0.25225064 0.27775222 0.23595493 0.021191245
0.43483043 0.4590486 0.5043637 0.49179223 -0.17200798 -0.40355417 -0.3398807 -0.21475105
-0.18480863 0.027055616 -0.18627214 -0.09669757 -0.49341783 -0.19454189 -0.34352776 -0.1270735
0.47329158 0.31610796 0.6289518 -0.18689077 -0.18207265 -0.31088316 -0.19664519 -0.08091389
-0.30575454 -0.26077673 0.14262033 -0.07371081 0.20875707 0.007106999 0.34166294 -0.45253557
-0.43167642 0.6291475 -0.45753875 0.17846127 0.21976288 -0.1261504 0.084057294 -0.28668252
-0.20648344 -0.14173731 -0.2521102 -0.012575567 -0.25636128 -0.032129098 0.13523853 -0.20937233
-0.20065677 -0.0864328 0.10719158 -0.23543105 -0.1782573 -0.33754334 -0.029669598 -0.24509573
-0.36942884 0.3823976 0.109845065 0.17530201 0.59220064 0.20479363 -0.10250045 -0.45011508
-0.029900532 -0.33423287 -0.3643358 0.3457082 0.45302674 -0.15921073 0.07180629 0.51393986
0.26102898 0.5321115 -0.22034077 -0.0008239193 0.46111917 -0.17108198 -0.3215747 0.52829534
0.30713758 -0.37260973 -0.05429213 0.06337187 0.15789202 -0.27304032 0.000108638196 -0.4002727
-0.37208787 -0.22491068 -0.341731 -0.11761349 -0.21094717 -0.22605075 0.0849438 -0.012275
-0.24172504 -0.26834485 -0.27745104 -0.19995016 0.6153755 0.42603323 0.2234184 -0.23492794
-0.29493672 0.2355409 -0.42171547 -0.090014935 -0.11571252 0.029176572 0.047666643 0.3400613
0.53903306 0.39143634 0.059501845 -0.53138685 -0.5016935 0.0024059922 0.5780602 0.5784784
-0.2509218 -0.057814375 0.16538332 -0.54756147 0.19603856 -0.07913667 -0.514687 0.41099158
0.2807003 0.45017195 -0.03398248 0.10086964 0.16736418 -0.51232445 -0.5229128 -0.2761236

conv1.bias f4 [16]
00000000: b5a5 5c3d b479 21be 88ac 1abe ddda c0be
00000010: e7fc 8abd d5aa 41be 5327 a4bd 628a 783d
00000020: 5dee 5f3e 4697 d1bd 9801 e2be 6a8e e7be
00000030: 4cb7 51be f9f9 3abd f86f 19be 1285 27be
0.053868968 -0.15769082 -0.15104878 -0.3766698 -0.067865185 -0.18912823 -0.08015313 0.060678847
0.21868272 -0.10233931 -0.4414184 -0.4522584 -0.20480078 -0.04564855 -0.14984119 -0.16359356

conv2.weight f4 [32, 16, 3, 3]
00000000: 0758 9c3d 7cc1 03be 46bb c0be a6b1 e5bc
00000010: d5d7 62bc 409f 0bbd 5181 8bbd e632 e83c
00000020: f3f2 a43d 6689 1f3e 3022 843c 08d8 d0bd
00000030: d234 2d3e d6fa 363e 142b 78be f585 e33d
00000040: 5810 833e f3cf ae3d 5572 02be 1914 133c
00000050: cc85 fd3c 9a34 1b3d be44 e53d ddb7 b23c
00000060: f05f bbbd b796 a3be 246c 9e3b 6e18 bfbd
00000070: 2cf3 f3bc 5c32 903d 5437 3d3a 3b44 2cbe
00000080: 1a74 0dbd 42fd 2fbe 019d f1bd d931 1bbe
00000090: 9577 e1bd 95da bcbe b624 55be 75c3 f03d
000000a0: 21dd 883c 4298 bcbd 93bb f6bd e29e b53d
000000b0: d04c 183e 9ce8 e63a a0fa a4bd 8cfb 463d
000000c0: e1cf ebbc b36c 60be 55af d3bd de23 85bd
000000d0: c9bc c9bd fe41 05be d020 9dbd 4270 b9bc
000000e0: 8c0b 7b3d f782 3a3c 23eb fbbd 9e54 2dbe
000000f0: f50a af3d a4fc 0a3d 2fc8 04be 0608 323d
00000100: c580 76be 8bcd 66be 2343 853e 7006 9d3d
00000110: 8250 83bd 3a0f 6b3e 6be7 b13d 3873 893c
00000120: f77b 923d 2519 353d dc85 6abe f61f c13d
00000130: f10f 0d3e 95ad c53d 130e 34bc 07b0 5ebe
00000140: ab01 333e 26e0 bc3c c8ff 883d abbb 14bd
00000150: c18c 94bc 281f 16bd 138d d83d c9af 0f3e
00000160: 7b93 ddbd 5b1b 0dbd 23f7 fdbd 8e32 22bd
00000170: db0c 753d a620 e1bd 5e7e 20be 13c1 3ebe
00000180: 998a babd f5dc 003e 095f 9b3c e3af 6abd
00000190: eea4 2ebc 451b 8a3d c516 38bd 3035 4fbe
000001a0: 6fea d9bd 5b0f a3bd fedd 5dbd 375d 3dbe
000001b0: dcfc 0e3e 3e92 aebc 48a9 afbd a4e7 013e
000001c0: 8378 933e 3556 24be c4fd d33c c666 a93e
000001d0: 9b6b 6e3e 6404 623e 94ef cdbd e04d 5cbe
000001e0: b273 1b3e eea5 2b3e fe5b 023e 24c0 9b3d
000001f0: dca6 a43d 2299 e53d 6907 323d 134c 9a3d
00000200: 5a52 ccbd 3fbe a23c 18d1 70be 6540 75be
00000210: 5085 dd3d e3a3 783d 9386 183d 2c86 4b3d
00000220: b687 06be 9f2d 25be fb7a f03d a29b 133e
00000230: 9c7a 59bd eba3 483d 9ac0 423e 998b 0b3e
00000240: 25fc dd3c 725b d23d f320 2e3d f477 6d3d
00000250: 175b 89bd b9c2 c73d 10ed 5cbe 82a9 20be
00000260: c349 16bd babf fdbc 9f62 4b3d 95e1 a8ba
00000270: 001b 443d 752d a43d 5483 603e 7ec2 01be
00000280: edfa 18be a268 25be df1d 8b3d c108 523e
00000290: da94 723e 5f90 bebd 3802 55be 32a6 25be
000002a0: 8bfb 95bc 7c07 953d ea98 8d3e f86a 36bd
000002b0: e2d0 17bd 2690 b3bd 9ce2 96bd 7b90 7bbd
000002c0: 9455 58bd 8f3c c43c 96f9 893d 8cdb 8d3d
000002d0: 95a6 053e e0ca 683c 60eb ecbc 0f6a 3a3d
000002e0: ac3e 94bd 0280 1a3e 40c1 13be 6fa4 18be
000002f0: 58eb db3d eb26 6bbd e116 9bbd e43e 7bbe
00000300: e466 f33d 27f1 2b3d 2f06 9d3b 82f7 ea3c
00000310: 3e82 f23d c4b5 c03d a17e 52bd f8a6 0abe
00000320: bb5d 6fbe d0d5 0bbd 25c0 0dbc 0369 133d
00000330: 4e8f 273d f9a6 c43c d048 d33b 4329 0a3e
00000340: d272 e23d db3c d93d f067 563d f515 553c
00000350: 17ae 1d3e b0a6 7cbe c165 25be f951 1c3e
00000360: 93c7 51bd 7359 803e 1172 963e dc35 90be
00000370: 9d41 6bbe 2488 edbd 7ff6 1dbe 66ad 7ebd
00000380: f77f 533c 6065 63bd 0581 c03b 4230 3a3d
00000390: c66c 65bd db80 f9bd dd54 1dbe 2b3d 66bd
000003a0: f1b4 40be 3073 6cbe 68d6 a2bd 765a 1bbd
000003b0: 11d5 ebbd 87ea 50bd 6ea0 2e3e 0cda 403d
000003c0: b903 e43d 4927 5cbd a9bc 4abd 170a 87bc
000003d0: fc14 24be 590a 7ebe 940e 313c 841f 2d3d
000003e0: 896c fabd 2882 533d 8c51 1f3d 3ec7 25bd
000003f0: 90d6 2b3d 8900 923d ff2f cf3d 5515 793d
0.076339774 -0.12866777 -0.37642878 -0.028038811 -0.013845404 -0.03408742 -0.068117745 0.028344583
0.080541514 0.15579757 0.016129583 -0.10197455 0.1691468 0.17869124 -0.24235183 0.11109535
0.25598407 0.08535757 -0.12738927 0.00897696 0.030947588 0.03789196 0.11194752 0.021816188
-0.09149158 -0.31950924 0.0048346687 -0.093308315 -0.02977904 0.07040855 0.00072180224 -0.16822903
-0.03453455 -0.17186454 -0.11797524 -0.15155734 -0.110091366 -0.36885515 -0.20814785 0.117560305
0.016707005 -0.092087284 -0.12047496 0.08868195 0.14873052 0.001761693 -0.080556154 0.048579738
-0.028785648 -0.21916465 -0.10336176 -0.06500982 -0.09850461 -0.13013455 -0.07672274 -0.022636537
0.06129031 0.0113837635 -0.12300708 -0.1692681 0.08547012 0.033932343 -0.12966989 0.043464683
-0.24072559 -0.22539346 0.26027784 0.076672435 -0.0641184 0.22955027 0.086867176 0.016778573
0.07152551 0.044213433 -0.22902626 0.09429924 0.13775612 0.09652249 -0.010989684 -0.21746837
0.17481105 0.023056101 0.066894114 -0.036311787 -0.018133523 -0.036650807 0.10573783 0.140319
-0.10819145 -0.034449916 -0.12400653 -0.039598994 0.059826713 -0.10992555 -0.15673205 -0.1862834
-0.09108467 0.12584288 0.018966215 -0.057296645 -0.0106594395 0.067434825 -0.04494359 -0.20235133
-0.10640418 -0.07961913 -0.054166786 -0.1849259 0.13963646 -0.021309968 -0.0857721 0.1268602
0.2880288 -0.1604851 0.02587784 0.33086222 0.23283236 0.22071987 -0.100554615 -0.21514082
0.15180853 0.16762516 0.12730405 0.07605007 0.080396384 0.112108484 0.043464098 0.07534041
-0.09976645 0.019866107 -0.23517263 -0.23950346 0.10816443 0.06070317 0.037237715 0.049688503
-0.13137707 -0.16130684 0.11742207 0.14414838 -0.053095445 0.04898445 0.19018784 0.13627471
0.027097771 0.10271348 0.04251189 0.057975724 -0.06706827 0.09753937 -0.21574807 -0.15689662
-0.03669144 -0.030975211 0.0496546 -0.0012884611 0.04787731 0.08016483 0.21925098 -0.12671849
-0.1493947 -0.16153196 0.06792807 0.20511152 0.23689595 -0.0930488 -0.20801628 -0.1617668
-0.018308422 0.07276818 0.27655727 -0.044535607 -0.03706444 -0.087677285 -0.07367441 -0.061417084
-0.05281599 0.023954658 0.06737058 0.06926641 0.13051827 0.014208525 -0.02892083 0.0455113
-0.07238516 0.15087894 -0.14429188 -0.14906476 0.10738248 -0.057410162 -0.07572723 -0.2453571
0.11884859 0.041978028 0.004791997 0.028682474 0.11841248 0.09409669 -0.051390294 -0.13540256
-0.23375599 -0.034139454 -0.008651768 0.03598882 0.04090815 0.0240054 0.006447889 0.13492303
0.110570565 0.106073104 0.052345216 0.013005723 0.15398441 -0.24672961 -0.16152097 0.15265645
-0.05121572 0.25068244 0.293839 -0.2816609 -0.22974248 -0.115982324 -0.15426062 -0.062177084
0.012908927 -0.0555166 0.0058747553 0.04545618 -0.056011938 -0.1218278 -0.15364404 -0.056210678
-0.18819024 -0.23090816 -0.07951051 -0.037928067 -0.115152486 -0.051004913 0.17053387 0.047082946
0.111335225 -0.053748403 -0.049496327 -0.016484303 -0.1602363 -0.24808635 0.010806698 0.042266384
-0.12227733 0.0516378 0.03889613 -0.040473215 0.04195267 0.07129008 0.101165764 0.06081136

conv2.bias f4 [32]
00000000: f144 eebd ef98 a8bd 4acb 663d 64ce 2dbc
00000010: 9aed eb3d 9852 183d 97d2 a2bd e4af cbbd
00000020: cffa a93d 1753 5a3d def8 3c3d a64a 23bd
00000030: fd05 8dbc 3ce4 6bbd 4918 823d 2d17 dd3c
00000040: 397e ff3c 185e 933c 6e31 7abc 0aef 223c
00000050: c78c 943d cd49 8bbc 1671 fabc 9636 1a3c
00000060: ea04 4ebd 8569 a8b9 c980 1abd 8972 e03c
00000070: 97e6 063e 59f1 e03d 4b1c eb3c 7013 a4bd
-0.11634243 -0.08232295 0.056346215 -0.010608289 0.11519928 0.037188143 -0.07950323 -0.09945658
0.08299791 0.053301897 0.046135776 -0.039866112 -0.01721477 -0.057590708 0.06352288 0.02698859
0.031188117 0.017989203 -0.015270574 0.009944687 0.07253414 -0.017002964 -0.030571502 0.009412428
-0.050297655 -0.00032122075 -0.037720475 0.027398365 0.131739 0.109835334 0.028700015 -0.0801152

conv3.weight f4 [64, 32, 3, 3]
00000000: 873c 163e 5359 aa3d 10d1 883d 5556 34be
00000010: 3c85 de3c 17d1 0ebd e0b5 8c3d 1a83 43bd
00000020: 8036 293d 16d3 0fbd 1d66 21be c125 2b3c
00000030: 3e91 3a3d e72b ed3c efe8 f0bd 589d adbd
00000040: 9799 903d d584 3b3e 17ae b33d 46ff 1dbd
00000050: 9a2f efbd c0f5 d23d d59e 8b3d 421e e2bc
00000060: 24b8 c7bd a482 28be 3bb4 85be 8296 a1bd
00000070: 99ea 0ebe af09 c5bc 4b19 08be 4bc0 5ebd
00000080: 3e32 f6bd 0759 7ebd faeb 41bd 8659 33bd
00000090: b91d 51be 05ee e5bb e466 91bd 9fc8 26be
000000a0: edd9 2bbd 0687 f2bc 321c 28be 3fde d0bd
000000b0: 68e7 8abd dc3b 7e3d 03e4 7dbc 0d51 503b
000000c0: f53b 393d 5fc3 063d 1940 fc3c 4071 10be
000000d0: 104d 5abe eb98 1bbe 086a 00be 54e2 ffbd
000000e0: 4176 05be 30ef d23c 5143 b03c d61f d1bc
000000f0: 8919 24be 88dd 4dbd 2f7e 3b3e 9ab6 5dbd
00000100: 181a a0be dfc7 02bd 0146 16bd 4ea9 8cbd
00000110: 312d 18be e570 b7bd 1030 74bc 332e e43d
00000120: b499 313d d461 f3bd 5082 12be e21b b9bd
00000130: 052e abbc bd6e 9f3c 2edf 23be 1e76 f2b8
00000140: b28d 1d3c b9a9 33bd b617 44be 2958 62bc
00000150: ed96 123e b411 cf3c 1dc3 b9ba 2f79 8dbd
00000160: d9a4 d1ba fdbf c93d b04c b1bd 8823 fb3c
00000170: ae97 0abc 2ecd a13d 6a5e 183d d0f2 c8bc
00000180: aa3f 923d c7c3 94bc 2800 17be 7aee 283e
00000190: 0a0a 57be bcce 7cbd ad91 dabd ffa5 d4bd
000001a0: a9c9 ac3d d2cc b33d ff9b 14be 49c4 8c3d
000001b0: 1891 d23d 23b3 40bd f088 373d 4d94 47be
000001c0: 0097 a53d 462c 93bd 3e6e 34bd fd33 03be
000001d0: 3160 313e bec5 8d3b acfb 74bc 8c3e 87bc
000001e0: d5d2 983a 60f8 8cbd 40d8 273d 55f0 b53d
000001f0: be18 afbd 37a3 0dbc 4936 84bd 2c85 d53d
00000200: c45c cabd 9a42 87bd b4dc 6a3d cfeb 66bd
00000210: e67a 36be db5e d0bc b89e 23be f101 643d
00000220: 9583 a2bc 2202 e93c 7a7b c4ba a6cc fdbd
00000230: 6fb5 8fbb 6a52 d33d 42e3 c53c 6eba c0bd
00000240: a4fc f6bc 3ba6 62bd 9ba0 e2bb 2055 093e
00000250: d85e 2c3c aa47 c13b bfb4 02be 98b6 5dbc
00000260: e0f3 24bd fc9f 993d 14ed e9bd ba7f d2bd
00000270: 6712 6039 3490 d6bd bc92 a2bd 6fb0 b93d
00000280: f482 b2bd 8b0c 2dbe c4db 603c 90d4 2ebe
00000290: 3fe8 78bd 9410 47bc e3b0 c6bb 52f2 55be
000002a0: e0a6 06bd 946d f73d f5b7 f03d d94e 17be
000002b0: 85b9 f03c 7535 4fbe d2b4 dfbd a354 e23d
000002c0: c3f8 f5bd 323b 62be c8a0 50be 83b2 01be
000002d0: f365 a9bd e32f d2bd 073e 31bc f67d af3d
000002e0: bfbe 1e3c 4b90 01be 716d b73d 00f6 df3a
000002f0: dd25 59be eaa1 a83d 81f3 c73d 7dee 2f3d
00000300: bbdf ffbd 3662 00be bfbd 48bd 22a4 bfbc
00000310: a643 a5bd 8615 89bd f4f4 e83d ccf3 3dbd
00000320: c4e0 123d 29f4 6abd c6b7 e8bd 2d4a 11bd
00000330: ce24 ce3d 2807 dabc 6f24 d43d 864d 953d
00000340: 25b3 9abd 2a7b 58bd c5c5 4fbe 4bb0 5cbd
00000350: 19df ad3b ba21 443d ab05 3abb a746 1d3c
00000360: d0ae 2d3e 3f0b a63d 1111 463d f6e5 e2bc
00000370: 383a 883c c796 20be 9a49 193d 2b61 3f3d
00000380: 4d17 65bc 1dbd 743d 3fe0 3a3e bd8a aa3d
00000390: 0829 d73d fa4b 72bd e312 423d 0cad 483d
000003a0: 6bdb d0bd 0823 f2bd d506 f3bd 73e3 2dbd
000003b0: 0732 673d f985 76be e7a7 adbd ce38 cbbb
000003c0: 8f7f a83c 3e8b c1bd e408 cf3b 1cbd fa3d
000003d0: 3b03 95bd 8b52 733c 1da7 293d 2010 06bd
000003e0: 8bf6 21be 6faa 81bd c13c d83a 149d 9f3d
000003f0: 5e8b 4cbe 05a0 ac3d b78f f5bd b1f0 46be
0.14671527 0.083178185 0.066805005 -0.17611058 0.02716314 -0.034867372 0.068706274 -0.04773245
0.04131174 -0.035113417 -0.1576161 0.010446013 0.04554867 0.028951598 -0.117631786 -0.084772766
0.07060545 0.1831239 0.087734394 -0.038573526 -0.11679001 0.10300779 0.06817404 -0.027602319
-0.09751919 -0.16456085 -0.26114067 -0.07890035 -0.1395668 -0.024052469 -0.13290899 -0.054382604
-0.12021302 -0.06209662 -0.047344185 -0.043786548 -0.20421495 -0.0070168995 -0.07099703 -0.16287468
-0.041955877 -0.0296054 -0.16417006 -0.1019864 -0.067824185 0.062068805 -0.015496257 0.0031786591
0.045223195 0.032901164 0.030792283 -0.14105701 -0.2131846 -0.15195052 -0.12540448 -0.124943405
-0.13033392 0.02574882 0.021516474 -0.025527876 -0.16025366 -0.050260097 0.18309854 -0.05412922
-0.31269908 -0.031928893 -0.036687855 -0.0686823 -0.14860989 -0.0895708 -0.014904037 0.11141624
0.043359473 -0.118838936 -0.14307523 -0.09038521 -0.020895967 0.019461984 -0.16003105 -0.0001156146
0.009616302 -0.043863032 -0.1914967 -0.013814964 0.14315386 0.025276996 -0.0014172528 -0.069078796
-0.0015994563 0.09851072 -0.08657205 0.030656591 -0.008459015 0.07900463 0.037199415 -0.024529845
0.07141049 -0.01815976 -0.14746153 0.16497222 -0.20999923 -0.061720595 -0.10672317 -0.10383224
0.08436901 0.08779301 -0.14512633 0.06873376 0.10281581 -0.047045838 0.04480833 -0.19490166
0.080854416 -0.07186179 -0.044050448 -0.128128 0.1732185 0.004326551 -0.014952581 -0.016509317
0.0011659513 -0.06883311 0.040977716 0.0888373 -0.08549641 -0.0086448705 -0.064556666 0.10425791
-0.09880975 -0.066045 0.057339385 -0.05637723 -0.1782032 -0.025435856 -0.15978515 0.055665914
-0.019838134 0.0284434 -0.0014990412 -0.12392549 -0.0043856422 0.103184536 0.024156217 -0.09410559
-0.030149765 -0.05533431 -0.0069161183 0.13411379 0.010520659 0.0058984356 -0.12764262 -0.013532303
-0.04027164 0.07501218 -0.11422172 -0.10278268 0.0002136916 -0.10476723 -0.079381436 0.09066855
-0.087163836 -0.16899316 0.013724271 -0.17073274 -0.060768362 -0.012149949 -0.006063567 -0.20893219
-0.03287399 0.12081447 0.11753837 -0.14776172 0.029385338 -0.20235236 -0.109231606 0.110512994
-0.12010338 -0.22092894 -0.20373833 -0.12665753 -0.082713984 -0.1026304 -0.010818011 0.08568947
0.009689032 -0.126527 0.08956421 0.0017086864 -0.2120585 0.08234008 0.097632416 0.04295205
-0.12493845 -0.12537464 -0.04900908 -0.023393694 -0.080695435 -0.066935584 0.11374846 -0.04637508
0.035858884 -0.057361756 -0.11363177 -0.03547113 0.10065614 -0.02661474 0.10358512 0.07290177
-0.075537 -0.052851833 -0.20290287 -0.053879064 0.0053061363 0.047883727 -0.0028384726 0.009599364
0.16961217 0.08107614 0.04835612 -0.027697545 0.016629323 -0.15682517 0.037423708 0.046723526
-0.013982606 0.059750665 0.18249606 0.083272435 0.10505873 -0.05915449 0.047381293 0.048993155
-0.10198101 -0.11823088 -0.118665375 -0.04245324 0.056444194 -0.24074544 -0.084792905 -0.00620184
0.020568637 -0.094503865 0.0063181985 0.12243101 -0.07276007 0.014851223 0.041419137 -0.03273022
-0.15816705 -0.06331336 0.0016497598 0.07793632 -0.1997504 0.08428959 -0.11990302 -0.19427754

conv3.bias f4 [64]
00000000: ddff 3fbb 7ad4 c13b b0eb 7fbb 122b acbc
00000010: 2a84 0dbd 98b9 ce3c b531 52bd 0280 b5bc
00000020: db26 30bd 442b 71bd 1de9 acbd 6be9 97bd
00000030: 8859 33bc c878 81bd d7e1 e3bd 02a6 e33c
00000040: ab55 64bd 8e6b 4d3d df16 8dbd de2c a93c
00000050: 011f 723d 938e 8bbd 5aab 90bc fc63 25bd
00000060: 0cd3 b9bd a32c 83bd 78d3 74b4 0969 bdbc
00000070: 8786 45bd c57d 3c3d 4304 c3bd d915 16bd
00000080: a4a7 283d 6873 0a3d d59e 4f3c 9cd3 863d
00000090: 22a9 0f3d a8b6 4bbd 7eed b43c 99d2 0bba
000000a0: 193a 23bd 41ce 743b 5012 7fb8 a5a0 a0bd
000000b0: 7726 6a3c f10d 0f3c 958d d0bc 1402 9fbd
000000c0: e2e4 b9aa 727b 45bd bf86 a73d 7539 053d
000000d0: af3b 3cbd a243 99bc 00f5 ebbd 38f4 213c
000000e0: cc55 ecbc a42a 0cbc 735c 83bc b9e0 b4bd
000000f0: 4111 47bd d01f efbb fe5c 623d 8d84 29bd
-0.0029296794 0.0059152218 -0.0039050393 -0.021016631 -0.03454987 0.025234982 -0.051316936 -0.022155765
-0.043005805 -0.058879152 -0.084429 -0.07417568 -0.010946639 -0.06321865 -0.1112706 0.02778912
-0.05574576 0.0501514 -0.06889128 0.020651277 0.0591116 -0.06814303 -0.017659832 -0.040378556
-0.09073457 -0.06404998 -2.2801203e-07 -0.023121374 -0.048224 0.04601838 -0.09522297 -0.03664193
0.0411755 0.033801466 0.012672146 0.0658333 0.035073407 -0.04973474 0.022085901 -0.00053338107
-0.039850328 0.0037354382 -6.0813793e-05 -0.078431405 0.014291397 0.008731351 -0.025458137 -0.07764068
-3.302142e-13 -0.04821343 0.08179998 0.0325255 -0.045955356 -0.018709008 -0.115213394 0.009884886
-0.028849505 -0.008555088 -0.016035294 -0.08831925 -0.04860044 -0.0072974935 0.055264466 -0.041386176

fc1.weight f4 [20, 576]
00000000: 11ea 2f3e 6635 1c3e e8a4 c2bc 1602 d63d
00000010: 4847 253e 46e8 1cbd e36c bebc e46c 8bbb
00000020: 3b58 8cbd caf0 ff3d ca84 26bd 6802 76bd
00000030: 2bfa 093d 2abe 47bd b4e3 e5bc f8bb 04be
00000040: 5b9a cb3d 87ad 26be 5ec8 ca3c a319 1b3e
00000050: ea4d e43c d898 91bd 36ea 573d 5cdc e63c
00000060: 1af7 b9bd fb9c 703b 10c3 9c3d 0a20 d03d
00000070: 5a96 563c 98b6 ea3d d206 87be de23 3b3e
00000080: b741 d73d 99c2 e8bc 1577 453b 8842 cb3c
00000090: 9f41 773c 7a37 893c cb6c 1bbd 1672 2fbd
000000a0: 6bdb 4f3b b23d 8e3a 41db 29bd fe68 74bc
000000b0: 47a7 41bc ab48 4bbd 8705 2ebd acc1 233d
000000c0: 7482 69b8 85f4 ccbd b612 df3d bd47 3a3d
000000d0: 8dee a13d 44fe 273d 018b 223c 3c0d 783e
000000e0: 9134 13bd 5a4f 213d 2dc7 383e 2b6f 00bd
000000f0: a9c2 66bd 1f32 30bb 347d 963c b877 2e3e
00000100: 3867 3a3d bbb9 a03d bab0 d1bc 8e00 07be
00000110: 0c2f 953d 13da a63d 3d8a 24be 1089 393e
00000120: 48df 1a3e 5d27 d63d 88d3 013e c8f2 43bb
00000130: 1d4b 893b e981 8cbd f5c7 09be dd43 af3d
00000140: 028e 473d bb36 683d 6d2c 323e aed4 213e
00000150: 0bd7 4d3d ac8b 67bc d80a aabb 22c9 b63c
00000160: 1d49 61bb 356a c9bc 3deb 863b 3a19 363d
00000170: 2f43 fa3d bc72 01bd c8f8 df3d d898 cbbc
00000180: 6c23 d23d 9d32 fbbb 039a 90bd 343f b63d
00000190: 90e2 95bd 878e 72bd 9bef 62bb f3b3 7f3d
000001a0: b0ff a13e 4bec 123e 4762 083d 0bc8 b8bd
000001b0: b9aa f23d 1b1f f83c 2d36 7abd 6101 eabc
000001c0: 4321 f83c edb9 1b3e 9010 0a3d 5e45 f13b
000001d0: 6e99 1e3d 5e0f c7bd 6acf 1b3e bb6d 75bd
000001e0: 9df5 a4bd 0e40 903d 8a60 54bd af97 6a3d
000001f0: b266 4abd 2af9 52bd 6f5b 743b 97a9 b63d
00000200: 8b0f 013d aa64 083d ce23 643d 77cb e6bd
00000210: 0df1 99bb 90c3 ae3d e1ef 87bd 3885 c93d
00000220: 14b4 cabd 7b86 1fbe e5a3 d0bc e218 6fbe
00000230: dcc0 ae3d ef6a b13d a320 d83c a670 933b
00000240: 9652 d63d 066c 0b3e 9c0c f63c 4830 2d3e
00000250: fc46 21bd 1ce7 2fbe 21c9 803c 40de 9abd
00000260: 329d bfbd 3b48 afbd 0023 47bd 7afe febc
00000270: 1c20 db3b a5a9 b6be a706 4c3d 1381 343e
00000280: 1e00 91bd f184 133e 7950 183e 05f1 de3d
00000290: cd8f 02be 0ca4 b2bd 4498 e7bd f631 013d
000002a0: a81c 213e 895f a7be 364a 0d3e 5e5b a6bd
000002b0: 066a 5b3d e72f de3d 034b 0ebe 8e9f e53c
000002c0: f898 dc3c 45b7 f63d 189c ae3d c0ff 163e
000002d0: 451a c1bd 8f09 303e a518 4f3e 2e08 15be
000002e0: 953d 173e 769b 403c b40d acbd 6b13 223e
000002f0: 7d88 b43d 5af4 283e a7bd 453c 658e 4cbd
00000300: 2b05 273e f6d1 243d 389c b73d f917 e3bb
00000310: 360b 953d df43 88bc 2c20 e0bc 8979 c2bd
00000320: 8a42 71bd 8de5 343e f480 153c 8eb6 31be
00000330: 124d a03d e5ec 963d f7d6 80bd 78ec 8e3c
00000340: 3733 a9bd 5bdd 8cbd 76b9 483e c551 7d3d
00000350: 4dc0 983e 87b3 77bc 7e56 0a3c 1fae 8cbc
00000360: 9cb0 d3bd 867c 513e f219 563e ced3 59be
00000370: d8cd c63d 1de9 8e3d db85 ca3c d16f 883d
00000380: 2b7c 333d 304c c83d dff4 3e3e 696b 923d
00000390: f228 d53c d467 f4bd fff6 dfbd 0119 d1bd
000003a0: b52c c73d 2558 2abe cca2 1635 1e08 a3b8
000003b0: 89d7 19b7 af1b 73b7 11f6 a5b9 e9e5 4fb7
000003c0: ed0d 6f36 3a9a 6538 050e 4935 d681 f33d
000003d0: f621 763d 5853 80bd 5914 153d 1812 8a3c
000003e0: 3cb0 91bd f0b3 bfbc 63c5 0dbd 73d7 debd
000003f0: dbc0 f53d 8b44 b83c 2d10 9abb 9add d93c
0.17179133 0.15254745 -0.023760274 0.104496166 0.16140473 -0.03830745 -0.02324528 -0.004254924
-0.06852766 0.12497099 -0.04065398 -0.06006089 0.033685844 -0.04876534 -0.028062679 -0.1296233
0.0994155 -0.16277133 0.024753746 0.15146498 0.027869184 -0.07109231 0.052713595 0.028181247
-0.09080334 0.0036714661 0.07654393 0.10162361 0.01309737 0.11460608 -0.2637239 0.18275401
0.10510581 -0.028413104 0.0030130793 0.024811998 0.015091329 0.016750086 -0.03794555 -0.04283341
0.0031716477 0.0010852127 -0.041468862 -0.01491761 -0.011819667 -0.04962985 -0.04248574 0.03997962
-5.5673023e-05 -0.10007576 0.10892241 0.04547857 0.07906828 0.04101397 0.009920836 0.24223799
-0.035938803 0.039382316 0.1804473 -0.031356018 -0.056337986 -0.0026885343 0.018370248 0.17037857
0.045508593 0.07847925 -0.025596965 -0.13183805 0.07284364 0.08147063 -0.16068359 0.18118691
0.15124238 0.10456727 0.12678349 -0.0029899348 0.0041898624 -0.06860716 -0.13455184 0.08557866
0.048719414 0.05669282 0.1739976 0.15803787 0.05025391 -0.014132421 -0.005189281 0.022312704
-0.0034375854 -0.024586776 0.004117398 0.04445765 0.122198455 -0.03160356 0.10936123 -0.024853155
0.102606624 -0.0076659457 -0.070606254 0.08898774 -0.07318604 -0.059217956 -0.003462768 0.062427472
0.31640387 0.14347951 0.03329685 -0.0902253 0.11848969 0.03028827 -0.061086822 -0.02856511
0.030289298 0.15207644 0.0337072 0.0073630055 0.03872054 -0.09719728 0.15215841 -0.0599191
-0.080546595 0.070434675 -0.05184988 0.057273563 -0.049414344 -0.051507153 0.0037285944 0.089190654
0.031508964 0.033299126 0.05569821 -0.112692766 -0.004697925 0.08533394 -0.0663755 0.098398626
-0.098976284 -0.15578644 -0.025468776 -0.23349336 0.08532879 0.08662974 0.02638275 0.0044995127
0.10464971 0.13615426 0.03003531 0.16912949 -0.039374337 -0.17178005 0.015720906 -0.07561922
-0.093561545 -0.08558699 -0.048617363 -0.031127203 0.0066871773 -0.35676304 0.04981103 0.17627363
-0.070801005 0.14406182 0.14874448 0.108858146 -0.12750168 -0.08722696 -0.11308339 0.031541787
0.15733588 -0.32690075 0.1379784 -0.08122896 0.05356791 0.108489804 -0.13895802 0.028030183
0.02692841 0.12046675 0.08525866 0.14745998 -0.09428839 0.17191146 0.20224245 -0.14553902
0.14769585 0.011755815 -0.08401051 0.1582772 0.088150956 0.16499463 0.012069142 -0.049940486
0.16310565 0.040239297 0.08965343 -0.006930348 0.07277529 -0.016633926 -0.02735909 -0.09495837
-0.058901347 0.17665692 0.009124983 -0.17354795 0.078272 0.07369403 -0.06291001 0.017446741
-0.082617216 -0.06878158 0.19601998 0.06184556 0.29834214 -0.015118486 0.008443473 -0.017172871
-0.1033642 0.20457658 0.20908335 -0.21272203 0.0970723 0.069780566 0.02472203 0.06661952
0.043819588 0.097801566 0.18648098 0.07149393 0.0260205 -0.11933866 -0.10935783 -0.10209847
0.09725324 -0.16635187 5.6116255e-07 -7.7739576e-05 -9.169694e-06 -1.4490374e-05 -0.00031654586 -1.2391692e-05
3.562188e-06 5.474149e-05 7.4898736e-07 0.118899986 0.06009098 -0.062658966 0.03639636 0.01685433
-0.07113692 -0.02340123 -0.03461207 -0.108809374 0.11999675 0.022493621 -0.0047016353 0.026594926

fc1.bias f4 [20]
00000000: 87ec c93d 391c 41b2 2902 863d a084 87bc
00000010: 68c0 c63c 697a fc3d 7b87 0000 cc14 eb8c
00000020: 8ef5 dbb1 890e 1f3c 59b1 66bb b025 843c
00000030: 96c1 463d 9504 03ba 8110 1c3c f7c1 91bc
00000040: 1d99 1dbd 8cbe a109 d180 2bb6 e8f8 a6bc
0.09859567 -1.1240496e-08 0.06543381 -0.016542733 0.024261668 0.123280354 4.8601e-41 -3.622e-31
-6.401655e-09 0.009708055 -0.0035200922 0.016131252 0.04852446 -0.0004997936 0.009525419 -0.017792685
-0.0384761 3.893853e-33 -2.5555967e-06 -0.02038236

fc2.weight f4 [10, 20]
00000000: 4512 54be eb16 853b 0ae0 c1be 359e 27be
00000010: d101 033e a398 353e da8a 0080 8b89 0080
00000020: e4bc df34 d4c4 cbbe e4fa bd3c 6f2c 963d
00000030: a013 7c3e b6cc 2e3c 2e3d 74bd 001e ac3e
00000040: 0973 64be 108a 0080 2c2e aab8 2387 d0bc
00000050: 7f81 2bbe 6211 46bb a79c 173e 65c7 6ebe
00000060: 26e8 ca3e c948 8fbd 0989 0000 f888 0000
00000070: 69c1 24b9 b2cc bd3d 8a14 9e3c bbe3 2e3d
00000080: 375b abbe ccc4 26bb ff8b 5abe 9536 683d
00000090: 3901 2d3e 5c8b 0000 f0d9 b936 f7e8 1a3c
000000a0: d169 81bd 7628 cc3c 9f8c 52be 6e7d c3bd
000000b0: 081c b5bc 7d6f 823e 6c8d 0000 4289 0000
000000c0: 2efc cd13 972b b0be b31a 94bb 1dfb d5bd
000000d0: de02 2ebe 858a 333a 89b1 fb3d 8444 963d
000000e0: 9928 113e 7a9e 0000 ce0e 413a 7497 40bd
000000f0: 5d5a 333e 88bb f23c 5deb 8a3b 83dd 8dbc
00000100: 65e6 7ebd bfb2 d73d 3b3a 270d 6713 9e87
00000110: 773b 4a37 2692 c2be 05e7 9d3d 43e4 e2bc
00000120: bf0a 633d 7ffc debc 6ce7 bdbe e3d2 b8bd
00000130: 47f5 e83d bf88 0000 ea8d 3fb7 8a6c 993b
00000140: d766 f2bd 17f9 f33b 00a9 eabd dd69 5a3d
00000150: 4fce bbbe d096 e1be 1948 d490 2789 0000
00000160: 17d2 e1b1 4ef5 423e 66b6 e23a b519 60bd
00000170: ea16 a83c 1de1 c2bc 6eee 6b3e 0db8 d1bd
00000180: 323d 633e 829a 0000 ad75 8db3 d2d8 07bc
00000190: 910e 5ebc eeb6 48bd 4d17 163e bf6b 1ebe
000001a0: db69 09be 52ee 9cbd e589 0080 ae89 0000
000001b0: 4a90 daaf 633b 02bc cb36 04bd b4b6 eebd
000001c0: 04c9 913e d3d0 0b3d 60af 8fbe 5321 773e
000001d0: 1f8e 7bbe 6a8a 0080 dabb 902d a075 b3bc
000001e0: b48c e0be 078d 3c3c f168 59bd b5e0 773e
000001f0: dc22 dbbd ee52 433e 038c 0000 ca89 0080
00000200: ee69 8033 eea9 3b3e d320 c13c 4828 8fbd
00000210: 0123 99bc 5fdd 0f3b 2acd 613d c584 023e
00000220: 6027 75be e288 0000 4863 4036 c632 6dbc
00000230: c410 2d3e 12b9 a3bb b5dc abbe eb6b 4ebd
00000240: 4977 1dbe 3243 a0be ea84 2b25 a389 0000
00000250: cfc6 29a2 b48a b6bd 9ac8 193d d83e 89bd
00000260: 13ed 53be 1688 b1bc 22ed 893c a3d4 853e
00000270: 4967 d83d 578b 0000 e63f 2aa7 2866 08bd
00000280: 4085 053e d868 01bb eb78 3c3e 9921 05be
00000290: c869 03bd 6007 433d 4889 0080 1e89 0080
000002a0: cd74 183b e746 bebd 90cf 163a d7fb 763c
000002b0: 3aab 4fbe 25a6 2ebd a1a0 063e 9770 be3d
000002c0: 3c84 b4be e989 0000 205d 01b0 20f5 48bd
000002d0: 8bc2 683e 7551 e4bb 6019 8abe cc1d adbd
000002e0: f855 b0bb 0f9a 4bbe 1bb1 ed2c fa89 0080
000002f0: c474 0939 5524 c83d 8d8d 8bbc 02ee 503c
00000300: afe2 243e 5aeb 7dbd 2e1f f63d b05e 86be
00000310: 2270 54be 9589 0000 b136 cfad 22c0 313c
-0.20710094 0.00406157 -0.3786624 -0.16368945 0.12793662 0.17734008 -4.981e-41 -4.9341e-41
4.1674423e-07 -0.39798605 0.023190923 0.07332694 0.24616861 0.010668924 -0.059628658 0.33616638
-0.22309507 -4.9527e-41 -8.114832e-05 -0.025455063 -0.16748618 -0.0030222763 0.14805852 -0.2331825
0.3963024 -0.069963045 4.9159e-41 4.9135e-41 -0.0001571231 0.09267558 0.019296903 0.04269765
-0.3346803 -0.002544689 -0.21342467 0.05669268 0.16894998 4.9993e-41 5.538801e-06 0.009454957
-0.06319011 0.024921637 -0.20561455 -0.09545408 -0.022108093 0.25475684 5.0733e-41 4.9239e-41
5.1997944e-27 -0.34408256 -0.0045197844 -0.10448287 -0.16993281 0.0006848949 0.122897215 0.07337287
0.14175643 5.685e-41 0.0007364572 -0.047019437 0.1751494 0.029630437 0.0042394833 -0.01731754
-0.06223144 0.1053214 5.153094e-31 -2.3784601e-34 1.20539835e-05 -0.38002127 0.07710079 -0.027696734
0.05543017 -0.027220009 -0.37090623 -0.090245984 0.11374908 4.9055e-41 -1.1417529e-05 0.0046821283
-0.118360214 0.0074454653 -0.114580154 0.053323615 -0.36680838 -0.44060373 -8.373034e-29 4.9201e-41
-6.5722463e-09 0.19038889 0.0017296791 -0.054712016 0.020518739 -0.023788983 0.23040172 -0.10240183
0.22191313 5.5427e-41 -6.587229e-08 -0.00829144 -0.013553278 -0.04900258 0.14657326 -0.1547079
-0.13419287 -0.076626435 -4.9467e-41 4.939e-41 -3.9756493e-10 -0.007948729 -0.032278817 -0.116559416
0.28473675 0.034134697 -0.28063488 0.24133806 -0.24565934 -4.9654e-41 1.6454327e-11 -0.021906674
-0.43857348 0.011508233 -0.053078596 0.24206813 -0.10700008 0.19074604 5.0227e-41 -4.943e-41
5.979733e-08 0.18326542 0.023575222 -0.06990105 -0.018693449 0.0021952016 0.0551273 0.1274596
-0.23940802 4.9104e-41 2.8668019e-06 -0.014477437 0.16900927 -0.0049964273 -0.33566824 -0.050395887
-0.15377535 -0.31301266 1.4876919e-16 4.9375e-41 -2.300902e-18 -0.08913174 0.037544824 -0.067014396
-0.20695905 -0.021671336 0.016836707 0.2613879 0.10566575 4.9986e-41 -2.3626879e-15 -0.03330055
0.13039112 -0.001974633 0.18405502 -0.13001098 -0.032083303 0.047614455 -4.9247e-41 -4.9188e-41
0.0023262978 -0.09290867 0.0005752975 0.015074692 -0.20280161 -0.042638917 0.13147213 0.092988186
-0.35257137 4.9473e-41 -4.7062265e-10 -0.049061894 0.22730462 -0.0069677182 -0.26972485 -0.08452949
-0.005381342 -0.19882987 6.755608e-12 -4.9497e-41 0.00013108837 0.09772555 -0.01703527 0.012752058
0.16102098 -0.061992027 0.12017666 -0.26244116 -0.207459 4.9355e-41 -2.3557463e-11 0.010849031

fc2.bias f4 [10]
00000000: 03d7 ab3e a116 e93c 7e8b 5bbe b9dd 3c3e
00000010: 2f36 f03d 2cde ee3c 4c07 d0bc bba9 17be
00000020: 74b7 7f3d d3a2 833e
0.33562478 0.028453173 -0.21439931 0.18443955 0.11729085 0.029158674 -0.025394104 -0.14810841
0.062430814 0.25710163
